models/female_forenames.pth (torch, 222554 bytes, 16 tensors)

encoder.conv_layer_1.weight f4 [50, 1, 3]
0	0xbd7ddf9f	-0.06198084
1	0xbd20c625	-0.039251465
2	0x3b5611b5	0.0032664363
3	0x3b960d22	0.0045792023
4	0x3d33fba2	0.043941148
5	0xbdb23af8	-0.08702654
6	0xbebad266	-0.36488646
7	0x3dc25e90	0.094906926
8	0x3d464567	0.04840603
9	0x3e9245cd	0.2856888
10	0x3ec0f671	0.3768802
11	0xbf14e3aa	-0.5815989
12	0x3e4409a9	0.1914431
13	0xbf161dea	-0.58639395
14	0xbf1488e9	-0.5802141
15	0xbd96b120	-0.07358003
16	0x3d8c7d5d	0.06859849
17	0xbd3990cf	-0.045304116
18	0x3b2d4d22	0.002644368
19	0xbb908a7e	-0.004411041
20	0xbb598f59	-0.0033197014
21	0xbd9deaca	-0.07710798
22	0xbdb3f3ca	-0.087867334
23	0x3de7f687	0.11326318
24	0xbde75710	-0.11295903
25	0xbed44237	-0.41456768
26	0xbcff679b	-0.031177333
27	0x3d7ecf99	0.0622097
28	0xbe8ccf59	-0.27501944
29	0xbe5f47bb	-0.21804707
30	0xbeb636a4	-0.35588562
31	0xbdd923b0	-0.1060251
32	0xbcb73cf2	-0.022367928
33	0xbeb8b5c8	-0.36076188
34	0xbed6c5ea	-0.4194787
35	0xbdb3bd8a	-0.08776386
36	0x3d8a2d31	0.06746901
37	0xbeebd8d7	-0.46063873
38	0x3d0057d4	0.03133376
39	0xbe9edd83	-0.31028375
40	0xbe905a77	-0.2819402
41	0x3ee9890a	0.45612365
42	0xbe8279cf	-0.25483558
43	0x3e871ee0	0.26390743
44	0xbec464b8	-0.38358092
45	0x3d3a57ce	0.045493893
46	0xbc9de271	-0.019273015
47	0xbdb06939	-0.0861382
48	0xbd411bce	-0.047145657
49	0xbe7ef8c7	-0.24899589
50	0x3a53c613	0.00080785266
51	0x3c980145	0.018555293
52	0xbe2231bf	-0.15839289
53	0xbd3efeec	-0.04662983
54	0xbbf5e7d2	-0.007504442
55	0x3c1239d2	0.008924918
56	0xbb78ad7c	-0.0037945202
57	0xbc0485e0	-0.008088559
58	0xbc17b6d6	-0.0092599
59	0x3b8b540c	0.0042519625
60	0xbde58dfb	-0.11208721
61	0x3deaf7d2	0.11473049
62	0xbd64583c	-0.05574821
63	0x3dc28bcd	0.09499321
64	0xbdcaadb9	-0.09896416
65	0xbe072bc8	-0.13200295
66	0x3dce9cbd	0.10088489
67	0xbe9d4f0e	-0.30724376
68	0x3e25e088	0.16198933
69	0xbeb6671e	-0.35625547
70	0xbe9ef9e2	-0.3105002
71	0x3f0d4bed	0.5519398
72	0x3d016a1f	0.031595346
73	0xbe4c4353	-0.19947557
74	0xbc31a0d5	-0.010841568
75	0xb88115c7	-6.155256e-05
76	0x39c7ff3d	0.00038146405
77	0x3b3e478e	0.002903435
78	0xbd5abe26	-0.053403996
79	0xbd7eae9d	-0.062178243
80	0x3db165ca	0.08661993
81	0xbe12702f	-0.14300607
82	0x3e596ebb	0.21233647
83	0xbd0d569e	-0.034506433
84	0xbf10b1ce	-0.5652131
85	0x3b7377f9	0.0037150367
86	0x3e8b96c4	0.27263463
87	0x3a508ebc	0.00079558394
88	0xbc23c7c6	-0.00999636
89	0xbbb351da	-0.005472404
90	0xbeaab260	-0.33339214
91	0x3ea83bc3	0.32858095
92	0x3e0211e3	0.12702136
93	0xbb67d73d	-0.0035376095
94	0x3d31ef2c	0.043440983
95	0xbd95680d	-0.07295237
96	0xbe27f50b	-0.1640207
97	0xbe981d93	-0.29710063
98	0x3ed84585	0.4224054
99	0x3b0b9b28	0.0021302197
100	0xbaa82d59	-0.0012830897
101	0xbb70d2e3	-0.0036746792
102	0xbe085431	-0.13313366
103	0x3e140d41	0.14458181
104	0xbe43b310	-0.19111276
105	0xbe147986	-0.14499483
106	0xbc8130be	-0.015770312
107	0x3deb797e	0.11497782
108	0xbe5257ab	-0.20541255
109	0x3c704319	0.014664435
110	0x3e66f794	0.22555381
111	0xbe009826	-0.1255804
112	0x3c91b323	0.017785614
113	0x3d9afe46	0.0756803
114	0xbecd0c9a	-0.40048677
115	0x3dacfea7	0.084470086
116	0x3d7a1700	0.06105709
117	0xbda187c6	-0.07887225
118	0x3d752081	0.05984545
119	0x3cbebfec	0.023284875
120	0xbd565ead	-0.052336384
121	0x3d87e2f1	0.066350825
122	0xbc12aeb5	-0.008952786
123	0x3d8ce662	0.068798795
124	0xbec3bc8d	-0.3822979
125	0x3cb03cdb	0.021513393
126	0x3dca54b7	0.09879439
127	0xbe35314d	-0.17694588
128	0xbe4ec99c	-0.20194095
129	0xbe593b1e	-0.21213958
130	0x3e82d377	0.2555196
131	0xbed78539	-0.42093828
132	0x3d7424dc	0.059605464
133	0xbdd01c97	-0.10161703
134	0xbe1e4c20	-0.15458727
135	0xb9ad62bd	-0.00033070697
136	0x3bd0118a	0.006349747
137	0xb8c8e14d	-9.578709e-05
138	0xbde56799	-0.112014
139	0xbbf97fed	-0.007614127
140	0x3d8de897	0.069291286
141	0xbc5d201d	-0.013496426
142	0x3d532c0a	0.05155567
143	0xbdcc206f	-0.09967124
144	0x3d5b7bb8	0.053584784
145	0x3db7a388	0.08966738
146	0xbe761c02	-0.24034122
147	0xbca97f1c	-0.020690493
148	0xbc219d79	-0.009864205
149	0xbb462d4a	-0.0030239397

encoder.conv_layer_1.bias f4 [50]
0	0xbb86d349	-0.0041145426
1	0x3e9e1fa6	0.3088352
2	0xbf501d5d	-0.81294805
3	0x3e30e37a	0.17274275
4	0xbf681e97	-0.90671676
5	0x3ee745fb	0.45170578
6	0xbe0091ff	-0.12555693
7	0xbeaf8abf	-0.34285542
8	0x3f0984cb	0.5371825
9	0xbe08e182	-0.13367274
10	0x3f0f63ee	0.56011856
11	0xbe8465a9	-0.2585881
12	0xbcc612a3	-0.024178809
13	0xbe9862d1	-0.2976289
14	0xbdb330aa	-0.08749516
15	0xbe8fa7c1	-0.28057674
16	0x3e4254c8	0.18977654
17	0xbe0fd747	-0.14046966
18	0xbdfd3453	-0.12363496
19	0xbbb2ff21	-0.0054625426
20	0x3f19c004	0.6005862
21	0xbe933d14	-0.28757536
22	0x3bea7c4c	0.0071559306
23	0x3ec9779b	0.39349064
24	0x3ec9a0b4	0.3938042
25	0xbec3bde1	-0.38230804
26	0x3e0360d5	0.12829907
27	0x3ef1c52c	0.47220743
28	0xbeb17425	-0.34658924
29	0xbd8edadf	-0.0697534
30	0xbefe6338	-0.49685073
31	0xbee8adef	-0.454452
32	0xbec3c32c	-0.38234842
33	0xbe114645	-0.14186962
34	0x3d06a093	0.03286798
35	0x3e447993	0.19187002
36	0xbeab3383	-0.33437738
37	0xbe0a27af	-0.134917
38	0x3e8991bc	0.26869
39	0xbe8b557f	-0.27213666
40	0x3e867633	0.26262054
41	0x3efd63ce	0.49490207
42	0x3cd38357	0.025819464
43	0x3e5a870a	0.21340576
44	0x3ee751fe	0.45179743
45	0xbf0200fd	-0.5078276
46	0x3e50207e	0.20324895
47	0x3d4bd823	0.04976667
48	0xbdacf79b	-0.084456645
49	0x3e9b0b09	0.30281857

encoder.conv_layer_2.weight f4 [40, 50, 3]
0	0x3d794562	0.060857184
1	0xb9ea57da	-0.00044697413
2	0x3d70d122	0.058793195
3	0x3c96ca2c	0.01840695
4	0xbd39e377	-0.045382943
5	0x3c953c38	0.018217191
6	0x3c640e85	0.013919477
7	0xbd23ff5a	-0.040038444
8	0xbc0aa627	-0.008462465
9	0x3bca6344	0.006176384
10	0xbca87d61	-0.020567598
11	0x3d29e010	0.04147345
12	0xbd074ca7	-0.033032086
13	0x3d9b4173	0.07580843
14	0x3d13a2a5	0.03604378
15	0xbc203f9d	-0.009780792
16	0x3cb9d86f	0.022686211
17	0xbc30beac	-0.010787647
18	0x3dc81a40	0.09770632
19	0x3da6db61	0.08147312
20	0xbd5b1e5d	-0.053495754
21	0x3d198a91	0.037485663
22	0xbcbb62de	-0.022874292
23	0xbce9be1a	-0.02853303
24	0x3b8e6045	0.0043449723
25	0x399997b4	0.00029295462
26	0x3c7ae1f2	0.015312659
27	0x3bf8d1b0	0.007593356
28	0x3d754b8a	0.059886493
29	0xbbb33caf	-0.0054698805
30	0x3d341de8	0.043973833
31	0x3dd7ed3d	0.105432965
32	0xbc9d8f04	-0.019233234
33	0xbc90d06d	-0.01767751
34	0x3db715a2	0.08939673
35	0x3db86270	0.090031505
36	0x3d9af894	0.07566944
37	0xbcbb51a3	-0.022866076
38	0xbcd2d951	-0.02573839
39	0x3937717f	0.0001749452
40	0x3cdced8a	0.026968736
41	0xbcaed80a	-0.02134325
42	0xbd50c2b1	-0.050966922
43	0x3d027ad5	0.031855423
44	0xbd879465	-0.06620101
45	0x3cba7cd3	0.022764599
46	0x3bfa0fc7	0.0076312753
47	0xbc8dc7a0	-0.017307103
48	0xb9dc8311	-0.00042059322
49	0xbd316fca	-0.0433195
50	0x3c8e5dc4	0.017378695
51	0xbd2886a9	-0.041144047
52	0x3cc20b1c	0.023686938
53	0x3d91397c	0.070910424
54	0x3c5264dc	0.01284143
55	0xbd7dca5d	-0.061960567
56	0xbd34d229	-0.044145737
57	0x3d76a132	0.06021232
58	0x3d984d65	0.07436637
59	0x3aaef122	0.001334701
60	0x3d0b0474	0.033939794
61	0xbc344472	-0.011002647
62	0xbd89f8a2	-0.06736876
63	0x3d6f22bc	0.058382735
64	0xbd0c5cba	-0.03426812
65	0x3dc4157c	0.0957441
66	0x3d8df777	0.06931966
67	0x3d2f7c9d	0.04284345
68	0x3e0552d9	0.13019885
69	0xbe00fa11	-0.12595393
70	0x3cefab0d	0.029256368
71	0x3d3c199e	0.045922868
72	0xbb0280d2	-0.0019913209
73	0x3d608282	0.054811962
74	0x3d467615	0.048452456
75	0x3b9a37c1	0.0047063534
76	0xbb08fc84	-0.0020902464
77	0x3dc1e4ef	0.09467494
78	0x3dd2932a	0.102819756
79	0xbd8fb4e4	-0.07016924
80	0xbd020433	-0.031742286
81	0x3d4002d7	0.04687771
82	0x3c69ad6f	0.014262541
83	0xbc9d5492	-0.019205365
84	0x3d22d1ea	0.03975097
85	0x3d305248	0.04304722
86	0xbd535655	-0.051596005
87	0xbcdbd18e	-0.026833322
88	0x3d915111	0.0709554
89	0x3de6fed7	0.112790756
90	0x3ba3f7b5	0.005003894
91	0xbb4b9a94	-0.0031067478
92	0x3d252a4a	0.040323533
93	0xbd726755	-0.059180576
94	0xbc71b627	-0.014752901
95	0xbc888fd0	-0.016670138
96	0xbdcd7cbc	-0.10033557
97	0x3b9f31e3	0.004858242
98	0xbd0c6e0a	-0.03428463
99	0x3d62df4d	0.055388737
100	0xbd3be9c7	-0.045877244
101	0x3d5a3097	0.053268995
102	0xbda1a13c	-0.07892081
103	0xbc850a3f	-0.016240237
104	0x3d403f21	0.046935204
105	0x3dfacbf7	0.122459345
106	0x3c9e3fcd	0.019317532
107	0xbcf1a4ae	-0.02949747
108	0x3d9ab790	0.07554543
109	0x3c03fb0c	0.00805546
110	0x3d904905	0.07045177
111	0x3c9813ea	0.018564183
112	0x3d2e5f27	0.042571213
113	0xbd900157	-0.070315056
114	0x3c4b36ab	0.012403171
115	0x3b6601dc	0.0035096323
116	0xbcba14df	-0.02271503
117	0xbcfad198	-0.03061752
118	0x3c464b20	0.012102872
119	0xbc8358ba	-0.016033519
120	0xbd615605	-0.055013675
121	0x3d068beb	0.03284828
122	0xbd930ea9	-0.071805306
123	0x3c13e93e	0.009027777
124	0xbd0b0f88	-0.03395036
125	0xbdbe9681	-0.0930605
126	0xbd4fedf4	-0.05076404
127	0x3e02ab4c	0.12760657
128	0xbc5b3ee3	-0.013381693
129	0x3d2ff058	0.04295382
130	0x3d3a51a4	0.045488015
131	0x3ce448d7	0.027866764
132	0xbcd89e60	-0.026442707
133	0xbd2369d3	-0.039895844
134	0xbccf511d	-0.025307233
135	0xbcfb378f	-0.03066614
136	0x3cace6f0	0.021106213
137	0xbd463079	-0.04838607
138	0x3d15e612	0.036596365
139	0xbd91d59d	-0.071208216
140	0xbb8ef479	-0.0043626395
141	0xbdb45f30	-0.08807218
142	0x3c8d619b	0.017258456
143	0x3db236d6	0.087018654
144	0xbdc62ffc	-0.09677121
145	0xbd8a41c0	-0.06750822
146	0x3cb34838	0.021885023
147	0x3d99b545	0.075052775
148	0x3c0989e9	0.008394697
149	0xbdfcbfcd	-0.123412706
150	0x3dcb2bc7	0.09920459
151	0x3d68505c	0.05671726
152	0xbd02341e	-0.031787984
153	0x3d8e32c1	0.06943274
154	0xbd975206	-0.073886916
155	0xbda3ee31	-0.08004416
156	0x3c6a8ae6	0.0143153425
157	0xbdbe60cc	-0.09295806
158	0x3d4d6810	0.05014807
159	0x3cb59185	0.022164116
160	0xbd2200a2	-0.039551385
161	0x3d192621	0.03738988
162	0xbd155c0a	-0.03646473
163	0xbcfb702a	-0.030693132
164	0x3d7241f2	0.05914492
165	0x3cbcff54	0.023070969
166	0xbc593334	-0.013256837
167	0xbd2a094e	-0.04151278
168	0x3dae28f7	0.08503907
169	0x3cc0efa6	0.023551773
170	0xbd09ffa4	-0.033691064
171	0xbd32050b	-0.04346184
172	0x3d9fadb0	0.077968
173	0x3cfda936	0.030964475
174	0x3dc53889	0.09629924
175	0x3d8a4a0b	0.06752404
176	0xbc6d5f23	-0.014488014
177	0x3db5f780	0.088850975
178	0x3d61f501	0.055165295
179	0x3d2859b1	0.04110116
180	0xbc7ac494	-0.015305657
181	0x3c3f31b3	0.011669564
182	0xbe00041e	-0.1250157
183	0x3c6d62c6	0.014488881
184	0x3c8af537	0.01696263
185	0x3c13fe08	0.009032734
186	0x3d09d30b	0.033648532
187	0x3d379644	0.04482104
188	0xbd1fdca0	-0.039028764
189	0x3dcfce5b	0.10146781
190	0xbdd694ad	-0.104775764
191	0xbdcf6602	-0.10126878
192	0x3d05895b	0.032601696
193	0x3c38957b	0.011266108
194	0xbe02cbba	-0.12773028
195	0xbcfb4429	-0.03067215
196	0x3e068d67	0.13139878
197	0x3dc14922	0.09437777
198	0x3d9c5040	0.07632494
199	0xbd142622	-0.03616918
200	0x3c836b4a	0.01604237
201	0x39346e84	0.00017207308
202	0xbc03254e	-0.0080045
203	0x3d9e2ff5	0.07723991
204	0x3d836cdb	0.06417247
205	0xbcbe95fc	-0.023264877
206	0xbd9251bb	-0.07144495
207	0x3cb78006	0.022399914
208	0x3ac82dbf	0.0015272422
209	0x3bac8385	0.005264702
210	0xbda314d7	-0.07962959
211	0xbc7b7ed0	-0.015350059
212	0xbd00c90f	-0.031441744
213	0x3d081e54	0.03323205
214	0x3dcde8df	0.10054182
215	0xbcb35fb7	-0.021896226
216	0xbcfb0af1	-0.030644866
217	0xbba99424	-0.0051751304
218	0xbd062bcc	-0.03275661
219	0x3d601d6e	0.054715566
220	0xbdbc5528	-0.0919593
221	0xbd3a80ed	-0.04553311
222	0x3d449e42	0.04800249
223	0xbd6ce355	-0.05783399
224	0xbd9a620c	-0.07538232
225	0x3d9877b2	0.07444705
226	0xb9539068	-0.00020176324
227	0xbd8dfd1a	-0.06933041
228	0x3d87864d	0.06617413
229	0xbd07f5b8	-0.03319332
230	0xbcd384d9	-0.025820183
231	0xbddab0a6	-0.10678224
232	0xbd0298e3	-0.031884085
233	0xbbb0e177	-0.0053979713
234	0x3c695547	0.014241523
235	0xbd1d80f5	-0.03845306
236	0x3cc90898	0.02454023
237	0x3d356a6e	0.044290952
238	0x3daa093c	0.083025426
239	0xbdccb8d3	-0.0999619
240	0xbd1777a7	-0.036979344
241	0x3dc788a1	0.09742857
242	0x3e06c5ef	0.13161443
243	0xbde2b6c5	-0.11070017
244	0x3d6d3ce1	0.057919387
245	0x3ccaf578	0.024775252
246	0x3d5353da	0.05159364
247	0xbda99c14	-0.08281723
248	0x3d28431a	0.041079618
249	0xbbac4b1a	-0.0052579762
250	0x3d3c0e8b	0.045912307
251	0x3cdf9925	0.027294705
252	0x3debd9e5	0.115161695
253	0xbcaf6849	-0.021412032
254	0xbda453e4	-0.08023813
255	0x3d6003c9	0.05469111

encoder.conv_layer_2.bias f4 [40]
0	0xbe37e282	-0.179575
1	0xbdcadf8f	-0.09905922
2	0xbdbe00c2	-0.09277488
3	0xbe039b03	-0.12852101
4	0xbe0c8ab2	-0.13724783
5	0xbe26bbc0	-0.16282558
6	0xbdea3856	-0.114365265
7	0x3cf39637	0.029734714
8	0x3dca9aab	0.09892782
9	0xbdd4aec3	-0.10384896
10	0xbd5e4abf	-0.054270502
11	0xbe5543f9	-0.20826711
12	0xbe05d19d	-0.13068242
13	0xbde8fa5e	-0.11375879
14	0xbde9ccff	-0.11416053
15	0xbe0bacc5	-0.13640125
16	0xbd9d3873	-0.076767825
17	0xbd82e087	-0.063904814
18	0xbe05018e	-0.12988874
19	0xbd41ccb2	-0.047314353
20	0xbdef2b1e	-0.11678146
21	0xbdc9c1c4	-0.09851411
22	0xbe4f1882	-0.20224193
23	0x3dcf6d88	0.10128313
24	0xbcbe252d	-0.023211086
25	0xbe48c394	-0.19605857
26	0xbdb0dffe	-0.08636473
27	0xbe25806c	-0.1616227
28	0x3e01ef5d	0.12688966
29	0xbe4401be	-0.1914129
30	0xbdd76be7	-0.105186276
31	0xbddf2778	-0.108962
32	0xbdc72c5b	-0.09725257
33	0xbe48a076	-0.19592461
34	0xbe042d56	-0.1290792
35	0xbe37a712	-0.17934826
36	0xbd30c4d6	-0.043156467
37	0xbe31cbfa	-0.17362967
38	0xbd8c4fd9	-0.06851167
39	0xbe312b7b	-0.17301743

encoder.linear_layer.weight f4 [40, 440]
0	0x3c10c76b	0.008836607
1	0x3d1b18a7	0.037865307
2	0x3ce4466a	0.027865607
3	0x3d050cfd	0.03248309
4	0x3c41ad85	0.011821155
5	0xbc507708	-0.012723692
6	0x3d67749e	0.0565077
7	0xbd25731e	-0.040392987
8	0x3c5cb8f6	0.0134718325
9	0xbc902cc2	-0.017599467
10	0x3c3351d1	0.0109447995
11	0xbc57aee3	-0.013164255
12	0x3ca6726d	0.020318234
13	0xbd3a0f9e	-0.04542505
14	0x3d27b9db	0.04094873
15	0x3d7564b6	0.0599105
16	0xbc99fb2e	-0.01879653
17	0x3c0113e4	0.007878277
18	0xbd5f9231	-0.05458278
19	0xbc94f560	-0.01818341
20	0xbd5fd62a	-0.054647602
21	0xbc03bfd9	-0.0080413455
22	0xbca948ef	-0.02066466
23	0x3c8d6df4	0.017264344
24	0xbcfbf895	-0.030758182
25	0x3d75f671	0.060049478
26	0x3d087385	0.033313293
27	0xbc74778d	-0.014921081
28	0xbb4499a9	-0.0029998815
29	0x3c2ead28	0.010661401
30	0xbd67cf22	-0.05659402
31	0x3ca5e27f	0.020249603
32	0x3cccdf5e	0.025008854
33	0xbcb3a4c7	-0.021929158
34	0x3cf05f6f	0.029342381
35	0x3d402190	0.046907008
36	0xbd2a110e	-0.04152017
37	0xbb245cb3	-0.0025079667
38	0xbc96214a	-0.01832642
39	0x3d003c42	0.031307466
40	0xbd786bf6	-0.060649835
41	0x3b2aa9ad	0.0026041076
42	0x3c9e050d	0.019289518
43	0x3c3bbbdd	0.011458364
44	0x3b6559d6	0.0034996173
45	0x3d3588ae	0.0443198
46	0xbc10fab0	-0.008848831
47	0x3d7bce3a	0.06147597
48	0x3c74f6e4	0.014951441
49	0x3a9f94df	0.0012175104
50	0x3cf56392	0.029954705
51	0xbd0deff9	-0.034652684
52	0x3bba5d6a	0.0056874054
53	0x3c6aa4d1	0.014321522
54	0xbcc83fbe	-0.024444457
55	0xbc2eabbc	-0.010661062
56	0xbd5ba470	-0.053623617
57	0x3c8ac85a	0.016941238
58	0x3d3c027c	0.045900807
59	0x3d29fdef	0.041501936
60	0x3ba36801	0.0049867635
61	0xbcf2895c	-0.029606514
62	0xbc890590	-0.016726285
63	0xbd50b7c6	-0.05095651
64	0xbbc5b1ef	-0.006033174
65	0x3c0cbb92	0.008589642
66	0x3a64b272	0.00087241
67	0xbc1306d2	-0.008973794
68	0xbc30f270	-0.010799989
69	0x3d67755a	0.0565084
70	0x3c91260e	0.017718341
71	0xbd059d4c	-0.032620713
72	0xbd3eea39	-0.04661009
73	0xbc8b5a3d	-0.017010802
74	0x3c6bec07	0.014399535
75	0x3d21543a	0.039386965
76	0xbcb5d489	-0.022196071
77	0xbbc8cada	-0.0061276974
78	0x3c93413f	0.017975448
79	0x3c971d6c	0.018446647
80	0xbda975c2	-0.08274414
81	0x3cc1bf1a	0.023650695
82	0xbba1a58e	-0.0049330657
83	0xbcbd6703	-0.023120409
84	0xbcc87804	-0.02447129
85	0x3d2e5edb	0.04257093
86	0xbb6cda02	-0.0036140685
87	0xbda712fe	-0.08157919
88	0xbc7f3981	-0.015577675
89	0x3cf0001a	0.029296923
90	0x3cd8df40	0.026473641
91	0x3c2d8d8f	0.010592832
92	0xbbfe0f65	-0.0077533
93	0xbda51c02	-0.08061983
94	0xbe057325	-0.13032205
95	0xbdf557ae	-0.11979614
96	0xbda72d86	-0.0816298
97	0xbdf4623d	-0.119328
98	0xbe043075	-0.1290911
99	0xbc357af9	-0.011076682
100	0xbce50706	-0.02795745
101	0xbccfcf55	-0.025367418
102	0x3d1314ce	0.035908513
103	0xbd88c0b4	-0.0667738
104	0xbd5e71b0	-0.05430764
105	0x3cf2a85e	0.0296213
106	0xbd0dc9c6	-0.034616254
107	0xbc8731cf	-0.016503243
108	0x3d5de1b6	0.054170333
109	0x3c35b489	0.011090406
110	0xbbedd969	-0.0072585833
111	0xbd0ce781	-0.034400467
112	0xbc765e40	-0.015037119
113	0x3ce561e7	0.028000785
114	0xbca5b53b	-0.020228019
115	0x3cb930d5	0.022606293
116	0xbc38db80	-0.011282802
117	0xbc048857	-0.008089147
118	0xbd0d8a36	-0.034555636
119	0x3ce17ba8	0.027524784
120	0xbadb5420	-0.0016733445
121	0x3d49de82	0.049284466
122	0xbd141983	-0.036157142
123	0xbcf99d5a	-0.030470539
124	0x3d7e39b4	0.06206675
125	0xbda11851	-0.07865966
126	0x3c794279	0.015213602
127	0x3cb26456	0.02177636
128	0x3d7ef02a	0.062240757
129	0xbd099851	-0.033592526
130	0x3d0d01e1	0.03442562
131	0xba85b993	-0.00102024
132	0x3d426918	0.047463506
133	0x3ca778c6	0.020443331
134	0xbbbc87be	-0.0057534864
135	0xbc2bcae1	-0.010485382
136	0x3d167647	0.03673389
137	0x3d07fe19	0.03320131
138	0x3d28a389	0.041171584
139	0x3acc47d2	0.0015585369
140	0x3c910a34	0.01770506
141	0x3b623aa6	0.003451982
142	0xbcd6eaba	-0.026234973
143	0x3ce4a1b7	0.027909143
144	0xbc883032	-0.016624544
145	0xbb341d91	-0.0027483443
146	0xbb5231ca	-0.0032073134
147	0xbc93cb3f	-0.018041251
148	0xbc7e8841	-0.015535415
149	0x3d323360	0.043506026
150	0xbcc190cb	-0.023628613
151	0xbd84b181	-0.06479169
152	0xbd3f9284	-0.046770588
153	0xbc877a4e	-0.016537812
154	0x39f1fe6a	0.00046156655
155	0xbc8193b9	-0.01581751
156	0x3b251e14	0.002519493
157	0xbd0136c5	-0.031546373
158	0x3c59ab36	0.013285449
159	0x3b9fa936	0.0048724664
160	0xbce5946f	-0.02802488
161	0x3c6184fa	0.013764614
162	0xbb9dbed7	-0.0048140096
163	0x3c9262fa	0.017869461
164	0xbd28bc1a	-0.041195013
165	0x3c23d349	0.009999105
166	0xbc43d99b	-0.011953737
167	0xbd2b95a2	-0.041890748
168	0x3ccdc52a	0.02511843
169	0xbcf38510	-0.029726535
170	0xbd5fa922	-0.054604657
171	0xbb0c333c	-0.0021392843
172	0x3d19888f	0.037483748
173	0xbc65c70a	-0.014024505
174	0xbd9e4f2b	-0.07729944
175	0x3c94101f	0.018074093
176	0xbc02a9bc	-0.007975038
177	0x3ae7e0ce	0.0017690898
178	0xbcccf52c	-0.02501925
179	0x3c483ba7	0.0122212535
180	0x3c51e02d	0.012809795
181	0x3d44264f	0.047888096
182	0x3bef08b4	0.0072947387
183	0x3c561735	0.013067056
184	0x3c6ca2d8	0.014443122
185	0xbca464b1	-0.020067545
186	0x3cfe4dbc	0.031042926
187	0x3cb331ca	0.021874327
188	0x3b7ab322	0.0038253744
189	0xbd00c902	-0.031441696
190	0x3d701390	0.058612406
191	0x3bc111e6	0.0058920262
192	0xbcffe6e2	-0.031238023
193	0x3d140bdf	0.036144134
194	0x3d129e96	0.03579577
195	0xbcec3edc	-0.028838567
196	0x3d33b139	0.043870185
197	0xbd062584	-0.03275062
198	0x3ce05d7d	0.027388329
199	0x3d4a2c20	0.049358487
200	0x3ceb94f9	0.02875756
201	0x35e1d640	1.6826161e-06
202	0x3c08828a	0.008331904
203	0x3dbbbef7	0.09167283
204	0x3d155d01	0.03646565
205	0xbd102181	-0.0351882
206	0x3ca42610	0.02003768
207	0x3d736633	0.059423637
208	0x3d739b93	0.05947454
209	0xbc76385b	-0.015028085
210	0xbcb17aea	-0.021665055
211	0xbcf28af3	-0.029607272
212	0xbcf7704e	-0.030204918
213	0xbb91141b	-0.0044274456
214	0xbc1c0ee9	-0.009525039
215	0x3c1300fc	0.008972403
216	0x3d20c786	0.03925278
217	0x3c863b5c	0.016385727
218	0x3c8f8b3a	0.017522443
219	0x3be22580	0.006901443
220	0x3c450374	0.012024749
221	0x3d371fa1	0.044707898
222	0xbd1fb1e2	-0.038988
223	0xbc2c965c	-0.010533895
224	0xbca7055e	-0.020388301
225	0xbbe7aede	-0.0070704063
226	0x3ba979e9	0.0051720035
227	0xbc5fd968	-0.0136626735
228	0xbda37b32	-0.07982482
229	0x3cbe7db9	0.023253309
230	0xbd82cb8e	-0.06386481
231	0x3bfee482	0.007778705
232	0xbd5a53e6	-0.053302668
233	0xbccb66b8	-0.024829254
234	0x3d7adc8a	0.06124548
235	0xbdf1b2e2	-0.11801697
236	0xbb97b793	-0.004630038
237	0x3da731db	0.08163806
238	0x3bd17b81	0.0063928966
239	0xbd9db472	-0.07700433
240	0xbc4f6b5b	-0.012659873
241	0x3cf81498	0.030283257
242	0xb9df6a6c	-0.00042613165
243	0x3c068ca0	0.008212239
244	0xbcf07fad	-0.029357756
245	0xbe07aa38	-0.13248527
246	0xbd410669	-0.047125254
247	0xbdbba83e	-0.09162949
248	0xbd3f27fd	-0.046668995
249	0x3d62cf30	0.05537337
250	0xbdc4e3ea	-0.09613784
251	0xbce54343	-0.027986174
252	0xbd314785	-0.043281097
253	0xbc2ca3e4	-0.010537121
254	0xbd1ddd0c	-0.038540885
255	0x3d49355f	0.049123164

encoder.linear_layer.bias f4 [40]
0	0x3ca63969	0.020291047
1	0xbd9da507	-0.07697492
2	0xbcef794b	-0.029232642
3	0xbd02cdca	-0.031934537
4	0xbdd4ceca	-0.103910044
5	0xbe2dd74f	-0.16976665
6	0xbd0e413a	-0.034730174
7	0xbd25f54c	-0.040517136
8	0x3c8725ef	0.01649758
9	0x3d44ba94	0.048029497
10	0x3c29a332	0.01035385
11	0xbdcefe27	-0.101070695
12	0x3d2da66d	0.042395044
13	0xbd77e2d2	-0.060519047
14	0xbd819786	-0.06327729
15	0xbd057a35	-0.03258725
16	0xbe707ad2	-0.23484352
17	0x3b6383a7	0.0034715922
18	0x3d15b669	0.036550913
19	0x3d9bbb96	0.076041386
20	0x3c747a8d	0.0149217965
21	0xbb900fc1	-0.0043964093
22	0x3d0c8427	0.034305718
23	0x3b8d2cb1	0.004308306
24	0xbcc45a33	-0.023968792
25	0x3db7d500	0.089761734
26	0x3d8d58f1	0.0690173
27	0x3db65ed5	0.089048065
28	0x3bf8c6cc	0.007592058
29	0xbc2ec451	-0.010666923
30	0xbc9559f7	-0.018231375
31	0xbd3c539f	-0.045978185
32	0xbda7b86a	-0.08189471
33	0x3ca9ec90	0.020742685
34	0xbd1cf6f7	-0.03832146
35	0xbc1f5223	-0.009724173
36	0x398534a9	0.00025406972
37	0x3e57d179	0.21076001
38	0xbd89dcf7	-0.06731599
39	0xbd0cd5a2	-0.034383424

encoder.mean_layer.weight f4 [30, 40]
0	0xbc147f26	-0.009063518
1	0xbc82ffa8	-0.015991047
2	0xbc207e51	-0.009795741
3	0xbc010f3f	-0.00787717
4	0xbb1feb43	-0.0024401702
5	0x39a94a2f	0.00032289463
6	0x3d135a15	0.03597458
7	0xbdf1b9e0	-0.11803031
8	0xbbaa7bf8	-0.0052027665
9	0xbc165acb	-0.00917692
10	0x3c20e96a	0.009821275
11	0x3c3cb403	0.0115175275
12	0xbdb9952d	-0.09061656
13	0x3bf2df30	0.00741186
14	0x3b9038d8	0.0044013076
15	0x3c18a865	0.009317492
16	0xbce1cae1	-0.02756256
17	0x3d5152d2	0.051104374
18	0xbc584ea5	-0.013202344
19	0xbd95a81f	-0.07307457
20	0xbdfcfea9	-0.1235326
21	0x3c2c977d	0.0105341645
22	0xbc3384ea	-0.010956982
23	0x3b02801b	0.0019912783
24	0xbd72a3ac	-0.05923812
25	0xbb3d3302	-0.0028869514
26	0x3c25c09c	0.010116722
27	0x39bfed7c	0.00036607299
28	0xbd63a774	-0.055579618
29	0xbd80c5fd	-0.06287763
30	0xbbdf5e97	-0.006816696
31	0x3ceef7df	0.029170929
32	0x3bdfeda1	0.0068337475
33	0x3c5cc2f8	0.013474219
34	0x3d389dd5	0.045072395
35	0x3c0d3cca	0.00862045
36	0x3c6b5420	0.014363319
37	0x3b4db123	0.00313861
38	0xbbe88bc8	-0.0070967413
39	0x3cf5b45d	0.02999323
40	0xbc28cf6a	-0.010303358
41	0xbceedf39	-0.029159175
42	0xbc16a930	-0.009195611
43	0x3cd23ec3	0.025664693
44	0x3a1e6ab6	0.0006043123
45	0x3c3e0ac1	0.011599244
46	0x3c236b00	0.009974241
47	0xbd80ec6f	-0.06295096
48	0xbc57ec4d	-0.013178897
49	0xbba2fe26	-0.0049741445
50	0x3c23357a	0.00996148
51	0x3d50303e	0.050827257
52	0xbd2e3793	-0.04253347
53	0x3c21fab8	0.009886436
54	0xbbfd806a	-0.0077362554
55	0x3b43f84a	0.002990263
56	0xbc12f6fb	-0.008970018
57	0xbd45dc45	-0.04830577
58	0x3c52aab3	0.012858081
59	0xbb9a1dc2	-0.0047032544
60	0xbd6a92dc	-0.057268962
61	0xbbfe8c18	-0.0077681653
62	0xbbdfe124	-0.006832259
63	0xb847a620	-4.7600013e-05
64	0xbc4f9bf1	-0.012671457
65	0xbc9215c8	-0.017832652
66	0xbbe3f0c7	-0.006956193
67	0xbb882b38	-0.0041555427
68	0xbb9d9cc4	-0.0048099477
69	0xbd1f193c	-0.038842425
70	0x3a1ddb94	0.00060217944
71	0x3c8fe91a	0.017567206
72	0x3c06cc70	0.008227453
73	0x3c42c081	0.011886717
74	0x3bcd0fc9	0.0062579853
75	0xbb58fe44	-0.0033110538
76	0x3c4408ab	0.011964957
77	0xbc2a5dbf	-0.010398327
78	0x3c156f01	0.009120704
79	0xbd03b072	-0.032150693
80	0x3b490f0c	0.0030679135
81	0x3b9268be	0.0044680526
82	0x3ad538d8	0.0016267551
83	0xb8f29748	-0.000115676376
84	0xbb245296	-0.002507364
85	0xbbaa13a0	-0.0051903278
86	0xbb071b0f	-0.0020615493
87	0xbcb494dc	-0.022043638
88	0x3a8efe5b	0.0010909544
89	0x3c08b110	0.008342996
90	0xbae309ca	-0.0017321643
91	0x3caec81e	0.021335658
92	0x3c328be7	0.010897613
93	0x3bc47484	0.005995335
94	0xbc02fe33	-0.007995176
95	0xbaf994f0	-0.0019041579
96	0x3a019e38	0.0004944536
97	0xbbafa3aa	-0.0053600864
98	0xbb3aa4aa	-0.0028479495
99	0x3d120016	0.035644613
100	0xbca61b95	-0.020276824
101	0x3c2a6b4e	0.01040156
102	0x3b926ffa	0.004468915
103	0xbb9e0a9d	-0.0048230425
104	0x3c509a28	0.012732066
105	0xbc392884	-0.011301164
106	0x3c3730c7	0.011181063
107	0xbc8ceb87	-0.017202152
108	0xbd03ed91	-0.032208983
109	0xba2895f3	-0.00064310356
110	0xbb8bfdf6	-0.004272218
111	0x3c7021c2	0.014656486
112	0xbb32a847	-0.0027260946
113	0xbad7e257	-0.0016470653
114	0xbcb25d05	-0.02177287
115	0x3ad8b97f	0.0016534774
116	0x3ba2840b	0.0049595884
117	0x3a79c317	0.0009527667
118	0xbbd6e34d	-0.006557858
119	0xbc76dda4	-0.015067492
120	0x3b3dbbfa	0.0028951154
121	0x3be89ad4	0.007098535
122	0x3bab7cbe	0.0052333763
123	0xba21eec6	-0.00061772426
124	0x3ad358f9	0.0016124538
125	0xba8823e3	-0.0010386672
126	0xbb89493d	-0.004189639
127	0xbba5078f	-0.0050363014
128	0x3bb3c985	0.0054866695
129	0xbbdab190	-0.006673999
130	0xbb573ebb	-0.0032843787
131	0x3c73a314	0.014870424
132	0x3cf74c8e	0.030187871
133	0xbb60cd48	-0.0034302045
134	0xbc6841f4	-0.014175881
135	0x3b5e940b	0.0033962752
136	0x3b77accf	0.003779221
137	0xbc51ece8	-0.0128128305
138	0xba19ed80	-0.0005871877
139	0xbb24edc7	-0.002516614
140	0x3cd24a16	0.025670093
141	0x3a95f85b	0.0011441814
142	0xbbba76f8	-0.0056904517
143	0xbb00a2e2	-0.0019628336
144	0xbb6af397	-0.0035850757
145	0xbc77c301	-0.015122176
146	0xbaf8706c	-0.0018954403
147	0x3a71e4ac	0.0009227495
148	0xbb9a9e1d	-0.0047185556
149	0x3caae726	0.020862173
150	0x3b63a4e7	0.003473574
151	0xbc8a251f	-0.016863404
152	0x3bd2d69c	0.006434275
153	0xbbeb938f	-0.007189221
154	0x3bc1eea5	0.005918341
155	0xbb65647f	-0.0035002527
156	0xbad37616	-0.0016133215
157	0x3b90f334	0.0044235233
158	0x3bb8549b	0.00562532
159	0xba5de312	-0.0008464317
160	0xbd5e625a	-0.054293014
161	0x3ca7813f	0.020447372
162	0x3d63e990	0.055642664
163	0x3aa93498	0.0012909351
164	0x3c65b5e7	0.01402042
165	0x3c9d7095	0.019218722
166	0x3cb7f8f4	0.022457577
167	0x3c9d3558	0.019190475
168	0xbd6e54bd	-0.05818628
169	0x3d43e770	0.047828138
170	0xbd2815c9	-0.0410364
171	0x3cd3d2f6	0.02585743
172	0x3cbb9793	0.022899425
173	0x3d67dc1f	0.05660641
174	0x3bc6cdfc	0.0060670357
175	0x3d31c765	0.043403048
176	0x3c87312d	0.016502941
177	0x3a17f317	0.0005796416
178	0x3c93781f	0.018001614
179	0x3c0011cc	0.007816743
180	0x3d03172e	0.032004528
181	0xbc074378	-0.008255832
182	0xbd05c33d	-0.032656897
183	0xbd495f04	-0.04916288
184	0x3c81be28	0.015837744
185	0x3c28f29d	0.01031175
186	0x3cb6c31b	0.02230983
187	0xbbb1b9f2	-0.0054237777
188	0x3c8dde04	0.01731778
189	0x3bbecd3b	0.005822805
190	0x3d6cb2f6	0.057787858
191	0xbb488d56	-0.003060182
192	0x3d2361aa	0.03988806
193	0x3d59183c	0.053001627
194	0x3c1b0e38	0.009463839
195	0x3d2650f9	0.040604565
196	0x3d6a041a	0.057132818
197	0xba751a60	-0.00093499385
198	0x3d3af6ab	0.045645397
199	0x3cd54695	0.026034633
200	0xbb3fc667	-0.0029262544
201	0xbac0cba4	-0.0014709127
202	0xbb11ea68	-0.002226496
203	0xbca570b5	-0.020195344
204	0x3bb9c00c	0.0056686457
205	0xbb847084	-0.004041733
206	0x3b107c07	0.0022046582
207	0xbcdfc0d1	-0.027313622
208	0xbb6763e3	-0.003530734
209	0xbc6cb0f5	-0.014446487
210	0x3a8971d7	0.0010486197
211	0xbbd096ef	-0.006365649
212	0x3ca5d0fb	0.020241251
213	0xbb464597	-0.003025388
214	0xbbede4d1	-0.007259943
215	0xbbc341a9	-0.005958755
216	0xbaf93b28	-0.0019014822
217	0x3c807204	0.015679367
218	0xbbac9bbc	-0.0052675884
219	0x3c25d013	0.01012041
220	0xbc105dfd	-0.008811471
221	0x3cbb7228	0.022881582
222	0xbc272492	-0.01020159
223	0x3b3c0e1e	0.0028694938
224	0xbd0ccbed	-0.034374166
225	0xbcae82aa	-0.02130254
226	0x3c46a574	0.012124408
227	0xbc885d9c	-0.016646199
228	0x3c1a9679	0.00943529
229	0xb8664118	-5.4896896e-05
230	0xbb865af0	-0.004100196
231	0x3c790421	0.015198738
232	0x39e0d6d4	0.0004288467
233	0x3b001649	0.0019544533
234	0xbc2d5da2	-0.010581406
235	0xbb919a36	-0.004443432
236	0x385f9780	5.330844e-05
237	0xbc1b308e	-0.009472026
238	0x3bdfb7d5	0.0068273344
239	0x3bed60ba	0.0072441967
240	0x3ba1820d	0.0049288333
241	0x3c145935	0.009054472
242	0x3be615a1	0.0070216213
243	0xbd91dbf8	-0.07122034
244	0x3a1504cd	0.00056846143
245	0xbb72fb7a	-0.0037076161
246	0xbced0f56	-0.028937977
247	0x3caef11f	0.02135521
248	0x3c60f2bb	0.013729746
249	0xbb40e126	-0.0029431074
250	0xbb2d262c	-0.0026420457
251	0xbd5fb18e	-0.05461269
252	0x3d29df1b	0.041472536
253	0xbc48df4c	-0.012260269
254	0xbcc3260e	-0.023821857
255	0x3a42352e	0.0007408437

encoder.mean_layer.bias f4 [30]
0	0xbb3eafc4	-0.0029096464
1	0xbc1a3fd7	-0.009414635
2	0xbc454b77	-0.012041918
3	0xbb87fc81	-0.004149974
4	0xbdb0071d	-0.08595107
5	0x3ca9a620	0.020709097
6	0x3cbb88f5	0.022892455
7	0xbcae22e7	-0.021256877
8	0x3c868345	0.016420016
9	0xbccd9bea	-0.02509876
10	0xbcb4fb89	-0.022092598
11	0xbcc64885	-0.024204502
12	0x3d0cdee0	0.034392238
13	0x3cc0c6ad	0.023532236
14	0x3ca8461b	0.020541241
15	0x3bcd2375	0.0062603303
16	0x3c036c70	0.008021459
17	0x3c0a5750	0.0084436685
18	0x3cf61726	0.030040335
19	0x3c054ddf	0.008136242
20	0xbc6623c5	-0.014046614
21	0xbbc643c4	-0.0060505588
22	0xbbad5300	-0.0052894354
23	0xbd6aaeeb	-0.05729572
24	0xbb882f2e	-0.004156015
25	0x3c592fa0	0.013255984
26	0xbbce374b	-0.0062932125
27	0x39bc0a86	0.00035865995
28	0x3c4df654	0.012570936
29	0x3c9ab3c7	0.018884553

encoder.log_var_layer.weight f4 [30, 40]
0	0x3be2beeb	0.006919732
1	0xbb99b29e	-0.0046904823
2	0x3c0b4c89	0.008502134
3	0x3ca4b735	0.020106891
4	0x3c9bbd8d	0.019011283
5	0x389ea927	7.565534e-05
6	0x3d29584d	0.041343976
7	0x3cd8a7d4	0.026447214
8	0xbc71ba9c	-0.014753964
9	0x3d0507ba	0.03247807
10	0x3aa11f7a	0.0012292706
11	0xbb7f3171	-0.0038939381
12	0x3bb043bc	0.0053791683
13	0x3c8ab385	0.016931305
14	0x3c937be6	0.018003415
15	0x3b2d2673	0.0026420623
16	0x3c937e2c	0.0180045
17	0xbb9bb2a3	-0.0047515198
18	0xbcb17ba2	-0.021665398
19	0xbcb59675	-0.02216647
20	0xbca907d1	-0.02063361
21	0x3be7cfc0	0.0070743263
22	0xba1eebbc	-0.0006062349
23	0xbc82652f	-0.015917389
24	0xbc056927	-0.008142746
25	0xbbc9e87d	-0.006161748
26	0x3c0ebec8	0.008712478
27	0xbb2becc0	-0.0026233643
28	0xbd0a03d3	-0.033695053
29	0x3bebf48b	0.0072007827
30	0x3b4582b5	0.0030137722
31	0x3bb1e1f0	0.005428545
32	0xbb9b140f	-0.004732616
33	0x3b89894b	0.004197275
34	0x3a1690bc	0.0005743613
35	0x3cacca81	0.021092655
36	0x3afb2f15	0.0019163812
37	0x3bf7d7b4	0.0075635556
38	0x3a56bf0e	0.00081919215
39	0x3c0a1f3d	0.008430299
40	0xbc36f17b	-0.011165972
41	0x3c2dc0a8	0.010605015
42	0xbbc26a14	-0.0059330557
43	0xbc83e562	-0.01610059
44	0xbace10b3	-0.001572153
45	0x3bdb6490	0.0066953376
46	0xbaa6bbf2	-0.0012720807
47	0x3c525733	0.012838173
48	0xbbbd2bdc	-0.0057730507
49	0xbb3db1af	-0.002894502
50	0xba15b5a3	-0.0005710965
51	0xbbc8d092	-0.006128379
52	0x3cbfae93	0.023398673
53	0xbb0fa4dc	-0.0021918332
54	0xbc434f95	-0.011920829
55	0x3be29438	0.0069146417
56	0x3aefdb64	0.0018299636
57	0x3affa692	0.0019504598
58	0x3a8b0276	0.0010605592
59	0xbb9e8616	-0.0048377616
60	0x3c08c5c9	0.008347937
61	0xbb749149	-0.0037318042
62	0xbb66c2f5	-0.0035211418
63	0xbb8a9446	-0.0042291014
64	0x3c027e33	0.007964659
65	0xbb20306e	-0.002444293
66	0xbc6a9b5f	-0.01431927
67	0x3b5fa80e	0.0034127268
68	0x3cac69fd	0.021046633
69	0x3c03df8a	0.008048901
70	0x3b141476	0.0022595203
71	0xbc1a8ed2	-0.009433465
72	0x3aa208c8	0.0012362236
73	0xbb89eafa	-0.0042089196
74	0xbc0caf55	-0.008586724
75	0x3bba9aae	0.005694709
76	0x3c45a6dd	0.012063709
77	0x3c0d35ce	0.008618785
78	0x3bd12cb9	0.006383505
79	0xbbb7c0b6	-0.0056076897
80	0x3acd4785	0.0015661573
81	0xbbb25bf1	-0.005443089
82	0xba488b94	-0.00076501933
83	0xbb11f965	-0.0022273895
84	0xbc03ddeb	-0.008048515
85	0xbb86b078	-0.004110392
86	0x3a64172b	0.0008700962
87	0xbaaa8ac8	-0.0013011331
88	0x3b8c0d2b	0.0042740307
89	0x3b9d255f	0.0047957147
90	0xba4e83f2	-0.0007877938
91	0xb921b849	-0.00015422808
92	0xba7d97c2	-0.0009673798
93	0x3b3ab9f2	0.002849218
94	0x3ba315ab	0.0049769483
95	0xba384835	-0.00070298027
96	0xbb874d03	-0.0041290536
97	0x3c1f482a	0.009721795
98	0x3b252636	0.0025199777
99	0xbb93c5ab	-0.004509648
100	0x3ba34ccb	0.0049835197
101	0x3a63922b	0.00086811435
102	0xbb2518a8	-0.0025191698
103	0xbb87d9b4	-0.0041458253
104	0x3c05058e	0.008119
105	0xbb92887e	-0.0044718375
106	0x3bbca712	0.005757221
107	0xbaefae02	-0.0018286111
108	0xbc531496	-0.012883326
109	0xbba64ea0	-0.005075291
110	0xbb8804e1	-0.0041509722
111	0x3c398601	0.011323453
112	0x3bbe6f07	0.0058115753
113	0xb74f0670	-1.233966e-05
114	0x3af97674	0.0019032494
115	0x3b843c20	0.004035488
116	0xbbad0421	-0.005280033
117	0xbaeb022c	-0.0017929724
118	0x3b500c16	0.0031745485
119	0xbc991219	-0.018685387
120	0xbb8aaa2d	-0.0042317123
121	0xbbe16e30	-0.0068795905
122	0xbbb5da75	-0.0055497237
123	0x3c3b0a54	0.011416037
124	0xbc035cef	-0.008017763
125	0xbbd1432c	-0.0063861813
126	0xba403256	-0.00073317194
127	0x3b19c038	0.0023460519
128	0xbae8192e	-0.00177077
129	0xbb1c9301	-0.0023891332
130	0xbbcd6d85	-0.0062691593
131	0x3b3a7e32	0.0028456566
132	0x3a781ace	0.00094644434
133	0xbb56a80d	-0.0032753975
134	0x3c289c20	0.010291129
135	0xbc2733c7	-0.010205216
136	0xbbc4064c	-0.005982196
137	0xbbb42605	-0.0054976963
138	0xbb65a7e0	-0.0035042688
139	0x3b834f69	0.004007269
140	0xbbc112fb	-0.005892155
141	0x3ac2367d	0.0014817264
142	0xb82946e0	-4.0358747e-05
143	0x3bb262ba	0.005443898
144	0xbbe28ee2	-0.0069140056
145	0x3aea0ebc	0.0017857174
146	0xbb4aa891	-0.0030923227
147	0x3b58fd47	0.003310995
148	0xbb215bf5	-0.002462146
149	0xbc4559c9	-0.012045332
150	0xbb8acc86	-0.004235807
151	0xbc0356e1	-0.008016319
152	0xba80c23b	-0.000982351
153	0x3b922217	0.00445963
154	0xba5f8232	-0.00085261755
155	0x3ac90b04	0.0015338366
156	0x39e1f92e	0.00043100998
157	0x3ab123d1	0.0013514702
158	0x3a59aaeb	0.0008303362
159	0x3c91f569	0.017817216
160	0x3cccf4b6	0.025019031
161	0x3d2ba5e3	0.04190625
162	0x3c1ddf66	0.009635782
163	0x3beb1949	0.007174645
164	0x3de2f55d	0.110819556
165	0x3dd5b6a4	0.104352266
166	0x3d8420c3	0.06451561
167	0x3c0c0e3c	0.008548316
168	0x3d164ad1	0.036692444
169	0xbcb83e71	-0.022490712
170	0x3d70e5b7	0.058812823
171	0x3c649955	0.013952573
172	0xbcb9934c	-0.022653244
173	0xbc197cf4	-0.00936817
174	0x3d069131	0.03285331
175	0xbc8377a0	-0.016048253
176	0x3e10a5c7	0.14125739
177	0xbcb6e89d	-0.022327716
178	0xbc8affca	-0.016967673
179	0x3c0a4de0	0.008441418
180	0x3be40e7a	0.0069597336
181	0x3c84d7e8	0.016216233
182	0x3c4729e4	0.012155984
183	0x3d066ce8	0.032818705
184	0xbd1aa30b	-0.037753146
185	0xbd97cda9	-0.074122734
186	0xbdb064bc	-0.086129636
187	0xbd0e9d80	-0.034818172
188	0x3ca63a0f	0.020291356
189	0xbc593e20	-0.013259441
190	0xbc4e8a9d	-0.01260629
191	0x3c3be10d	0.0114672305
192	0x3dad3a31	0.08458365
193	0x3c8169a3	0.015797442
194	0x3d6a4b76	0.05720087
195	0x3c087c0c	0.008330356
196	0xbcacf844	-0.021114476
197	0xbe027d95	-0.12743218
198	0x3c2e0489	0.010621198
199	0xbb500d58	-0.0031746235
200	0x3ca58c52	0.020208512
201	0xbb2dd36a	-0.0026523718
202	0x3aac3d79	0.0013140879
203	0xbb130a8a	-0.0022436702
204	0xbb3c4d1b	-0.0028732482
205	0xbc2ede9a	-0.01067319
206	0x3b66e0ba	0.0035229162
207	0x3b7a1048	0.0038156677
208	0x3b99351a	0.0046755197
209	0x3b7fadcd	0.0039013505
210	0xbaab33ec	-0.0013061739
211	0x3b20a472	0.002451208
212	0xbbaaecfc	-0.005216239
213	0xbb4ac998	-0.0030942913
214	0x3baa5a0d	0.005198723
215	0xbb948a4c	-0.004533088
216	0x3b832950	0.0040027276
217	0x3bfef312	0.007780441
218	0xbba6f018	-0.0050945394
219	0xbc716da0	-0.014735609
220	0xbb56e9cb	-0.003279316
221	0x3c4327e0	0.011911362
222	0xbb7bece3	-0.0038440756
223	0x3ba798b3	0.0051146387
224	0x37f8f940	2.967997e-05
225	0xba6f4156	-0.0009126862
226	0x3c6312ae	0.013859434
227	0xbb8167d4	-0.003949145
228	0xbc82dda8	-0.015974835
229	0x3a1eaa45	0.0006052594
230	0x3b8df707	0.0043324265
231	0xbbcea4f9	-0.0063062874
232	0xbb15ad0a	-0.0022838735
233	0xbb6f3c00	-0.0036504269
234	0xbbd35169	-0.006448914
235	0xba618c42	-0.0008603969
236	0x3ba804b6	0.0051275147
237	0x3b777e82	0.0037764614
238	0xba5e8867	-0.00084889535
239	0xba83da9f	-0.0010059661
240	0xbc34f3ee	-0.0110444855
241	0xbb3486e7	-0.0027546228
242	0x3c206197	0.009788892
243	0x3c1ccac5	0.009569828
244	0x3c7a5aba	0.01528042
245	0x3aa3bf4a	0.0012492922
246	0x3c369ac3	0.0111452965
247	0xbc3d20f1	-0.011543498
248	0xbb51f01b	-0.0032033983
249	0x3c8edd8c	0.017439626
250	0x3c20aa10	0.009806171
251	0x39b0f669	0.00033752926
252	0x3c1e5916	0.009664794
253	0xbad6cf01	-0.0016388596
254	0xbb92ba3c	-0.0044777673
255	0xbb4aa4d9	-0.003092101

encoder.log_var_layer.bias f4 [30]
0	0xbdc875b4	-0.09788075
1	0xbd14910b	-0.036271136
2	0xbd030eb4	-0.031996444
3	0xbca17ad3	-0.019711887
4	0xbf93376a	-1.1501286
5	0xbca1faa7	-0.01977284
6	0xbd4b20e3	-0.04959191
7	0xbd3ad44f	-0.04561263
8	0xbd9064e0	-0.070504904
9	0xbc901c0f	-0.017591504
10	0xbcecf359	-0.028924631
11	0xbd00e137	-0.03146478
12	0xbc975c37	-0.018476589
13	0xbd09e67d	-0.033667076
14	0xbca72802	-0.02040482
15	0xbc7b3b46	-0.015333956
16	0xbc9d6b5d	-0.019216234
17	0xbd9aee47	-0.07564979
18	0xbca79c70	-0.020460337
19	0xbc690548	-0.014222451
20	0xbcd337c4	-0.025783427
21	0xbcb6e7cc	-0.022327326
22	0xbd018383	-0.03161956
23	0xbea7112a	-0.32630283
24	0xbcea0b65	-0.028569886
25	0xbc9c7cd8	-0.019102499
26	0xbd091c5a	-0.033474304
27	0xbcda1879	-0.026622998
28	0xbd342b27	-0.043986466
29	0xbd1e866c	-0.038702413

decoder.linear_layer.weight f4 [440, 30]
0	0x3d098901	0.033577923
1	0xbd819536	-0.06327288
2	0x3da7b46d	0.0818871
3	0xbdb3e4b0	-0.08783853
4	0x3e01bf3e	0.1267061
5	0xbc224445	-0.009903972
6	0x3c96d09a	0.018410016
7	0xbd1ec7ae	-0.03876465
8	0x3df49810	0.11943066
9	0x3b9fa4e9	0.0048719537
10	0xbe065152	-0.13116959
11	0x3dbc0d7b	0.09182259
12	0xbdd63a1b	-0.104603015
13	0xbd347fdb	-0.044067245
14	0x3d9651f6	0.073398516
15	0x3ca9b0aa	0.020714123
16	0xbd5d80ad	-0.054077793
17	0x3daee25e	0.0853927
18	0x3de9722f	0.11398732
19	0xbe3f9553	-0.18709306
20	0x3e09cf38	0.13457954
21	0xbcf2f5fb	-0.029658308
22	0x3d43beda	0.047789432
23	0xbd8a1563	-0.067423604
24	0xbc8ec533	-0.017428016
25	0xbe197f8b	-0.1499006
26	0xbb290745	-0.0025791686
27	0x3d77ce27	0.060499337
28	0x3da8bd88	0.08239275
29	0xbde5dc7e	-0.11223696
30	0x3c11caa2	0.008898409
31	0x3da6b376	0.08139698
32	0x3d5ca0ec	0.053864405
33	0x3e312f4e	0.17303202
34	0x3d444e12	0.047926016
35	0x3dfe3274	0.12411967
36	0x3cdc76bb	0.026912084
37	0x3dbc23f8	0.09186548
38	0x3dc8b343	0.097998165
39	0xbdba059c	-0.09083101
40	0x3d8a910b	0.06765946
41	0xbcd6306d	-0.026146138
42	0xbce9798c	-0.02850034
43	0x3ce75af0	0.028241605
44	0xbe08e82a	-0.13369814
45	0xbc3a628e	-0.011376036
46	0x3bf6b6c6	0.0075291125
47	0xbde9ee15	-0.11422364
48	0x3e0c9580	0.13728905
49	0xbe274dfc	-0.16338342
50	0xbdaea32d	-0.08527217
51	0x3c3930fd	0.011303184
52	0xbd59a07b	-0.05313156
53	0xbe1b85a5	-0.151877
54	0x3c9c2501	0.019060614
55	0x3ca2f2c1	0.019891145
56	0xbd4d50a3	-0.05012573
57	0x3c11cc71	0.00889884
58	0xbdfc8297	-0.123295955
59	0x3d0fcb48	0.035105973
60	0xbb3cc456	-0.0028803549
61	0x3d85fd97	0.06542509
62	0x3e11e0bb	0.14245884
63	0xbd017135	-0.031602103
64	0xbe867634	-0.26262057
65	0xbc416b64	-0.011805389
66	0x3d4936d1	0.049124543
67	0x3d4fc259	0.050722454
68	0xbdcb71c7	-0.09933811
69	0x3dba239b	0.090888225
70	0x3b68fe15	0.0035551835
71	0xbd316319	-0.043307398
72	0x3c0a8fa3	0.008457097
73	0xbe129891	-0.14316012
74	0x3d215d76	0.039395772
75	0x3d04af46	0.032393716
76	0xbd991930	-0.07475507
77	0xbd84f395	-0.06491772
78	0xbdfaf9c5	-0.12254671
79	0xbd4bf863	-0.049797427
80	0xbe52b9b6	-0.20578656
81	0x3d7ac202	0.061220177
82	0x3d0a49d5	0.033761818
83	0x3d82d889	0.06388957
84	0xbd29c2f6	-0.041445695
85	0xbcd15d93	-0.025557315
86	0xbdd77a3f	-0.105213635
87	0x3cb734c0	0.02236402
88	0xbdd28ffe	-0.102813706
89	0x3d16eda9	0.036847744
90	0x3cf83760	0.030299842
91	0xbccb0fa5	-0.024787733
92	0xbd856563	-0.065134786
93	0x3d326e9d	0.04356252
94	0xbc6c28f7	-0.014414064
95	0xbda8acb8	-0.082360685
96	0xbda2452c	-0.0792335
97	0xbdf1ac07	-0.1180039
98	0x3ddfe84f	0.10932981
99	0x3c260e7b	0.010135288
100	0x3bab67ca	0.0052308785
101	0xbde2f09a	-0.11081047
102	0xbcc58592	-0.024111543
103	0x3e0ac14a	0.13550296
104	0xbd639d39	-0.05556986
105	0xbd8c3955	-0.06846873
106	0xbd66fc99	-0.05639324
107	0xbd2f9a88	-0.04287198
108	0xbdeebfc8	-0.11657673
109	0x3d8f4b19	0.069967456
110	0x3dcb89b1	0.09938372
111	0x3df95a79	0.121754594
112	0xbd950400	-0.072761536
113	0x3e85ae5c	0.26109588
114	0xbd9addef	-0.07561862
115	0xbc23ca98	-0.009997033
116	0x3dfadc66	0.12249069
117	0x3dfd98be	0.12382649
118	0xbc88fa07	-0.016720785
119	0x3b8d383b	0.0043096817
120	0x3dd8464d	0.10560284
121	0x3d2afb88	0.041743785
122	0x3d2f899e	0.04285585
123	0xbdb435f6	-0.08799355
124	0xbe22dc7c	-0.1590442
125	0x3c48463d	0.012223777
126	0xbdc02c13	-0.093834065
127	0xbaa99eeb	-0.0012941038
128	0x3b98b9fd	0.0046608434
129	0xbd405051	-0.046951596
130	0x3cec8eab	0.028876623
131	0xbb6b4f69	-0.0035905486
132	0xbde4850d	-0.1115819
133	0xbcf99716	-0.030467551
134	0xbdcefa4a	-0.101063326
135	0xbd60ffb9	-0.054931376
136	0xbc378088	-0.011200078
137	0x3d3d1a5a	0.04616771
138	0xbdc9a32c	-0.09845576
139	0xbd757954	-0.05993016
140	0x3da745cc	0.081676096
141	0x3da196b8	0.078900754
142	0x3de70892	0.112809315
143	0xbd319eb1	-0.04336423
144	0xbd3a4736	-0.04547807
145	0x3d030cd9	0.031994674
146	0xbbd69a34	-0.006549144
147	0x3b877eaa	0.0041349726
148	0x3c07ab54	0.008280594
149	0xbc3cd057	-0.011524281
150	0x3c10cd20	0.008837968
151	0xbb484661	-0.0030559527
152	0xbd14944e	-0.036274247
153	0xbd6fd3c3	-0.05855156
154	0xbec26388	-0.3796656
155	0xbd1714d6	-0.036885105
156	0x3d60c945	0.054879446
157	0xbda530c2	-0.080659404
158	0xbd00f9af	-0.031488117
159	0xbe4fdc15	-0.20298798
160	0x3e236ff8	0.15960681
161	0x3da4082f	0.080093734
162	0xbbc5a8f1	-0.0060321023
163	0xbda9f205	-0.08298115
164	0xbe1dda06	-0.154152
165	0xbe0acdf0	-0.13555121
166	0xbe6a2a5a	-0.22867718
167	0x3df78bc6	0.120872065
168	0xbd0129b0	-0.031533897
169	0x3c8addb2	0.016951416
170	0x3debe322	0.115179315
171	0xbe22a941	-0.15884878
172	0x3dd97710	0.106184125
173	0xbd78fa55	-0.06078561
174	0xbd8782b0	-0.066167235
175	0x3d36e22a	0.04464928
176	0x3d8abd96	0.06774442
177	0x3e3e95af	0.18611787
178	0xbde53ce3	-0.11193254
179	0xbcd78655	-0.026309172
180	0xbd82fda2	-0.06396033
181	0xbc836b40	-0.016042352
182	0xbcf1ea75	-0.029530743
183	0xbe2c2b37	-0.1681336
184	0xbe019eff	-0.12658308
185	0xbd4734f3	-0.04863448
186	0xbd40aee5	-0.047041792
187	0x3e19ab2f	0.15006708
188	0xbda953ff	-0.08267974
189	0xbc9aa748	-0.018878594
190	0xbcc71fea	-0.02430721
191	0xbc1dc372	-0.009629117
192	0x3e2637c5	0.16232212
193	0xbe29c8a2	-0.16580442
194	0x3d19127d	0.037371147
195	0xbd845ee9	-0.06463415
196	0x3de5a03e	0.112122044
197	0x3cfc1ab2	0.030774448
198	0xbe04e86b	-0.12979285
199	0xbe107966	-0.1410881
200	0xbb8eea1e	-0.004361405
201	0x3d517aff	0.05114269
202	0xbd9957c7	-0.07487445
203	0x3ea6eddc	0.32603347
204	0x3dc971ee	0.098361835
205	0xbd509ca0	-0.05093062
206	0xbdd9776b	-0.1061848
207	0xbdf3c786	-0.119032905
208	0x3d8e35ac	0.06943831
209	0xbe0344c3	-0.128192
210	0x3cc177cb	0.023616692
211	0xbbe2d8eb	-0.0069228313
212	0x3e0f1a92	0.1397498
213	0x3b50dbc9	0.0031869283
214	0xbe14161b	-0.14461558
215	0x3d2c763d	0.04210495
216	0xbe01f36b	-0.12690513
217	0x3d8adb08	0.06780058
218	0x3e255e00	0.1614914
219	0xbd4990e1	-0.049210433
220	0x3b86e5a7	0.004116732
221	0xbddf9a20	-0.10918069
222	0xbe242c8b	-0.16032617
223	0x3de82696	0.11335485
224	0x3d7f79b7	0.062371936
225	0xbd83cdbd	-0.06435726
226	0x3db84ff2	0.08999623
227	0x3aadf79f	0.0013272649
228	0x3dd3c89b	0.10340997
229	0xbdfc936b	-0.12332805
230	0xbd70b736	-0.058768474
231	0x3db06151	0.08612312
232	0xb9b6bed8	-0.00034855935
233	0xbefa752a	-0.48917514
234	0x3d8047b5	0.06263677
235	0xbbcea1f2	-0.0063059265
236	0x3cb25b8e	0.021772172
237	0xbda35ff2	-0.079772845
238	0x3e0e02fe	0.13868329
239	0xbca1b07c	-0.019737475
240	0xbe150ec5	-0.14556415
241	0x3cd5858a	0.026064653
242	0x3d8b0f46	0.067900226
243	0xbd868588	-0.06568438
244	0xbe97df75	-0.29662672
245	0x3c6c6797	0.014428995
246	0x3ab42b1a	0.0013745755
247	0xbcac5792	-0.02103785
248	0x3e1b1a50	0.15146756
249	0xbd54c575	-0.051946122
250	0x3e4f2cea	0.20231977
251	0xbc231b94	-0.009955306
252	0x3c4c9fef	0.012489303
253	0x3ca139ae	0.019680824
254	0xbd2f7ecf	-0.042845543
255	0x3e22913c	0.15875715
