models/female_forenames.pth (torch, 422478 bytes, 14 tensors)

encoder.input_layer.weight f4 [100, 11]
00000000: 7832 26bd 362b 033d 9ff4 15be 2dd8 073e
00000010: e09c 723d 1884 22bd c4ca 9c3c 7fc8 5abd
00000020: 13f6 233e 08a3 a3bd c891 79bc 83f6 ca3d
00000030: 96fc a3bd b6c7 a23d 0f40 d9bd 4f5f 1dbe
00000040: 8a02 413d d787 87bd 5dd7 03bd 53aa dc3d
00000050: 5f3a 333e 91f9 9dbd 319b 3d3e 72d2 d73b
00000060: 8fde 60be 0a88 8cbd 3739 9e3d 60f0 ccbd
00000070: fef3 1b3e 5eb7 fbbd 232a 3abd a9d9 d53d
00000080: 74d7 953e ea89 533d a36f eebd 6c36 73be
00000090: 13ba dbbd 4fc5 20be 600a 473e d325 0e3e
000000a0: 0a27 a5be 1868 cdbd d55a c0bc 0722 4bbe
000000b0: 2b42 453e e627 01bd 295a 003e b96f 62be
000000c0: 8b6d e13d 535b 94be 3d57 8bbd f176 a83d
000000d0: 43ef 253e 3cd3 1abe de40 1dbe 5534 d1bd
000000e0: 2b22 6d3d 0d08 a63c 31d7 1a3d b566 ab3d
000000f0: e869 2a3d f14c e7bd 3bc6 313e 45bb 09be
00000100: 2b5c 3f3e bdc1 e8bd 5a58 9cbe 2975 0b3e
00000110: 8c40 0cbe 32c7 343d e9c1 413e 4136 873e
00000120: 00c4 c03c 6356 3d3b 953f 5ebd 768d d0bc
00000130: f293 45be a262 44be e416 b03d 3bf6 623e
00000140: 72eb 55be 0f5a 253e 7095 3bbc d7b5 b93d
00000150: 9c41 c83d 699b 4dbd 2e73 41be 90ee 4b3c
00000160: 0be7 213d c6a0 073e d47f 243e af96 82be
00000170: a6b0 343d e41e d8bd 53dc 193d 031a 153e
00000180: 831a e0bd ddf1 77be 16bc 41be 883b 38be
00000190: 5816 2fbe e963 8c3e 9063 d3bc 245a 81bd
000001a0: 37a8 4cbd 3635 f03c 71cf 6bbe 0433 6fbe
000001b0: 476f 09be 9caa fcbd 7c14 07be 8e53 733d
000001c0: 9795 843d 8b04 233e d400 27bc 453e 6cbd
000001d0: 3b72 b4bd 3261 46bd 4883 8b3d 5dce a0bc
000001e0: 20f5 3a3e 97c8 59be 1ca7 fdbd 487b 4dbe
000001f0: 5cb7 30be 710e fe3c 2bf7 0ebe 6e9a 973d
00000200: 0f26 943d dc4c 843e 2f3e 773e e0fe ee3c
00000210: 1c8f fd3d 47d1 08be f20a c93d f249 6fbe
00000220: 99b1 493d 5e93 933d f35f e4bd a2f4 d43a
00000230: 97ae bebc 66a2 163e 38df 603d db54 eabd
00000240: 7ee8 04be 9a35 bf3c 67c4 bfbc 5054 043e
00000250: f702 c23d aa0b 2bbd 4e07 d43c 266c 0abd
00000260: 00d1 1ebe 5817 41be f10a 963d 4207 813e
00000270: 7ef2 c7bc 8a8b 5dbe 1577 193d 16ab 0e3c
00000280: 1734 22be c42f 273e 7a33 49be f927 a03e
00000290: 9618 89be 1948 7ebe b623 9a3d 8fd1 923d
000002a0: bdb0 8dbd 3b70 12be 7d01 e03d deea 813e
000002b0: 6de3 ddbd 2fc3 793d 6893 e4bd f036 b23c
000002c0: 37f7 29be f90d 6cbd c40f 5b3b 1569 d83d
000002d0: 322f 5f3d 6af2 b0bc 3a2d cfbd 236d 5f3d
000002e0: 5b95 373e c781 83bd 2c66 86be d625 103d
000002f0: 0194 11be 0248 083d acf4 783e 50a6 7dbe
00000300: 69b2 a83c 9a22 133e 0d79 a33d 5527 b83b
00000310: 82a9 9b3d b695 353e 8022 83be 2a5f a1bc
00000320: 64c4 69be 85e5 ae3c 8d80 2e3e 7929 713d
00000330: d9e4 3d3e ccb7 293d 13ba 2b3d c5a6 363d
00000340: d82a 803e 01ac a93c e2b5 983d 3322 a33d
00000350: 1f3d 36be a088 3bbe 478c 713d b892 283e
00000360: 3f68 80bd f702 27bd efde a7bd 4701 89be
00000370: 17f9 87be 25d8 673d 4faa 1c3e 4926 ca3d
00000380: 745c c03d 4e54 81bd fccc 973c 659e 963d
00000390: c3ca cc3d 95e5 48be 8062 793d 85f2 9cbc
000003a0: 8acb 87ba 0089 313d 8bd9 4dbe d60d 71bd
000003b0: 9712 c93d 56b4 573e 623d 61bd 122d 163d
000003c0: 0b13 bfbd 4e0b d4bd 86ae 90be f57b 22bd
000003d0: e37f 50be 5935 8fbe 4fad 76bd 1a68 60be
000003e0: 2116 77be cdc9 643e 0657 6e3d 9a8c b53c
000003f0: 788e 443e a603 7e3b b3f0 06be cbbe 42be
-0.040575475 0.03202363 -0.14644097 0.13266058 0.05923164 -0.039676756 0.019139655 -0.053413864
0.16011839 -0.0799008 -0.015232511 0.099103 -0.08007161 0.07948248 -0.10607921 -0.15368389
0.047121562 -0.06617706 -0.03218781 0.10774674 0.17502736 -0.07713617 0.18516232 0.0065863663
-0.219599 -0.06861885 0.077257566 -0.100067854 0.15229794 -0.12290834 -0.04545034 0.10441906
0.2926594 0.051645197 -0.11642387 -0.23751229 -0.1072885 -0.15700267 0.19437551 0.13881616
-0.32256347 -0.1002962 -0.023480812 -0.19837199 0.19263522 -0.03153219 0.12534393 -0.22112931
0.11007222 -0.28975925 -0.06803749 0.08225811 0.16204552 -0.15119642 -0.15356776 -0.1021506
0.057893913 0.02026751 0.03780288 0.08369199 0.041604906 -0.11293972 0.17360775 -0.13450344
0.18687503 -0.11365078 -0.30536157 0.13618912 -0.13696498 0.04413528 0.18921627 0.2640858
0.02353096 0.0028890602 -0.054259855 -0.025458079 -0.19294718 -0.1917825 0.08598116 0.22164242
-0.20890597 0.16147636 -0.011449203 0.09067886 0.09778139 -0.05019704 -0.18891594 0.012447014
0.03952698 0.13244924 0.16064388 -0.25505587 0.044113778 -0.10552767 0.037563633 0.14560704
-0.10942557 -0.24213357 -0.18919405 -0.1799146 -0.17098367 0.27419975 -0.025804311 -0.06316021
-0.04996511 0.029322248 -0.23028351 -0.23359305 -0.13421355 -0.12337229 -0.13191408 0.059405856
0.064738445 0.15919702 -0.0101930685 -0.057676572 -0.0881085 -0.048432536 0.06812149 -0.019629652
0.1825757 -0.21267925 -0.12385389 -0.2006656 -0.17257446 0.031012746 -0.13961475 0.07402502
0.072338216 0.2583989 0.24144815 0.029174268 0.123808116 -0.13361083 0.09816541 -0.23368052
0.049241636 0.072058424 -0.11151113 0.0016247223 -0.02327661 0.14710388 0.054900378 -0.11441966
-0.12979314 0.023340989 -0.023409082 0.12922788 0.09473222 -0.04175917 0.02588239 -0.033794545
-0.15509415 -0.18856561 0.07326306 0.2520085 -0.024407621 -0.21635261 0.03746708 0.008707782
-0.15840183 0.16326815 -0.19648543 0.31280497 -0.2677657 -0.2483219 0.075263426 0.071688764
-0.06918476 -0.14300625 0.10937784 0.25374502 -0.10834394 0.060977157 -0.11160928 0.021754712
-0.16598211 -0.057630513 0.0033426145 0.10566918 0.05448837 -0.021599967 -0.10116048 0.05454744
0.17928068 -0.064212374 -0.26249826 0.035192333 -0.14216615 0.033271797 0.24312085 -0.24770474
0.020592885 0.14368668 0.07982073 0.005619923 0.076006904 0.17732891 -0.2561226 -0.019698698
-0.22828823 0.021349678 0.17041226 0.058877442 0.1854433 0.041435048 0.0419255 0.044592638
0.25032687 0.0207119 0.074565664 0.07965507 -0.17796753 -0.18313837 0.05897167 0.16462219
-0.06269883 -0.040774312 -0.08196818 -0.26758787 -0.26557228 0.056602616 0.15299343 0.098705836
0.09392634 -0.06314908 0.018530361 0.0735443 0.09999611 -0.19618829 0.060884953 -0.019158611
-0.0010360342 0.043343544 -0.20102517 -0.058851086 0.09817999 0.21064886 -0.05499018 0.036664076
-0.09329804 -0.10353719 -0.2825815 -0.039668996 -0.20361285 -0.2797039 -0.060223874 -0.21914712
-0.24129535 0.22342606 0.05818846 0.02216177 0.19194973 0.00387595 -0.13177757 -0.19018094

encoder.input_layer.bias f4 [100]
00000000: a8e8 e13d 79e2 06be 5d00 b4bd 5288 393e
00000010: f066 a4bc 4164 50bd f311 f13c cfd2 db3c
00000020: 9aee 44be cefc 693e b9e9 93be 23b8 853d
00000030: 8fbf 3c3e feb9 263e 9d68 8a3e 0715 2cbe
00000040: 232e a3be fc4d 5a3d 5466 76be 6b3e 133d
00000050: 494c b3be fd23 8c3e d6d6 71be 7253 a4bd
00000060: 9489 1bbe bd89 273e 032f 6fbe 5a6e 7cbe
00000070: 4474 babe 4d0f 27bd 40a9 673e e4aa 62be
00000080: e95b a93d 869d 6e3e d249 abbc b4f1 603e
00000090: 1359 163e 5ba6 123e ac3b f3bd 2a22 243e
000000a0: 417f f53c 3925 8bbe 9e8d afbc 9544 9d3d
000000b0: 6b23 ee3d 64d1 2fbe 9697 493d 2b89 f5bd
000000c0: ad04 84be 2d05 743d 515d 903e 6caa 4cbe
000000d0: 81a6 5bbe 127f 03be 2b2c c0be 5b00 68be
000000e0: 2b5f 4bbe 0579 afbe 7341 ad3d 2798 563d
000000f0: 7896 8e3d a97b b63d 584f cf3c eaad 0dbe
00000100: 4a27 a83d 8f37 393d 28d7 eebd abc0 62be
00000110: 51ab 3a3d 6e91 62be ccd3 55be cd19 aabe
00000120: 4228 433e fa3c 1f3e 3a4e aebd 80a3 0a3d
00000130: 159e 09be e532 903e c89d 933d c201 03be
00000140: 95b1 86be 5de7 563d 722a b3bd c6c3 96bd
00000150: 7134 adbd ec1b 70be c70d 71be 51c8 48bd
00000160: 5694 51bd c1b3 293e 14c2 2c3e 48c3 943e
00000170: 976b 11be 0fc8 abbe c3c0 493e c9ff 98be
00000180: 0c56 8cbe ebce e03c 7bda 883d 78d3 ce3d
0.11030704 -0.1317233 -0.08789132 0.18118408 -0.020068616 -0.05087686 0.029427504 0.02683392
-0.19231644 0.22850344 -0.28889254 0.06529262 0.18432449 0.16281888 0.2703294 -0.16804896
-0.31871137 0.053297028 -0.24062473 0.0359482 -0.35019138 0.27371207 -0.2361711 -0.080237284
-0.151892 0.16361137 -0.23357777 -0.24651471 -0.3641683 -0.040786076 0.22623158 -0.22135502
0.082694836 0.23302278 -0.020909224 0.21967202 0.14682417 0.14321272 -0.11876616 0.16028658
0.029967906 -0.27176836 -0.021429833 0.076790966 0.11627849 -0.1716972 0.04921683 -0.11989053
-0.25784817 0.05957525 0.28196195 -0.19986886 -0.21450235 -0.12841442 -0.37533697 -0.22656386
-0.19860522 -0.34272018 0.08459749 0.052391198 0.069622934 0.08910305 0.025306389 -0.13835874
0.08210619 0.045219 -0.116621315 -0.2214381 0.045573536 -0.2212579 -0.20881575 -0.3322281
0.19058326 0.15550604 -0.08511014 0.033847332 -0.1343921 0.2816383 0.07207829 -0.1279364
-0.2630736 0.05246674 -0.0874833 -0.073615596 -0.08457268 -0.23448151 -0.23540412 -0.04901916
-0.051166855 0.16572477 0.1687091 0.29055238 -0.14201199 -0.3355107 0.19702439 -0.2988265
-0.274094 0.027442416 0.06682297 0.10098928

encoder.mean_layer.weight f4 [60, 100]
00000000: f88b 74bd 025f 233d 3525 18bd 7817 69bd
00000010: b869 1dbd 3152 943c b160 103c 5e8f 7ebc
00000020: 17c9 b73c 0664 c83c a529 a939 0ac8 ab3d
00000030: 6073 f7b7 f3dc 2fbd 87ad 9dbb 8a12 143d
00000040: cb02 8abd 177b 1a3d f47e 83bc 9b2f 053b
00000050: 275b 9b3c d11c dcbc 05a2 ba3d 6983 93bc
00000060: 7433 893d c8b2 203d 22c6 d8bc a8f2 233b
00000070: d044 5cbd 909d 793c d0c7 513d 2f44 51bb
00000080: 2663 41bd d556 0f3c 4afb 88bb 0261 df3a
00000090: 8ee5 76bd 913b 80bd 9084 123d 37d9 483c
000000a0: 33ab d9bc 1da0 55bd d836 0c3c f602 143b
000000b0: 493d 13bd 1c68 29bd bc89 113d fc7d 123d
000000c0: 9944 153c c9ef e73c af69 9e3c 5b3d 6a3d
000000d0: ef28 48bd 849f b23c 9ed6 c83c 15ff 483d
000000e0: d473 71ba dd39 a6bc 1cd7 3abd cbb5 ed3c
000000f0: b443 b7bd 6035 2eb8 6238 5c3c f81c 33bd
00000100: fe68 e1bd a4c1 7ebb 7c85 663d 5f16 f53a
00000110: 880a 3f3c 50fb 25bd 1072 513d bcc4 beba
00000120: 743b eebc fa35 c2bb a3d7 f1bd 895c 86bd
00000130: ff9d 323b 6aa1 3abd 150e 7f3c fded 183d
00000140: bc37 5b3d fee2 b33b 2e0a 663b 8f12 5f3d
00000150: 343b 893d c14a 223d e527 803c 2d20 6ebc
00000160: a5c8 b53b f392 243a 0e41 223d fd35 76bd
00000170: 6962 9ebc 0293 7cbd 421a 70bc 383f 363d
00000180: 8274 d7bc 74ca 2abd 8922 733d 4972 903d
00000190: dd7e 893c faac dfbc 031e 63bd 9570 383c
000001a0: c377 5a3d 3e89 62bd 207f c03a 4f90 79bc
000001b0: 57bb 9e3c 2088 283d e34e 5ebd 2876 9dbc
000001c0: 1baa d3bc e018 833b 565a 08b9 1af4 153d
000001d0: 0671 29ba b6bf 743d 5744 0dbc 86b9 0abc
000001e0: 97bf 4a3c ce26 6c3d 0165 0c3d c63e d93c
000001f0: 4389 8fbd 763c cf3a cc9b 413a 1839 aa3b
00000200: 6de1 82bd 42c5 07bb 9b23 d53c 75e3 d73c
00000210: 02c2 883c 7c04 e4bc e4ca 223c 46a7 ae3d
00000220: e3f7 d83c 1dc6 8fbc 6bff a0bd 4c8d 4ebd
00000230: fd17 27bb 225d 85bd 840d ac3b 5e56 5fbc
00000240: 8ea8 26bd fd1a b33c b671 2d3a 301a 0c3c
00000250: b996 e13b 8b2e b63b 2dff 03bd f290 4abc
00000260: 384a 85bc 77e0 35bd ef00 86bd d5a9 c83d
00000270: cc93 813a 5150 85bd a9ce ef3c 3c7b 7b3d
00000280: a30f 23bd 7908 90bd 6684 f13b b8bc 33bc
00000290: fc17 a2bd 90fa d4bc a0a2 64bd 2a10 f8bc
000002a0: 0801 c13d 85c1 703d 0720 20bd b22b 553d
000002b0: 3410 f03c 8a33 2e3c 3e9e 3b3d a340 f0bc
000002c0: 4c6b 2b3c 6d6e 4f3b ec65 3fbd 4408 bc3c
000002d0: 161d af3d 3d84 133d 143d a53d f4de 5a3c
000002e0: b8c2 943b ccc6 ebbc 76ec e13c 5763 23bd
000002f0: 2dfb 103c e062 9b3d d577 323c 88ad 45bd
00000300: 45d2 15bd adf6 3bbd 4565 52bc d967 ebbc
00000310: 3b43 45bc 03dd 3e3c bc46 b3bd e08a 82bc
00000320: 54ff 023d 4756 233d 57af 8ebd 1410 4bbc
00000330: 776b c2ba 1418 5cbd cbbe 1fbc a35f b33c
00000340: b60d 3bbd f4fd c6bc 6504 583d 2e23 53bd
00000350: 22de a33d a702 d6bc db3d 253b e665 8a3d
00000360: c391 323d 7f4d a8bc 09d4 8b3c 5690 173d
00000370: 8725 b5bc 50c9 20bc 7b6d 4ebc 8bc9 ea3c
00000380: cd47 5c3d 68e8 26bc cbd8 3a3d 65e3 9dbd
00000390: b762 533d 7807 1a3d 2d9f 313d dc82 503c
000003a0: 0cd7 a13d 779d 44bc 0bf2 07bc 402f 863d
000003b0: ef06 8dbc fec4 01bb fe9a b63d e900 8bbc
000003c0: ae4d b1bc 7ea8 a0bd a82e 97bc d049 453c
000003d0: a7ed a0bd 028f 5cbd 35fd 4a3b f343 f6bb
000003e0: a113 6a3a 736c e5bc beb9 ac3d afab 44bd
000003f0: 1b0f 5d3d 6a60 12bd 43ff e33b 0801 f5bc
-0.059703797 0.03988553 -0.03714486 -0.056907147 -0.0384309 0.018105598 0.0088121155 -0.015537111
0.022434754 0.024461757 0.0003226522 0.08387764 -2.949842e-05 -0.042935323 -0.004811946 0.036150493
-0.06738814 0.037715044 -0.016051747 0.0020322565 0.018964363 -0.02686921 0.09112934 -0.018006997
0.06699267 0.039233 -0.026461665 0.002501646 -0.053776562 0.01523532 0.051215947 -0.003193151
-0.047213696 0.00874873 -0.0041803466 0.001704246 -0.060277514 -0.062613614 0.035770953 0.012258819
-0.026570892 -0.05215465 0.008557998 0.0022584773 -0.035947118 -0.041359052 0.035531744 0.03576468
0.009110593 0.02831258 0.019337503 0.05718742 -0.048867162 0.021804579 0.0245164 0.04907139
-0.000921068 -0.020291263 -0.0456153 0.02901735 -0.0894846 -4.1534542e-05 0.013441177 -0.0437288
-0.11006354 -0.0038872743 0.056279644 0.0018698684 0.011660226 -0.040522873 0.05113417 -0.0014554481
-0.029081084 -0.0059268447 -0.118087076 -0.065606184 0.0027254818 -0.045564093 0.015567322 0.03733634
0.05351995 0.005489706 0.0035101282 0.05446106 0.06700745 0.039622072 0.015644023 -0.0145340385
0.0055476003 0.00062780007 0.039612822 -0.06011008 -0.019334035 -0.061663635 -0.014654698 0.044493884
-0.026300672 -0.04169698 0.059359107 0.07053048 0.016784126 -0.027304161 -0.055448543 0.01125731
0.05333687 -0.055306666 0.0014686324 -0.01523216 0.01937644 0.041145444 -0.05427445 -0.01922138
-0.025837949 0.004000768 -0.00013003623 0.036609747 -0.000646368 0.059753142 -0.0086222505 -0.008467084
0.01237478 0.057654195 0.034276012 0.02651919 -0.070086025 0.0015810865 0.0007385581 0.0051947944
-0.06390653 -0.002071694 0.026017955 0.026353577 0.016694073 -0.02783417 0.009936068 0.085279986
0.02648539 -0.017550522 -0.07861217 -0.05042772 -0.0025496476 -0.06511904 0.0052506346 -0.013631431
-0.04068809 0.021863455 0.00066163705 0.008551165 0.0068844226 0.0055597476 -0.032225776 -0.012363659
-0.016270742 -0.04440352 -0.06543147 0.09798018 0.0009885966 -0.0650946 0.029273348 0.061396822
-0.039809834 -0.07032866 0.0073705195 -0.010970287 -0.07914731 -0.025998384 -0.055819154 -0.030281145
0.09424025 0.058778305 -0.039093044 0.052043624 0.029304601 0.010632405 0.04580521 -0.029327696
0.010462593 0.0031651512 -0.04672806 0.02295316 0.085504696 0.036014784 0.0806829 0.01335882
0.004539814 -0.028781317 0.027578574 -0.03988966 0.0088489475 0.07587218 0.010892828 -0.048261195
-0.03657748 -0.045889545 -0.012841527 -0.028736042 -0.012039955 0.011649373 -0.08753726 -0.015935361
0.03198178 0.039877202 -0.06967037 -0.01239397 -0.0014833052 -0.0537339 -0.009750078 0.02189619
-0.045667373 -0.024291016 0.052738566 -0.05154722 0.08001353 -0.026124312 0.002521387 0.06757717
0.04359604 -0.020544766 0.01706888 0.037002884 -0.022112621 -0.009813622 -0.012599344 0.028660556
0.053779412 -0.010187246 0.045616906 -0.07709388 0.051607814 0.03760478 0.043364692 0.012726512
0.07902345 -0.012000433 -0.008297454 0.06551981 -0.01721522 -0.0019801254 0.08916281 -0.016968207
-0.021643486 -0.07844637 -0.018454865 0.012041524 -0.078578286 -0.05384732 0.0030973677 -0.0075154244
0.00089293165 -0.028005814 0.08433865 -0.048015293 0.053969484 -0.03573648 0.00695792 -0.029907718

encoder.mean_layer.bias f4 [60]
00000000: c29e 213d cb7f 37bd e0f9 b8bd e0dc a2bd
00000010: 80c8 be3d dd5b 58bd 38e6 693d c1ab 0ebd
00000020: 3b1a 193c f8f5 253d 6320 263d 9d55 6c3c
00000030: 3951 133d f6fd b7bd f96b afbd 0aca cf3d
00000040: 92d6 003c cd9d 5f3d 0090 7e3d 218a 60bd
00000050: 92a3 d6bd 4397 ac3d 9c60 c93c 238a 52bd
00000060: 08ed df3d 0075 95bd b21b 863c 9c3b be3c
00000070: d9ac 123c a0f0 22bd 3146 75bc 41f0 093d
00000080: b343 743d 46c2 8d3d 1aa6 b93d e5a4 863d
00000090: aa7e b5bd e5e7 7f3b f04e 393d 178f 5c3d
000000a0: 4a32 6dbc a363 2ebd fcd5 9e3d 0fa6 0dbd
000000b0: 89ab 533d 6a2d aebd c3b5 88bd 96b3 25bd
000000c0: 5242 d7bb 6423 5b3d 43c7 493c 855c a93d
000000d0: 3286 99bd 3a53 993c 5d3f 943d e85f 98bd
000000e0: 0cb2 dabb 8071 2e3d 2a80 b73b f695 103d
0.039458044 -0.044799607 -0.09032035 -0.07952285 0.09315586 -0.052821983 0.05710432 -0.034831766
0.009344633 0.040517777 0.04055823 0.014424709 0.03596613 -0.08983986 -0.08565516 0.10145958
0.007863658 0.05459385 0.062149048 -0.05481923 -0.10480417 0.084272884 0.0245822 -0.05140127
0.10933882 -0.072977066 0.016370628 0.023221783 0.008952343 -0.03978026 -0.014970348 0.03367639
0.059634876 0.0692182 0.090648845 0.0657442 -0.0886205 0.0039048132 0.045241296 0.0538474
-0.014477322 -0.04257549 0.07755658 -0.034582194 0.05167726 -0.08504756 -0.06675293 -0.04045447
-0.0065691853 0.053500548 0.012315574 0.082696 -0.07496299 0.018716443 0.07238648 -0.07440168
-0.006674057 0.04258871 0.005599995 0.035299264

encoder.log_var_layer.weight f4 [60, 100]
00000000: cda3 fa3c 29bc 623b d570 36bd c6f7 6a3d
00000010: f735 7b3c ab69 abbc cd8f 71bc d532 73bb
00000020: a018 39bc 5278 b2bc df90 3abb 5ce5 bebc
00000030: da93 c6bc b383 3c3c fef8 2ebc 8de2 a2bd
00000040: bd7c c6bc e0ee 193d b141 473c 72da 7b3b
00000050: 9530 203a 4c2d fdbc aa83 7cbd ac6a 2cbc
00000060: 5362 7fbd e08b f1bc c9ad d43b d67d 18bd
00000070: 853e 98bc e005 1abb 6773 94bb 7f1f ccbc
00000080: 4c75 eabc 0fe2 953c a6e4 a63c dc4b 003d
00000090: b81d 783c 6f49 42bc a309 a53c 590d 51bd
000000a0: 57cb 75bc 684d 7039 2274 333c 1511 283c
000000b0: 9361 b6bc be30 7dbb 27c3 ddbc c64e 24bb
000000c0: 6309 a7bd 18c4 7fbc e73a cc3a eb1d ce3c
000000d0: e818 2e3b d05d c93d b1e2 2e3d e785 3cbd
000000e0: 3ba1 9c3d cb3f 063d b204 4fbd 86cb 2bbb
000000f0: 0fae a9bc 1744 a83c 92f1 013d 6365 dbbc
00000100: d9bf 223d 523f f53a 81f5 76bd 59fb 18bd
00000110: 6519 3cbd d886 7b39 d5a9 203d 6964 93bd
00000120: cc1b 6d3c ff85 fc3c 3d45 ddbc 419c ba3d
00000130: 2e27 a83d 3242 b43d bb82 8bbd 94cd 37bd
00000140: a59d 9e3d 5c2d ddbc 693a 5e3d 9fd1 a13c
00000150: 663c e5b9 3811 e73b bc6e 13bd babb 7d3d
00000160: e79b 2abd 2fbb d43c daea 9a3c 0299 19bb
00000170: d165 d9bc 7021 b0b9 8024 b33b a044 443d
00000180: c06c 103d 9ca6 66bd 71fb 283d 0053 813b
00000190: 3e76 8abc 2ea7 043b c349 5e3c 86e7 f33c
000001a0: 48ab 843c 33af 35bb 7c8a 3e3c 96b6 463b
000001b0: 924f a83c 831d 47bd 5f10 203d 00b0 8ebd
000001c0: 14c6 5abd ce49 363b 241c eebc b942 393d
000001d0: 0a49 783c 9adc a33c 1f4e e83b 3d44 03bd
000001e0: ccef c1bd ce13 cdbd c2b5 c0bd 6506 5cbc
000001f0: 6ba7 953d 4a1a 68bc d770 47bc f237 76bd
00000200: ea0d c63c 84f4 1c3b 7a81 e63c 428f 4c3a
00000210: 8c72 853c 7243 453c 5f4e d13c d9e9 bfbd
00000220: 5188 523d a0e6 813c 9c4f 263d bb7a d139
00000230: 3fc2 cebc efc9 c03c 82e3 9c3d a952 513d
00000240: b9a0 133c d589 493b 9271 9fba e445 c8bb
00000250: 7fef 653d c91d f43b c192 87bd 4c5d 6f3d
00000260: 59e8 aebc 8a18 c43c 473c 123c b760 06bd
00000270: f8ff 80bc 63f8 04bd 8205 43bd f960 26bd
00000280: 2c87 543c 70c1 8b3c a4a2 b93c c2c2 693d
00000290: ff65 053c f2a1 39bc df00 07bd d3d5 36bc
000002a0: 5aa1 fabc 94bd 7f3a 10a6 533d fb7d 2d3c
000002b0: 4ff8 193c d57c 11bd e3b4 973d e766 9c3d
000002c0: 7ce4 523d 220c 82bd 5169 3a3c 3b82 c9bc
000002d0: 92f7 0cbd 14d9 1e3d 00d4 7bbd 60b3 943d
000002e0: 0dd7 80bb 51f6 82bc 0ba7 33bd 92dd 383c
000002f0: d949 52bd 791a 4abd 232c fa3c 0da5 023d
00000300: 2fce 11bd 014d 3dbd cb26 8dbb a5be 843d
00000310: eddf 04bd ce4b a6ba 3d9a a2bd e756 973c
00000320: 8ee1 74bd f3d4 c63c ac77 d93c b39e 613d
00000330: c0d4 a63c a88e 143c a980 853c 5e17 2b3c
00000340: f996 8bbc 3ce8 b0bb 2dfb a0bd c692 a3bd
00000350: c591 b5bc e256 1d39 14c3 bcbc 8599 803b
00000360: 63fd 983c c7e7 083c e3fc 8f3d 52cb ed3b
00000370: 3e6f 063b 062d 483d 83c9 babd 1b74 dc3c
00000380: 06e8 60bd 0200 a73c f8a0 513c 3b2c 2a3c
00000390: 54b9 99bd f74a bfbc 153e 4e3d 30b4 343c
000003a0: be30 fabc 1082 333d ad7b 9abb f93f 99bd
000003b0: 1e03 95bc 206d 2ebc 3d98 d9bb 5a8d f6bc
000003c0: e375 ab3d 2170 413d b893 043c 112c bfbc
000003d0: 6e44 b63d e6e2 73bd 3f47 883c 9862 5b3c
000003e0: daae ea3c 5d93 f0bc 5963 3fbd e016 7b3d
000003f0: 6603 033d f9e5 1abc 9d66 37bc 2089 97bc
0.030595684 0.0034597015 -0.0445412 0.0573652 0.01533269 -0.02092441 -0.014743757 -0.0037109156
-0.011297375 -0.021785889 -0.0028467698 -0.023302726 -0.024240423 0.011506009 -0.010679482 -0.079533674
-0.024229402 0.037581325 0.012161658 0.0038429764 0.0006110755 -0.030905388 -0.061649002 -0.010523479
-0.06234963 -0.029485643 0.0064904434 -0.03722938 -0.0185845 -0.0023502037 -0.0045303586 -0.024917362
-0.028620385 0.01829627 0.0203727 0.031322345 0.015143804 -0.011858328 0.020146197 -0.05103812
-0.015002093 0.0002291702 0.010952981 0.010257979 -0.022263324 -0.003863379 -0.027070595 -0.0025071367
-0.08156087 -0.015610717 0.0015581519 0.02516075 0.0026565138 0.098323464 0.04269666 -0.046026137
0.0764794 0.03277568 -0.050541587 -0.0026213839 -0.02071288 0.02054028 0.03172452 -0.026781743
0.03973374 0.0018710888 -0.060292725 -0.03734908 -0.045922656 0.00023987459 0.039224464 -0.07196886
0.014471959 0.030825613 -0.027010554 0.09111834 0.08210598 0.08801688 -0.06812044 -0.04487379
0.07744912 -0.026999168 0.054254923 0.019753275 -0.00043723284 0.007051613 -0.035994276 0.061946608
-0.041652586 0.025968162 0.018910814 -0.0023437147 -0.026537808 -0.0003359425 0.0054669976 0.04791701
0.035259962 -0.056311235 0.04125542 0.003946662 -0.016902085 0.0020241248 0.013567391 0.029773485
0.016194955 -0.0027722835 0.011629697 0.0030321232 0.020545755 -0.04861213 0.039078113 -0.06967163
-0.05341156 0.0027814987 -0.029066153 0.045229647 0.015154133 0.020002652 0.007089391 -0.0320475
-0.09469566 -0.10013543 -0.094096676 -0.013429259 0.07307323 -0.014166424 -0.012172899 -0.060111947
0.024176557 0.0023949454 0.028137911 0.00078033295 0.016289972 0.012040006 0.025550066 -0.09370775
0.051399533 0.01585704 0.040603265 0.00039955028 -0.025239108 0.02353379 0.07660581 0.05110422
0.009010487 0.003075232 -0.0012164584 -0.0061118472 0.056136604 0.0074498397 -0.06619788 0.058438584
-0.021351026 0.023937482 0.008925504 -0.03280708 -0.015747055 -0.032463443 -0.047612675 -0.040619824
0.012971681 0.017060012 0.02266056 0.0570705 0.008141994 -0.011330115 -0.032959815 -0.011159378
-0.030594517 0.00097557274 0.05167204 0.010589118 0.00939758 -0.03551944 0.07407548 0.076368146
0.05148743 -0.063499704 0.011377648 -0.024598232 -0.03441579 0.03878124 -0.061481476 0.072607756
-0.003931886 -0.015986593 -0.043860476 0.011283295 -0.051339958 -0.049341653 0.030538624 0.031895686
-0.035597023 -0.046216015 -0.004307603 0.06481675 -0.032440115 -0.0012687386 -0.07939575 0.018474055
-0.05978542 0.024271464 0.026546322 0.055082988 0.020365119 0.009067215 0.016296702 0.010442583
-0.017039763 -0.0053987782 -0.07860408 -0.07986979 -0.022164235 0.00015005053 -0.02304224 0.003924551
0.018675512 0.008356041 0.07030656 0.0072569037 0.0020513083 0.048871063 -0.091204666 0.026910832
-0.054908775 0.020385746 0.012794726 0.010386522 -0.07506052 -0.023351176 0.050352175 0.011029288
-0.03054082 0.04382521 -0.0047144503 -0.07482905 -0.018189963 -0.010646135 -0.0066404627 -0.030096699
0.083720945 0.047226075 0.0080918595 -0.023336442 0.08899771 -0.05954256 0.016635535 0.013390206
0.028647829 -0.029367143 -0.046725605 0.061301112 0.031985663 -0.009454244 -0.0111938985 -0.018498003

encoder.log_var_layer.bias f4 [60]
00000000: 38f2 c33d f1f3 bd3d 6706 c5bd 4680 a63d
00000010: 1dcb 5cbd 4a80 8e3a c451 433b fa5a 9d3c
00000020: 850e de3c ca4a 85bd 4dc2 23bd 7545 a3bd
00000030: 2f4b 30bd af04 913d 0a1e 753c 790e bdbc
00000040: 6e48 4cbd b200 dabd acdb 513c a03d a33d
00000050: 1459 3e3d 9b38 a8bd f21f a1bd 6a07 0dbc
00000060: 5761 f63c 0b67 54bd 07e6 a1bd bbe3 debc
00000070: 91d0 82bd 3b61 7f3d 5974 25bd fc71 dabc
00000080: 64ac 87bd fbb6 d4bd 286f aebd 9ff8 22bd
00000090: ed1b 5d3d 8fec 873c 8165 783d d3d1 543c
000000a0: 3661 90bb 7427 26bc 81c3 9bbd 18ed c6bd
000000b0: a632 43bd ea9e 02bd 8c56 e4bd dc96 babd
000000c0: 8ad9 45bd 5bdc 92bd 47c5 813d e6bb f0bc
000000d0: 8ccd 453d 6b2d c9bd ce67 f43b 022f 79bd
000000e0: 2324 143d d8ac 78bd 8044 d43c ca42 f3bd
0.09567684 0.09275044 -0.09620362 0.08129935 -0.05390464 0.0010871973 0.0029803375 0.01920842
0.027106533 -0.065084055 -0.03998022 -0.07972232 -0.04304045 0.070809714 0.014960775 -0.02307819
-0.04987376 -0.10644664 0.0128087215 0.079707384 0.04647167 -0.08213922 -0.07867421 -0.008607725
0.030075712 -0.051856082 -0.07905202 -0.0272082 -0.06387437 0.062348586 -0.04039416 -0.02666568
-0.06624678 -0.10386463 -0.08517295 -0.039787885 0.05398171 0.016592292 0.060643677 0.012989479
-0.0044061197 -0.010141242 -0.07605649 -0.09713191 -0.047655724 -0.031889834 -0.1114932 -0.091108054
-0.048303165 -0.07170936 0.06336456 -0.029386472 0.048291728 -0.09823116 0.0074586635 -0.060835846
0.036167275 -0.06071171 0.02591157 -0.118779734

decoder.input_layer.weight f4 [100, 60]
00000000: 4b1d 213d 75bb a63c 4869 9fbd 908d a83d
00000010: 6900 503d f6b4 6bbc f153 d5bc 479b 9e3c
00000020: de65 993c 7b06 18bd b29f f23d d4cf 71b9
00000030: b35f dfbd 0c27 e7bb af2a 84bc 8dba 8cbd
00000040: bf6d 8abd 48c0 53bd c246 013d 1f66 563d
00000050: 0e18 ce3d 8ff9 6bbc 528b 5d3c 7c36 d23c
00000060: 845f b0bc 6c73 28be 9b1f a53d 6066 ef3c
00000070: 346b a5bd 556c b13d 844e c439 e197 f5bc
00000080: ee1e 673e 16c4 8cbd 43a8 7dbd d4e8 9abd
00000090: d6cc 1dbb d692 37bd 09d0 793b 00ba fd3a
000000a0: 3d48 463d 76ac fab9 80cb ccbd a2af 9ebd
000000b0: 31e9 bdbd 00da 3e3d f61b c43c 27ff c93d
000000c0: d327 d9bc 0b8d 59bd 79fb d7bd 8033 f53c
000000d0: aced 93bd cd12 03bd 1eda 693d 6c2c c73d
000000e0: 6224 1d3d e924 3e3d 9549 be3c 880c c93d
000000f0: 432b 883d 07fc 94bd cf90 f23d 8799 d8bd
00000100: 3fcb 30be c78e dd3d e030 493e 6963 243d
00000110: e74c 3d3d 8231 2cbd 664d 04bd 8324 8f3d
00000120: c533 d13d 52b7 3fbd c79a 1b3e 088b 56bd
00000130: 4805 16be 3337 56bd 857c 05be d29d 45bd
00000140: c41a 03be c5fa 2a3d 6ab1 47bd c1b2 d83d
00000150: bb39 513c 78a7 89bd d1ba 8fbd 092f 7dbd
00000160: 29d6 2ebd 4169 b53d e5f5 3d3d 1bf2 e9bd
00000170: 285b f6be cdf8 ecbd 5adc 373e 2152 86bd
00000180: 8a0f 13be f440 e33d 7cd3 f9bc 15b7 e1bd
00000190: 6716 653d 04bf b33b 4820 993d b710 41bd
000001a0: e4a7 1b3d f6b5 303d 26dc fabd 54d4 2fbe
000001b0: d441 a6bd b6b8 943d 605c 17bc a6c4 7ebd
000001c0: 7055 9d3d 3eca 443d 0ad6 36bd 1731 d23d
000001d0: 35b1 803d cbf4 28bc 66b3 14be 5459 64bd
000001e0: 1992 16be 1030 a93d 147d 363c 0569 2d3d
000001f0: 4bae 4f3d c6bf ac3d 9b20 803c ac90 d43d
00000200: 25fe 87bc ec11 223c 4385 d33d 58f8 193e
00000210: 8eb4 8f3d c20e d4bd 3cd8 82bc 6118 33bd
00000220: 2e0e 9bbc d919 f6bd 8e3f 66bc 4b20 9f3c
00000230: 4c47 903d 7957 113e 4b6d 74bd ad46 45bd
00000240: b2d0 a83d bb9f 14bd ef65 dabd 2c34 8fbc
00000250: b93a 6b3d b481 923c 9899 253e 7a66 a23d
00000260: b711 08bf 2354 adbc 38e5 a1bc 598d 253d
00000270: a467 0fbe 89d1 73bd a69e c43d 19c0 c63d
00000280: c2af b5bd a681 83bd 147b 4a3d f040 a43d
00000290: d164 eb3c 7962 4d3d 0b78 5ebd c5a8 17be
000002a0: c41b b83d b6c6 843d 8f3c 13bc c2a1 10bd
000002b0: 17a5 953d 76f2 d03d 4664 3f3d e407 b23d
000002c0: 0ac3 fd3d 216a ce3c 1b05 6b3d 8531 cabc
000002d0: 827d 133d ed50 b2bc ff9b a53d c882 123d
000002e0: f885 7a3c 11b7 7a3d 8893 493d 3325 05bc
000002f0: 2077 023c 8552 febc c216 29be d8a7 45bd
00000300: a650 753d 2385 e739 f942 d1bd 2b0d ef3c
00000310: a8e8 66be 6615 49bc 3e80 063e b87e 9aba
00000320: d354 063d c5fa fabc 5745 bc3d a424 1d3e
00000330: 864a e8bc c289 fbbd 91c1 c13d 74a9 8cbb
00000340: fde4 0ebe 5d52 a93d 5003 c1ba d590 c93d
00000350: 2737 69be 5d50 d1bc eead 78bd 984c 2dbe
00000360: 40b1 e936 20c2 f5bc 513a ac3d 8833 0d3c
00000370: 8fe6 903d a5d9 f43c bec0 9b3c 390d 4ebd
00000380: a1e5 ff3d 3b16 8c3d 4d24 f1bd 3393 be3d
00000390: c6ca 83bc bf94 a1bd f6a7 3abd 78cd fa3c
000003a0: 147a ad3d 4b8b dabb ea9e 7a3d 85e6 c8bd
000003b0: c610 0cbe f3a4 3cbe e522 2a3d e464 993c
000003c0: e69a ffbd 1aa4 92bd 20b7 73bd f225 00be
000003d0: d0b6 04bd 2dc9 90bd d89e 623b ea77 463d
000003e0: 3257 82bc 5fe0 a93d ae0e 673d 4c10 5e3d
000003f0: 25b6 00bd e10c 17be 419d ecbd eff1 293e
0.039334577 0.020353058 -0.07783753 0.08230126 0.05078164 -0.014386406 -0.026041003 0.019361151
0.018725332 -0.037115555 0.11846866 -0.00023060973 -0.10906925 -0.0070542153 -0.016133634 -0.06871519
-0.06759214 -0.051697046 0.03156162 0.052343484 0.10063182 -0.014402761 0.013521986 0.025660746
-0.02152992 -0.1645028 0.08062669 0.02922362 -0.08077088 0.08663241 0.00037442532 -0.029979648
0.22570392 -0.06873338 -0.061928045 -0.0756394 -0.002407839 -0.044817768 0.0038118383 0.00193578
0.048408736 -0.0004781221 -0.09999752 -0.07748343 -0.09272993 0.04659462 0.023939114 0.098631196
-0.026508247 -0.053113025 -0.105460115 0.029931784 -0.07223067 -0.03200035 0.05709278 0.0972527
0.038364775 0.04642192 0.023228446 0.09816843 0.066488765 -0.07274633 0.11844026 -0.10576158
-0.17265032 0.10818248 0.1964755 0.040133867 0.046215918 -0.0420394 -0.032300375 0.06989386
0.102149524 -0.046805687 0.15195762 -0.052378684 -0.14650452 -0.052298736 -0.13035782 -0.048246212
-0.12803179 0.04174306 -0.04875318 0.105809696 0.012770112 -0.06721395 -0.07018054 -0.061812434
-0.042684708 0.08857966 0.04637708 -0.11423131 -0.48116422 -0.115708925 0.17955151 -0.065586336
-0.14361396 0.11096373 -0.030496351 -0.11021248 0.055929568 0.0054854173 0.0747686 -0.04713508
0.03800191 0.04314228 -0.12249021 -0.1717084 -0.081180245 0.07261793 -0.0092383325 -0.062199257
0.076823115 0.048044436 -0.044637717 0.102632694 0.062837996 -0.010312269 -0.1452156 -0.055749252
-0.1470417 0.0826112 0.011138219 0.042336483 0.050703328 0.084350154 0.015640547 0.103791565
-0.016600678 0.009891968 0.10328152 0.15036142 0.0701686 -0.10354377 -0.01597225 -0.04372442
-0.01892766 -0.12016649 -0.014053239 0.019424578 0.07044849 0.14193524 -0.059674542 -0.048163105
0.082429305 -0.036285143 -0.106639735 -0.017480932 0.05742905 0.017884113 0.16171873 0.07929702
-0.5315203 -0.021158284 -0.01976262 0.040418003 -0.1400438 -0.059526 0.09600572 0.097046085
-0.08871414 -0.06421213 0.049433783 0.08020198 0.028734596 0.05014274 -0.0543137 -0.14810474
0.08989671 0.064832136 -0.008986606 -0.035310514 0.07306879 0.10202496 0.046726488 0.08692911
0.123907164 0.02519709 0.057377916 -0.024681816 0.036008365 -0.021767104 0.080863945 0.035769254
0.01529073 0.061209742 0.049212962 -0.008126545 0.007962972 -0.031045208 -0.16512588 -0.04825577
0.059891365 0.00044158948 -0.10217852 0.029181084 -0.22549689 -0.012273168 0.13134858 -0.0011787033
0.03279574 -0.030637154 0.09192913 0.15346009 -0.028355848 -0.122821346 0.09460748 -0.0042926613
-0.1395454 0.08267663 -0.0014725719 0.09842078 -0.22774945 -0.025551016 -0.060712747 -0.1692375
6.9645757e-06 -0.029999793 0.084095605 0.008618243 0.070752256 0.029888937 0.019012805 -0.05030558
0.1249497 0.068401776 -0.11774502 0.0930542 -0.0160879 -0.07889699 -0.045570336 0.030615553
0.0847055 -0.006669437 0.06118671 -0.09809593 -0.13678274 -0.18422298 0.041537184 0.018724866
-0.124807164 -0.07160206 -0.059500813 -0.12514475 -0.032400906 -0.07069621 0.0034579542 0.048454203
-0.015910719 0.082947485 0.056410484 0.05421476 -0.031423707 -0.14751007 -0.11553431 0.16596197

decoder.input_layer.bias f4 [100]
00000000: 5917 833d 6efc 3c3d f8f8 433c aca8 3a3e
00000010: 5b95 c13e a819 a23d 8f1c 8abd 8ac9 a63d
00000020: 792c 23bd ff9e cbbd 2c38 933e 78f3 733e
00000030: 72e7 cb3c 17fe 803d 53a8 f83c 055e 9fbd
00000040: e46e 503e c993 ef3d e718 233d c3d3 1abe
00000050: e8e1 293e 53f1 df3d a782 f73d 3473 ddbd
00000060: 9632 de3d b5fa 34bd 7ece 813d 4c68 f43c
00000070: 9082 dd3d 8969 683e 02cf 5e3e b69d 1bbe
00000080: 9f8b 413e 2bf9 123e 93ae 1fbd d89d 7e3e
00000090: f5fa 9c3e e583 b03e 409c ddbc 0b3c f23d
000000a0: 5dbc 683e ff89 123e 26e8 d63d fde7 0fbe
000000b0: 203a 2d3e 5ef8 a23e b96f 2fbd 5d46 503e
000000c0: b88e 843e c28c cc3e 012c 913e b7af d23d
000000d0: 66c9 843e f710 233d 82ac f13d b4e7 2d3e
000000e0: 662b 563e fc88 7fbd 9f21 c43e 19a1 a53e
000000f0: 09d2 9b3d 53fb 003e 77f2 0a3e 4d83 323e
00000100: bbee 9b3d 488c 4c3e ee79 80bc 8573 eb3d
00000110: 03a6 053d 5b0e be3d a194 fe3d 5319 713e
00000120: 6a47 9a3d 8189 473c 0c01 863d 9cfb 7b3d
00000130: da30 653e 8a59 c53d f4de e23d 01c3 6c3e
00000140: ce33 563e 765b f83d d374 36bc f017 8e3d
00000150: 9229 ed3d cccb fbbc 523f 7d3e d668 0d3d
00000160: 7a3a ad3b 18da 193e bbeb 973d 55b6 393e
00000170: 9309 1dbe a28b 803e 7a77 cd3d 6dc3 b13d
00000180: cb95 313e e30c af3c 0a14 6c3e 40ef 9e3d
0.064009376 0.046139173 0.011961214 0.18228406 0.37809262 0.0791505 -0.06743728 0.08143909
-0.039837334 -0.099424355 0.28753793 0.23823345 0.024890635 0.06298464 0.0303537 -0.07781605
0.20354801 0.1169811 0.03981867 -0.15119843 0.16590083 0.10934701 0.12085467 -0.10812989
0.10849492 -0.044184405 0.063382134 0.029834889 0.108159184 0.22696508 0.21758655 -0.1519688
0.18900917 0.14352863 -0.038984846 0.248649 0.30660215 0.34475628 -0.027052045 0.118278585
0.22728105 0.14310454 0.104934976 -0.1405334 0.16916704 0.31830114 -0.042831156 0.20339341
0.25890136 0.3995114 0.28353885 0.10287421 0.25934905 0.0398111 0.118004814 0.16982919
0.20914993 -0.062386498 0.383069 0.3234947 0.076084204 0.12595873 0.13569055 0.174329
0.076138936 0.19975388 -0.01568314 0.11496643 0.032629024 0.09280082 0.124306925 0.23544817
0.075331524 0.01217878 0.065431684 0.06151925 0.22381917 0.09636219 0.11077681 0.23121263
0.209182 0.1212682 -0.0111362515 0.069381595 0.115801945 -0.030736826 0.24731186 0.034523807
0.005286512 0.15024602 0.07418009 0.1813596 -0.15335684 0.2510653 0.10032554 0.08679853
0.17342298 0.02136845 0.2305452 0.07760477

decoder.lstm_layer.weight_ih_l0 f4 [400, 100]
00000000: 8d90 873d ca7b 073e d8a7 f33d 7ebf 763d
00000010: 00a3 023e 8441 233d bc45 63bd 368e 6b3d
00000020: d7ca 80bd 468a e13d c0f2 583d ac7c 95bc
00000030: aa86 3dbc 08fa e43d a7f9 ab3d e187 853d
00000040: cced 053d fc79 1a3e 6ee2 213d 6b67 86bc
00000050: d4e2 ddbb a221 353d 720c c43d 33a0 d0bd
00000060: 1d1d 8d3d f940 debd 1b18 f23c 1f0f 9d3c
00000070: fa3b d13d 25f0 113d 0682 a03c d9fb 9aba
00000080: 4117 af3d b1e3 cf3d 1788 f43d 09b9 4d3b
00000090: a849 ba3d 503d f43d 4729 0a3e 8426 be3c
000000a0: 91be 393e 7433 a7bc 777f 4a3c 4aab e63b
000000b0: 7d0f ebbd 07cf eb3d 25dc 1bbe 2ed2 843d
000000c0: c749 a63d 6694 0e3e 9eb3 d83d 3a09 beba
000000d0: 83a7 3f3d d37d 123d 2183 ad3c b5d8 e5bc
000000e0: 9875 ddbd c534 a3bc 587d c9bd 4d94 c3bd
000000f0: 540f fa3d 410b a53b 5f96 233d 699e 223c
00000100: b608 99bb 5b40 fb3d 65a8 2b3d fdad ec3d
00000110: a028 313e 2d45 9bbb 077b 5c3d 3522 473e
00000120: d7d2 203d f97d 7fbc bb7d c73c 1deb 64bc
00000130: 0bab a2bd 4a6b 233d 6827 853d 8606 613d
00000140: c63b 583d cd2e cd3b ce83 113e 6946 963c
00000150: 3c53 ebbb 9467 bb3d 797b 7a3d 0edb 87bd
00000160: 9ce9 31bc a004 203d 43fb 04bd 8ecb 563d
00000170: 3935 41bd a950 143d 2c19 8e3d e68a ed3d
00000180: 4f13 d83c 84b2 253d 4b2f 0a3e a061 b0bd
00000190: 3adb 6f3e 6281 353e 03b3 7e3d 0cde 753e
000001a0: dfdb a43d de7d c23d 5898 c93d de9c 553d
000001b0: 739b 09bd 3139 3f3d 20ed ff3d 70db 5d3e
000001c0: b0c9 463d 6a67 383d ce6d ea3d d1f1 a33d
000001d0: 94b0 3b3e 1b56 0e3e 9363 1d3e d05e b73d
000001e0: 96ba ed3d 1e8a 683e d1ef 853d 5cf8 7e3d
000001f0: b936 bb3d 157e 8e3e 11b2 053e 0efb 613e
00000200: 269f ca3d 5f6f f73d aa79 673e bf5a b73d
00000210: c3dc 603e 44ee 1c3e fc7d e03d 31e6 9d3e
00000220: ab7f 823e 50f3 1e3e 055f 063e 479d 683e
00000230: 57af 693e 7392 4e3e 9bf7 273e 33ae 363d
00000240: 70d9 363e 58cb 7d3e 4517 213e 018e d13d
00000250: 853e 173e b82a f93d 19eb 513e e287 373e
00000260: d222 b73d 7c33 b53d 50b8 543e 8e34 523e
00000270: 2247 ee3d 08eb 293e 54c7 833e 6bc9 5e3d
00000280: 164e ad3d d807 763e 57c1 853d 1eed 0b3e
00000290: 4d02 193d e179 643d f721 ed3d 7801 373e
000002a0: 804b 613e 6e28 043e 8a52 223e 24dc 8f3d
000002b0: 8584 d73d 90cb b53c 485e 3d3d c48b ca3d
000002c0: f2fe 1b3e 170f 5c3e bcc0 5e3d b597 eb3d
000002d0: 24d9 a43e ebb7 063e ac6f 2a3e 163e 033d
000002e0: d4be 0d3e 6514 f03c a6a8 0c3e 22e7 233e
000002f0: c9f9 993d 4152 703e 667c 103d 6c51 1a3e
00000300: 54aa eb3d a278 223d 40cd 3e3e 62dd 323e
00000310: 9c1c 013e 2cf7 bf3d 3bdb 683e a9e4 a33d
00000320: 6a12 d33d 498f 303d 4626 9f3d 4a70 f33d
00000330: f8a3 db3d f374 343c 0a6e 433d 2f01 833d
00000340: b888 23be 1923 383d 0016 ac3d 7c7f 843d
00000350: 2d0c c93c d02d 133d 0f52 7b3d 1c7c 5f3d
00000360: 17b6 8b3d 58d1 c63d b40c d73c d6e5 18bd
00000370: 0fd8 e93c b1c4 c83d 550f 703d 0939 e93b
00000380: 799a cebc 5393 753c 1d01 9d3b c4e9 643c
00000390: c1bf 423e 9e0b 043e 2299 653d 5e0d 073e
000003a0: 3844 a83d 39e8 9d3d 40a0 a93b eede 0a3d
000003b0: 44cd edbc c962 b63d fd79 1c3e 7f51 283e
000003c0: 31e3 123e 5b76 023e ef45 ea3d 18e2 b33c
000003d0: 9f51 593d aa77 a03d 709e f53d 16b3 043e
000003e0: 9679 c23c 591a 6a3e 247e 2dbd e0a8 c83d
000003f0: db4a 3d3e abf1 4d3b 857b 3d3e 8079 923d
0.06619368 0.13230816 0.11897248 0.060241215 0.12757492 0.039857402 -0.055486426 0.05750867
-0.06288689 0.11012702 0.05296588 -0.018247925 -0.011567751 0.11180502 0.08397227 0.065200575
0.032697484 0.15085596 0.03952258 -0.016406735 -0.006771425 0.044221528 0.09572686 -0.101868056
0.068903185 -0.10852236 0.02955251 0.01917225 0.10216518 0.03562941 0.01959325 -0.0011824324
0.08549357 0.101508506 0.119400196 0.0031390807 0.0909608 0.11925757 0.13492309 0.023211725
0.18139102 -0.020410277 0.012359492 0.007039462 -0.114775635 0.11514097 -0.15220697 0.06485401
0.08119541 0.13923797 0.10581134 -0.0014498599 0.04679061 0.035764527 0.021180691 -0.028057436
-0.10813445 -0.019922623 -0.098383605 -0.095497705 0.12209955 0.005036742 0.039938327 0.009925463
-0.004670228 0.12268134 0.04190864 0.11556623 0.17300653 -0.004738471 0.053828266 0.19446643
0.039263573 -0.015593999 0.024351945 -0.013972071 -0.0794278 0.03989724 0.06501657 0.05493786
0.05279138 0.0062616826 0.14210436 0.018344121 -0.007181553 0.09150615 0.06115291 -0.06633578
-0.0108589195 0.03906691 -0.032466184 0.05244022 -0.047169898 0.036209736 0.06938395 0.115987584
0.026376395 0.04045345 0.13494603 -0.086123705 0.23423472 0.17725137 0.062182438 0.24010485
0.080497496 0.094966635 0.098435104 0.052151553 -0.033595514 0.0466854 0.124964 0.2166574
0.048532188 0.0450205 0.11446725 0.08005107 0.18329078 0.13900034 0.15370016 0.08953631
0.11607854 0.22708938 0.06539882 0.062248573 0.09141297 0.27830568 0.13056208 0.22068426
0.098936364 0.12081789 0.22605005 0.08952855 0.21959214 0.15325266 0.109615296 0.30839685
0.25488028 0.15522504 0.13122185 0.22716247 0.22820793 0.20173053 0.16403048 0.044599723
0.17856383 0.247846 0.15731533 0.10232163 0.14769943 0.12166351 0.20499839 0.17922929
0.08942188 0.088477105 0.20773435 0.2052786 0.11634661 0.16593564 0.25738013 0.054391306
0.08462159 0.2402643 0.06531017 0.13664672 0.03735571 0.055780295 0.11578744 0.17871654
0.22001457 0.12906048 0.15851799 0.0702441 0.10523323 0.022191793 0.04623249 0.098899394
0.15233973 0.21490131 0.054383025 0.11503545 0.32196915 0.13156097 0.16644162 0.03204163
0.13842326 0.0293066 0.1373621 0.16006139 0.07518346 0.23468877 0.035274886 0.15070122
0.11507097 0.039665826 0.18632984 0.17467263 0.1260857 0.09373316 0.2273988 0.08002598
0.103062466 0.043105397 0.07770972 0.11886652 0.10724634 0.011014211 0.047712363 0.0639671
-0.15970123 0.044955347 0.08402634 0.06469628 0.024541939 0.035932362 0.061357554 0.05456172
0.0682184 0.09707898 0.026251175 -0.037328564 0.028545408 0.09803141 0.05860837 0.007117395
-0.025220143 0.014988738 0.0047913925 0.01397175 0.19018461 0.12895057 0.056054242 0.13188693
0.08216137 0.077103086 0.005176574 0.03390401 -0.029028542 0.089055605 0.1528091 0.16437338
0.14344479 0.12740462 0.1143912 0.021958396 0.053056356 0.07835324 0.1199311 0.12958941
0.023739617 0.22861613 -0.042356625 0.09797835 0.18485586 0.0031424563 0.1850415 0.071520805

decoder.lstm_layer.weight_hh_l0 f4 [400, 100]
00000000: b14b 8f3b 2960 9dbe f6ba 67bc 5f3f 56bd
00000010: c5c1 9bbc 030a fa3d 5b92 ba3d 4020 28bd
00000020: c694 1bbe c799 fa3a d442 bc3d b8f5 f3bc
00000030: 9181 47bd b919 803d 9349 073e 2279 8dbd
00000040: 7503 abbd ac4a 543d 3b61 8fbc 7372 0dbd
00000050: af9a 5c3d c678 533d 0175 c8bd d06c 7a3d
00000060: 588f 213d 30b3 04be 19ca 123d 12ff a73d
00000070: ecc8 05bc b788 afbd 3e85 f9bd 3773 8d3c
00000080: cae5 323e 73e0 1d3e 3ba0 f6bc 757f 1fbd
00000090: ff24 87bd 36c3 9ebc b043 9dbd ac68 513d
000000a0: 9f4f 68bd 99fe cbbc 4014 4bbc 2662 13bd
000000b0: a608 023c 1d7a d93d 2535 333e 4d88 f43d
000000c0: 5fe7 04bd 8ea3 4c3c e550 3bbd f17e c03d
000000d0: 8982 33bd ead0 97be c109 7d3d e731 cb3d
000000e0: 177a 88bd 6003 08be 9d2c 0fbd cbf4 98be
000000f0: 1ff9 31be 656f 8fbc 838b 8f3d a7b0 11be
00000100: 33d0 bfbc 1756 9bbd b2d3 d23a 7b58 073e
00000110: 2e87 89bd ffde 56bc 2228 a63b 8a7a 153c
00000120: fd2c 84bd 1064 85bc b339 8d3c 3e13 903c
00000130: ded2 603d 146c 51bd 2aab 9bbd f3a7 863c
00000140: fe4b 87bd 7272 69bb 3f03 213e 8048 dcbc
00000150: 6645 963d c223 98bc f0f5 523e 7f78 7d3d
00000160: 56f7 8a3d ecc4 8dbe a411 59bd a5b1 2e3d
00000170: 65cc 093d 9c19 61bc 50e9 d3bc 53d2 a4bd
00000180: 5a04 b6bd 943f e33d 5fa7 5b3e faf1 bb3b
00000190: d273 27bd 53a7 89be dc05 bdbd 34a9 083d
000001a0: f419 15bd b210 243e f9d9 2a3d f463 0cbd
000001b0: 64cb b7bd 96f2 643d 167f 49bd 551b ddbd
000001c0: bf6f e1bc 8e46 0e3e fa16 683d 975a 4f3b
000001d0: af1f 5abd c7da 1ebc 9c00 12be 40e3 c4bb
000001e0: a78f 383e 7c0d 74bd 72b5 4ebe c070 4e3c
000001f0: 6f8d df3d 3808 06bb bb00 863e e865 083e
00000200: fbac 0b3e 0592 12be 0c9c 2ebd 7c12 553d
00000210: 7fbf ba3c 41ae 803d 259a f13c 2732 673c
00000220: ae55 3e3d aaeb 93bc f9f8 94be 8171 87bc
00000230: 15c7 43be ca32 b9bd d93e 66bd 822c cabc
00000240: c8cf 653c f4de 8dbd b07e 17be 8ac3 acbd
00000250: 9363 f03d c480 bb3c 1c3d 9bbd 73d0 f33d
00000260: afe8 0f3d d138 d8bd 088a 083e c1e3 0d3d
00000270: b755 423e 8d8a 9ebc 3786 b8ba b515 0dbe
00000280: d738 5d3c 0ec4 883b be28 0dbb 9465 0dbd
00000290: 9404 983d e072 323d c1eb 913d 4eab cb3d
000002a0: 12c9 08be 3fcc 4a3d 012a 113e 9189 f7bd
000002b0: b22c ee3d 6249 2f3c 1d31 603d 0fb0 3cbe
000002c0: 29fc 7dbd 8cd1 19be 9e91 903d 8a2e b83c
000002d0: ccaf 073e b8dc 2dbe 21ca 74bc 042a 853d
000002e0: 1c12 a23b 3420 443d d411 da3d 5595 163d
000002f0: 4d24 3e3e 9075 bcbd a863 e13d f968 97bd
00000300: 8277 53bd a362 1fbd adb1 3ebe a023 b83c
00000310: 9aa4 2dbe d576 c33d 14ab 8c3e 681d 53bc
00000320: ba34 2abd 72b3 c4bd f89b 543c b96f ddbc
00000330: 5ae9 0d3e 2c6c 47be 5682 06bd 832c 0ebd
00000340: 7154 debb 493f 003d 7fe2 023e 5af9 023e
00000350: c392 aabc 6081 5f3d c2d0 c03d 8348 973c
00000360: d1db 14bd 25c9 10bd 9cb7 6c3d f987 013e
00000370: 1be3 44be f3bf 2cbd 9186 b939 bb17 b13c
00000380: 3025 3ebd 381d 0dbd 7b0b 44bd 83e1 63be
00000390: d9bb ebbd 0771 273d c2e2 d8bc 94f7 abbb
000003a0: 6ba9 1e3d 828a 653d 101d f53c 38d0 533d
000003b0: 8493 4fbd 18b3 bbbc 25a8 8b3e 8326 18bd
000003c0: 1cc6 de3a d309 e53b e765 3ebd 050a a83d
000003d0: a739 083d e928 173e 47c8 003e f640 a73d
000003e0: cbed 8c3c d135 c23d 2f9e 6c3d f98f b03d
000003f0: 8c28 25be f20f a7bd e30c 4fbe 1784 7f3c
0.004373037 -0.30737427 -0.014143696 -0.05230653 -0.019013295 0.12208941 0.09109946 -0.04104638
-0.15193471 0.0019119316 0.09192434 -0.029780254 -0.04870755 0.06254906 0.1321166 -0.0690787
-0.08350269 0.051829025 -0.017502418 -0.034532975 0.053858455 0.05162885 -0.09787942 0.061138928
0.039443344 -0.1295898 0.035837267 0.08202948 -0.008165579 -0.08570998 -0.12183617 0.017266853
0.1747047 0.15417652 -0.0301057 -0.038939912 -0.06598853 -0.019380193 -0.07678926 0.051125214
-0.056716558 -0.024901675 -0.012394965 -0.035982274 0.007936632 0.106189944 0.17500742 0.1194006
-0.032447215 0.012490166 -0.045731444 0.09399212 -0.04382566 -0.29651576 0.06177688 0.099216275
-0.06663912 -0.13282537 -0.034954656 -0.29874262 -0.17380188 -0.017509172 0.070090316 -0.14227544
-0.023414707 -0.0758478 0.0016084819 0.13217346 -0.067152366 -0.01311469 0.005070702 0.009123454
-0.06453893 -0.016283065 0.017239427 0.0175873 0.0548886 -0.051128462 -0.07601006 0.016437506
-0.06606291 -0.0035621193 0.15723895 -0.02689004 0.073374555 -0.018571738 0.2060163 0.061882492
0.06785457 -0.27689302 -0.05299534 0.042649884 0.03364219 -0.013739016 -0.025868088 -0.08047929
-0.08887549 0.11096111 0.21450566 0.005735633 -0.04088194 -0.2688547 -0.09229633 0.03336449
-0.036401704 0.16021994 0.04171178 -0.03427501 -0.089743406 0.05589541 -0.049193464 -0.10796229
-0.027519105 0.13894102 0.056662537 0.003163969 -0.053252872 -0.009695715 -0.14258045 -0.0060085356
0.18023549 -0.059583172 -0.20186403 0.012600124 0.10915648 -0.0020451676 0.26172432 0.13320124
0.13640206 -0.14313515 -0.042629287 0.05201958 0.02279639 0.06283236 0.029492447 0.014111078
0.04646843 -0.01805671 -0.290962 -0.016533615 -0.19118913 -0.0904289 -0.05621228 -0.024679426
0.01402659 -0.069272906 -0.14794421 -0.084357336 0.11737742 0.022888549 -0.07580015 0.11904993
0.035134014 -0.10557712 0.13333905 0.03464103 0.1897801 -0.019353176 -0.0014078085 -0.13777812
0.013502321 0.004173762 -0.0021539177 -0.0345207 0.07422748 0.043566585 0.071250446 0.09944783
-0.13357952 0.04951119 0.1417618 -0.120867856 0.11629619 0.010698648 0.054734338 -0.18426536
-0.062008057 -0.15021342 0.07059024 0.022483129 0.13250655 -0.16978729 -0.014940769 0.065021545
0.0049460065 0.047882274 0.10647932 0.036763508 0.18568535 -0.09202111 0.11005336 -0.07393069
-0.051627643 -0.038912427 -0.18622465 0.022477925 -0.16957322 0.0954415 0.27474272 -0.012885429
-0.04155419 -0.09604539 0.012976639 -0.027030813 0.13858548 -0.19474858 -0.03283914 -0.03471042
-0.0067849685 0.031310353 0.12781714 0.12790433 -0.020821935 0.05456674 0.094148174 0.018467193
-0.036342446 -0.035348076 0.05779229 0.12649526 -0.19227259 -0.042175245 0.0003538621 0.02161776
-0.046422184 -0.034451693 -0.04786251 -0.22253995 -0.115104385 0.040879276 -0.026475314 -0.0052480195
0.03873579 0.056040294 0.029921085 0.051712245 -0.05067779 -0.022912547 0.27276722 -0.037146103
0.0016996297 0.0069896965 -0.0464839 0.08205036 0.033258107 0.147617 0.125764 0.08166687
0.017203232 0.09482921 0.057768043 0.086212106 -0.16128749 -0.08157338 -0.2021976 0.0155954575
