models/male_forenames.pth (torch, 232818 bytes, 16 tensors)

encoder.conv_layer_1.weight f4 [50, 1, 3]
000000 1f 06 f7 ba e0 9a c3 b9 d1 1a 96 ba 42 76 1a 3e
       -0.0018846429 -0.0003730869 -0.0011452084 0.15084174
000010 aa bb c5 be 3d b9 f9 3d 0e 65 43 3e 5f ed 00 be
       -0.3861974 0.121935345 0.19081518 -0.1259055
000020 49 f4 98 bd 06 4e 23 3e 9d 01 ab 3e b3 56 ce be
       -0.07468469 0.15947732 0.33399668 -0.4030052
000030 f2 4b 52 3e bb de 36 bf 14 eb 0d bf 67 51 c0 bd
       0.20536783 -0.7143361 -0.55436826 -0.09390526
000040 d8 d4 f8 3c e6 aa fa bb 93 50 15 bb ac bd 8b bb
       0.03037493 -0.007649767 -0.0022783622 -0.004264554
000050 36 a2 9f 3b 97 5c e6 be 6c cc e0 be b2 b7 74 3e
       0.004871632 -0.44992515 -0.43905962 0.23898199
000060 2c 50 5d bd 76 2d c4 bc 24 ec a8 3d 27 30 ed be
       -0.054031536 -0.023947459 0.08248165 -0.463258
000070 64 a4 77 3d 9e 72 a8 3e 39 bc 90 be a9 51 f6 bd
       0.06045951 0.32899946 -0.28268602 -0.12027294
000080 07 e1 77 be 59 26 b4 bd 14 a3 a7 3d 55 b8 8e bd
       -0.24206935 -0.08796377 0.081854016 -0.06968752
000090 a4 52 47 3e b2 f1 00 be 16 1a 11 bd 2a 5f ab be
       0.19465119 -0.125922 -0.035425268 -0.33471042
0000a0 1b 92 3a bd 63 2c dc 3e f9 05 43 bc ce e5 25 be
       -0.045549493 0.43002614 -0.011903279 -0.16200945
0000b0 ba f3 31 be d5 6d 16 be 9c cf c2 3d 1a bc c7 3c
       -0.1737813 -0.14690335 0.095122546 0.024381686
0000c0 f5 ba 68 bd 89 b5 b5 bd 22 80 4a 3e 5f 12 6e 3e
       -0.05681892 -0.08872516 0.19775441 0.23249196
0000d0 2c 45 9f 3e ac d8 7b be 38 49 f2 3a 3b 29 12 bc
       0.3110746 -0.24594373 0.0018484956 -0.008920963
0000e0 30 c2 75 3b 94 cd 4e bd 1b e5 ae 3d dc d9 45 bd
       0.0037499778 -0.050489023 0.08539792 -0.04830347
0000f0 92 93 53 3b b5 03 03 3c 37 af 51 3b eb 17 00 bc
       0.0032284004 0.007996489 0.0031995305 -0.0078182025
000100 61 47 b8 3b 75 46 d7 3b e9 51 08 3d ea cd 51 be
       0.0056237434 0.0065696784 0.03328124 -0.20488706
000110 2b 18 0b 3e 92 a6 d1 3d 08 cb be be 11 ed 6b 3e
       0.13583438 0.10236849 -0.37264276 0.23039652
000120 6c ae 0a 3d 6b 71 89 be 28 ce 85 be ec 47 06 3c
       0.033857748 -0.26844344 -0.26133847 0.008195858
000130 57 60 a7 3a 14 d4 8f bb 35 9a 65 be 40 2b 9b be
       0.00127698 -0.0043892954 -0.22422107 -0.30306435
000140 c6 d2 12 be ed b7 e9 3d 84 9f b1 be e9 8c f8 3d
       -0.14338216 0.11412034 -0.34692013 0.121362515
000150 5b 38 84 be be 25 18 be 5c fd b7 3d a4 15 57 be
       -0.25824246 -0.14858148 0.08983871 -0.21004349
000160 46 13 a3 3e 53 79 ff be 6a a2 72 3b df f6 36 3b
       0.31850642 -0.4989725 0.0037023076 0.0027918143
000170 28 cb 9e bb 74 bf cf bd b9 e6 21 3e e5 3e ec bd
       -0.0048459955 -0.10143939 0.1581067 -0.11535434
000180 5a d5 f1 bd bc df 71 be 3d fe 63 be a6 be 21 3d
       -0.11808272 -0.23620504 -0.22264953 0.039488457
000190 e1 49 c5 bd e8 f4 ca bd af e5 85 be 5f e3 20 3e
       -0.09633232 -0.099099934 -0.26151797 0.15711735
0001a0 81 8b 2e 3c 3a 6c 86 3e 49 88 0e 3e bf 92 ac be
       0.0106533775 0.26254445 0.13919176 -0.33705708
0001b0 f8 48 70 3e cc af d8 be 48 85 8d 3e bb 7d 80 be
       0.23465335 -0.42321622 0.27640748 -0.25095925
0001c0 db fc 48 3e 8d f4 16 3e 34 2e f0 be 86 c6 a7 3e
       0.19627707 0.14741726 -0.4691025 0.3276865
0001d0 69 17 a9 3d 2c 58 41 3d fe 20 5a 3e b0 de aa be
       0.08256418 0.047203228 0.21301648 -0.33373022
0001e0 97 84 17 3d 47 20 8e be b4 d5 4f 3e 06 1c e4 3c
       0.036991682 -0.27759 0.20296365 0.027845394
0001f0 31 83 b8 bd 0f 3e a2 bc c6 07 80 bd 42 6c 55 be
       -0.09009398 -0.019804982 -0.06251483 -0.20842078
000200 68 e8 58 3e f6 4d aa bb e8 d9 69 bc 3a aa 5a 3c
       0.21182406 -0.005197282 -0.014273144 0.013346249
000210 9d 6d 17 bd f2 e4 42 be b7 dd 4b 3e 04 0e 27 3d
       -0.03696977 -0.19032648 0.19908796 0.04078485
000220 ba fe 2d 3a fd c9 04 be 88 c7 d6 bd d6 39 a1 be
       0.00066373835 -0.12967677 -0.10487276 -0.31489438
000230 1a c4 ac 3e 1c 54 24 3b 95 5b 3b 3c 23 b8 d4 bc
       0.33743364 0.0025074547 0.011435409 -0.02596671
000240 0f de ef 3d f0 09 ba be af 29 75 be 76 a8 59 bc
       0.11712276 -0.36335707 -0.23941682 -0.013284793
000250 3f fa 32 3e 41 3e 51 be
       0.17478274 -0.20433904

encoder.conv_layer_1.bias f4 [50]
000000 bd aa 19 bd af 5d 3b bf 21 fc 4a be 27 73 4e 3e
       -0.037516344 -0.73189825 -0.19822742 0.20161115
000010 31 70 a6 3d ce 29 bd 3e e4 10 d0 bc b6 44 96 3e
       0.081268676 0.36945957 -0.02539868 0.29349297
000020 6d 2a 8e be 95 b1 90 be 30 f0 1e 3f 52 53 93 3e
       -0.27766743 -0.28260484 0.6208525 0.28774506
000030 20 3b 1d bf a1 4e 2f bf f6 09 c2 3e fc e7 40 3e
       -0.6141834 -0.68479353 0.37898225 0.18838495
000040 88 41 0c bf 23 04 e7 bd 25 18 b3 be cb 5b 8c be
       -0.5478749 -0.11280086 -0.34979358 -0.27413782
000050 30 06 64 bf 95 aa 43 3c cb fd 2c 3d 83 11 bc 3d
       -0.8907194 0.011942525 0.042234223 0.091830276
000060 39 fa 03 3f 70 c4 15 bf ea 7f 97 be 85 b2 0b bf
       0.51553684 -0.58502865 -0.29589778 -0.54569274
000070 e8 1f 79 3e 19 2c 04 3d d3 c3 0f bf 61 e7 a1 be
       0.24328578 0.032268617 -0.5615818 -0.3162184
000080 7f 14 32 be 48 96 02 3e 64 23 b0 3e 94 4b fc 3d
       -0.17390631 0.1275264 0.34402 0.12319103
000090 be d6 1c bf f0 39 a6 be 8b 77 a9 be 19 18 f2 be
       -0.6126517 -0.32466078 -0.33099017 -0.4728401
0000a0 25 62 33 3e f5 aa aa be 95 f4 c1 3e c1 cf 0c bf
       0.17517908 -0.33333555 0.37881914 -0.5500451
0000b0 d8 cd 24 be c6 0c 91 be 9b 2c 4f 3d ab 20 ce be
       -0.16094148 -0.28330058 0.05057965 -0.402593
0000c0 34 e2 5e bf b4 9c ce bd
       -0.8706391 -0.100884825

encoder.conv_layer_2.weight f4 [40, 50, 3]
000000 46 c7 3a bd f9 ae 14 3d db de e6 3c ab de 7e bd
       -0.0456002 0.03629968 0.028182438 -0.06222407
000010 ca 45 57 3e f1 fc 5c 3c 24 b7 ac 3c 48 93 2a bc
       0.21022716 0.01348804 0.021083422 -0.010411091
000020 b0 6e 9b 3d eb fc c7 bd 75 08 22 bd 14 f1 1e 3d
       0.07589471 -0.09765037 -0.039558847 0.03880413
000030 15 53 d4 3c a2 d7 2b 3e cd 31 3f bd 48 75 f9 3c
       0.025918523 0.16781476 -0.046678353 0.030451432
000040 bb a2 50 3d 45 80 ff 3c 47 c5 25 bd c4 1b 7d 3b
       0.050936442 0.031189093 -0.04047134 0.0038621286
000050 1a d7 88 3b bf 19 79 3d af 04 28 ba 13 fb 2c bc
       0.0041760327 0.06081557 -0.00064093893 -0.010557908
000060 15 24 bf bc 76 63 1c bd e2 15 e9 3c 92 38 ee bb
       -0.023332635 -0.03818079 0.028452817 -0.0072699273
000070 10 41 9e 3d 59 d1 4b 3d e7 69 08 bd 96 91 cb 3d
       0.077272534 0.049760196 -0.03330412 0.09939878
000080 2e d5 b9 bc 54 7b dd 3b 6c 24 ac bc b1 3c 93 bd
       -0.02268466 0.0067590866 -0.021013461 -0.0718931
000090 10 ab 4c 3c 84 a6 49 bd ab d2 3e 3d 9a 78 fd 3d
       0.012491956 -0.049231067 0.046587627 0.123765185
0000a0 7a 42 63 b9 08 f1 6b bb a4 45 19 3d 5c 67 6c 3c
       -0.00021673171 -0.003600182 0.03741993 0.01442894
0000b0 e7 61 41 bd 23 ae 55 bd de f0 ab b9 40 f3 0e bd
       -0.047212508 -0.052168023 -0.00032795122 -0.03489995
0000c0 ee c1 13 3e 51 b6 65 3d 13 17 06 be b3 65 33 3d
       0.14429447 0.056082074 -0.1309474 0.04379816
0000d0 64 b3 09 bd 63 5a 1d 3d 25 8e 2c bd 69 ae 32 3d
       -0.033618346 0.038416278 -0.042127747 0.04362336
0000e0 61 dd 33 3d f4 d9 28 3d 47 88 d7 bc 84 a1 e4 3c
       0.043912295 0.04122348 -0.0263101 0.027909048
0000f0 b7 15 86 bc 3f c7 9c bd 3a b1 23 bd 3a a3 62 3c
       -0.016367776 -0.07655191 -0.03996394 0.013832862
000100 72 0f 10 bb 5c d9 23 3c 46 06 99 bc f9 2e b2 bd
       -0.0021981862 0.010000553 -0.01867975 -0.087003656
000110 da 10 1d 3d ea 38 94 3d 84 5a 16 bd f4 51 5d 3c
       0.03834615 0.07237418 -0.036707416 0.013508309
000120 eb 83 92 bd 4f e9 a7 3b db e5 84 bb d7 c5 c2 bd
       -0.071540676 0.005124248 -0.004055721 -0.09510391
000130 34 f1 ba bc e5 b7 b2 3d f0 71 05 3d a0 a8 e9 bc
       -0.022820093 0.08726481 0.032579362 -0.02852279
000140 84 70 ef bc 15 18 4d 3d 11 8b b1 3d fd bb 14 3c
       -0.029228456 0.050071795 0.08669103 0.009078023
000150 c9 20 f9 3b a9 34 34 3d 85 c3 45 3d 99 8d b0 3c
       0.0076027852 0.043995533 0.048282165 0.021551894
000160 7b bf 00 3d 22 fd 1d 3d 2f 8a f2 bb 2a 5e e9 3c
       0.03143261 0.038571484 -0.0074017267 0.028487284
000170 c9 32 21 bd 7d 6d 64 3b 80 fa 1e bc 9f 49 be 3d
       -0.039355073 0.00348553 -0.009703279 0.09291386
000180 0e 75 35 3d 96 35 94 3b d3 47 96 3d ba 66 27 bd
       0.044301085 0.0045229895 0.07337918 -0.040869452
000190 d8 45 57 3b dc 4f a1 3c 2e de 00 bd 95 c3 82 3c
       0.0032848027 0.0196914 -0.031461887 0.015962401
0001a0 21 a6 b0 3d 0f fd 7c bd 10 69 a9 bd 52 8c 5f 3d
       0.086254366 -0.061764773 -0.08271992 0.05457718
0001b0 e6 21 65 bd 75 c9 d0 bd ad af 97 bd a6 69 ab bd
       -0.05594053 -0.10194675 -0.07406554 -0.0836976
0001c0 56 b0 a5 3c 6e af 53 3d 06 c4 90 3d 55 7e 57 3c
       0.020225685 0.051680975 0.070686385 0.0131526785
0001d0 fb dc 26 3d 53 a7 05 3e e6 6b 48 bc 6a d7 b7 3d
       0.040738087 0.1305211 -0.012232756 0.08976634
0001e0 18 33 81 3d 0f a4 d6 bb 8a 36 69 3c be ca 4b 3d
       0.063085735 -0.006550319 0.0142341945 0.049753897
0001f0 ad 28 62 bd f0 0c be bc 6e 88 c5 bd 67 4b 84 bd
       -0.055214573 -0.023199528 -0.096451625 -0.06459694
000200 fd 28 95 3d b8 45 22 bd 13 67 d5 3a f7 48 25 3c
       0.072832085 -0.03961727 0.0016281329 0.010088197
000210 df b2 96 3c 84 96 e3 bd 8a 04 28 3c 68 fb 09 3d
       0.01839584 -0.11112693 0.010254988 0.033687025
000220 cc 2c aa bb 5b 1e 82 3d d5 43 03 be 15 b9 a5 bd
       -0.0051933285 0.06353446 -0.12818845 -0.08091942
000230 ca e6 b6 3d 1a 27 a4 bd 40 a0 6d 3d 0e f7 c3 3d
       0.08930738 -0.080152705 0.058014154 0.09568606
000240 fe f1 99 3d 6f 65 9d 3d 4f ab 0d 3c 6e 1b b0 3a
       0.075168595 0.076853625 0.0086468 0.0013435909
000250 8c f5 af 3c aa b7 24 3d d7 63 95 3d 7a 5e 33 3c
       0.02147939 0.04021422 0.072944336 0.010947818
000260 a3 3c ad 3c 7a a5 3f bd 83 ca 19 3e 93 12 9e bc
       0.021147078 -0.04678867 0.15018658 -0.019295966
000270 b0 1b b4 3d ef 3d 9b 3d 96 3a 84 bc df 10 9c bc
       0.087943435 0.07580172 -0.016141217 -0.019051014
000280 fd 13 9b 3a 42 6a 1e 3d 7e 48 03 3d 7f 8e dd 3d
       0.0011831518 0.038675554 0.032051556 0.108181946
000290 c3 61 7b bd ae 21 33 3a cc 1f ab bd c3 bc 6d 3d
       -0.06137253 0.0006833327 -0.08355674 0.058041345
0002a0 b6 d0 45 3d 9c c0 3e 3d 99 db 34 3d 24 da f9 3d
       0.048294745 0.046570405 0.044154737 0.1219981
0002b0 b2 57 de bc a2 b5 72 bd e9 74 a7 bd f6 74 23 3d
       -0.027141426 -0.05925525 -0.08176596 0.039906465
0002c0 6a d2 44 3d 65 9f dc bd d1 c8 74 bd b4 e1 ae 3d
       0.04805223 -0.107725896 -0.059761826 0.08539143
0002d0 a9 ef 94 3c 14 34 11 3d a6 d4 31 3d 97 5d e0 bc
       0.018180685 0.035450056 0.043415688 -0.027388377
0002e0 af c6 36 bd 5a 76 3d bd ce d9 03 3d e0 2f 23 bd
       -0.044623073 -0.046255447 0.032190137 -0.03984058
0002f0 a0 85 15 bd 85 74 63 3c 39 20 24 bd 47 77 ba bc
       -0.036504388 0.013882761 -0.040069792 -0.022761954
000300 c2 e3 43 3d 0f 88 64 3d 5f 98 ce bb 10 d8 17 3d
       0.04782463 0.055793818 -0.006304785 0.037071288
000310 b7 88 45 bd bc 61 3a bd 4a e2 19 bc 52 9c 29 bd
       -0.048226085 -0.045503363 -0.00939233 -0.041408844
000320 0b ab 9e bd 5d 22 32 3c 73 07 24 3d 6f 48 9d 3d
       -0.077474676 0.010872451 0.040046167 0.07679831
000330 85 d2 7a bd f6 d1 56 bd 18 60 7c bc d8 57 cb ba
       -0.061235923 -0.052446328 -0.01540377 -0.001551385
000340 0f 05 37 3d af e6 2f be 50 bf a4 bd cf f7 89 3d
       0.04468256 -0.17177843 -0.080443025 0.06736719
000350 fb cc dd 3c 33 f5 7b 3d a2 17 90 3d b5 4b b5 3b
       0.027075281 0.061513137 0.070357576 0.0055327066
000360 1e a4 d7 bc 4a 07 1c bd 97 ed 9c bd c7 94 79 3d
       -0.026323374 -0.03809289 -0.07662504 0.0609329
000370 78 2f c1 3d c4 87 bf bd 69 0f b1 3b 5e 89 e9 bc
       0.09432882 -0.09352067 0.0054034484 -0.028507885
000380 a6 37 8c bb 67 83 69 bb a3 e3 1d 3d 9d 33 1c 3c
       -0.0042790947 -0.00356313 0.03854717 0.00953379
000390 35 a6 36 3d c7 0e c9 3b 79 9e 5f bd e5 2e b9 bc
       0.0445921 0.006135795 -0.05459449 -0.022605369
0003a0 59 29 5c 3c 2e e9 0a 3d 11 bb 87 3d f5 79 bb 3c
       0.013437592 0.033913784 0.06627477 0.022885302
0003b0 00 fa 65 3b 96 c2 14 3d 89 e3 bc 3d 61 f0 08 be
       0.0035091639 0.036318384 0.092230864 -0.13372947
0003c0 aa 6b 3d 3d 98 f4 61 bd 2d 3a c2 bc 2d a8 35 3d
       0.046245255 -0.055164903 -0.023709381 0.044349838
0003d0 96 95 a6 bd d5 9c 8b bd 26 cf 39 bd 64 17 75 3d
       -0.08134 -0.06817023 -0.045363568 0.05983676
0003e0 46 bf 35 bd b5 26 6b bc 11 d0 ba 3d 45 3f e0 bc
       -0.044371866 -0.01435249 0.09121717 -0.02737392
0003f0 03 d3 24 3c 40 10 08 bd bd 90 61 bd 4e 2e 83 bd
       0.010060075 -0.033218622 -0.055069674 -0.06405316

encoder.conv_layer_2.bias f4 [40]
000000 3b 33 27 be 48 e0 c8 bd fa 33 a0 bc 3e 48 1b 3d
       -0.16328137 -0.09808403 -0.019556034 0.037910692
000010 f6 bf e8 bd e7 c5 06 be 71 d0 0f be 0a 68 e3 3a
       -0.11364739 -0.13161431 -0.14044358 0.0017349732
000020 07 a7 fb bd 39 e2 17 be c7 c3 28 be 6f 30 60 bd
       -0.12287717 -0.14832391 -0.16480933 -0.05473369
000030 7e 0c f1 3d f8 b7 32 be 3f ef d5 bc c5 10 b3 bd
       0.11769961 -0.17452991 -0.026115058 -0.08743433
000040 05 e9 bf bd df d8 85 bd 95 90 71 be 6f f6 25 be
       -0.09370617 -0.065355055 -0.2359031 -0.16207288
000050 e7 ab 76 3d 36 fb a1 bd 05 46 a7 bd 81 fc c7 bd
       0.060222533 -0.07909243 -0.08167652 -0.09764958
000060 e6 5b 5e bd ce 88 1a be d6 15 a4 bc 72 2e b1 bd
       -0.05428686 -0.1509125 -0.020029943 -0.08651437
000070 ec 1f 20 be 01 4f 31 be 98 87 55 bd e9 ec 13 be
       -0.15637177 -0.17315294 -0.052131265 -0.14445843
000080 d6 b2 e5 bd 49 aa 0e be 50 ff 09 3e d7 62 93 bd
       -0.11215751 -0.13932146 0.134763 -0.071965866
000090 c3 ae 98 bc d8 22 04 bd 47 12 c4 bd bb 08 98 bd
       -0.01863802 -0.032259792 -0.095737986 -0.0742354

encoder.linear_layer.weight f4 [40, 440]
000000 c8 6b 16 3d 45 80 79 3c 93 5d 8b bd a5 68 fd bc
       0.036723882 0.015228336 -0.06804957 -0.030933687
000010 f2 02 db bc 1f 54 ae bc 42 1f b4 3d b0 99 84 38
       -0.026734803 -0.021280346 0.087950245 6.322877e-05
000020 b3 3a 0c bd 3c 29 59 bd 7b af 9a 3b 23 9b 23 3d
       -0.034235667 -0.05301784 0.004720626 0.03994287
000030 39 c0 a6 3b e4 4c a6 3b f1 d9 91 bc 21 61 9a 3d
       0.0050888327 0.005075084 -0.017804118 0.07538057
000040 d5 42 51 bd e0 17 22 bd 33 8c 48 bd b6 44 62 bd
       -0.051089127 -0.03957355 -0.04896183 -0.05524131
000050 0b 9a c2 3c b8 d1 26 3d b5 43 f3 bc 9c bb c3 bc
       0.023755094 0.040727347 -0.029695371 -0.02389317
000060 7c d1 f4 3a c7 12 bd 3d 4e af b5 bc ab 32 6b bc
       0.0018678154 0.09232097 -0.022178318 -0.014355342
000070 e8 4c 23 3d e5 54 8a 3c e5 af 2d bd 5a 01 0e bc
       0.039868265 0.016886184 -0.042404074 -0.008667314
000080 3b ff 74 3d 61 ac 47 3d 39 98 9d 3c 65 6b 5d 3c
       0.05981372 0.048748378 0.019237624 0.013514374
000090 35 c2 9a 3c 4e 2b 9f 3c e3 f7 29 bc 20 6d 36 3d
       0.018891433 0.019429829 -0.010374042 0.044537663
0000a0 92 82 be bd 83 4b 2c 3d 94 ea a4 bd 29 27 d3 3c
       -0.09302248 0.0420642 -0.08052555 0.025775509
0000b0 a8 d4 9b bb 52 99 e3 bb 53 02 9c bc c5 74 5c 3d
       -0.004755575 -0.0069457674 -0.019044077 0.053822298
0000c0 6a e3 76 bc 61 a4 e9 bc 30 2c 7d 3b 86 82 83 3d
       -0.015068868 -0.028520765 0.0038631074 0.0642138
0000d0 d7 c0 70 bb 51 9f 6b 3d 0a 9f 80 bd 89 51 0a 3c
       -0.0036736035 0.057524983 -0.06280334 0.008442291
0000e0 86 df 04 bc 54 a3 87 3c 64 09 29 3c 6b 2d aa ba
       -0.008109933 0.016557373 0.01031718 -0.0012983506
0000f0 49 a8 25 3d aa 46 46 3c 95 72 83 3d 8e 97 40 bc
       0.040443692 0.012101809 0.06418339 -0.011754883
000100 83 4b d2 3b 82 37 6b bd 2e 61 dc bc ab 22 e1 bb
       0.006417693 -0.057425983 -0.026901808 -0.006870588
000110 e9 22 33 3c b2 f5 05 3d 11 b3 94 bd a4 e1 4d 3d
       0.010933616 0.032705016 -0.07260717 0.050264016
000120 67 e2 c8 3c 53 09 87 3d a8 c3 38 bd 50 9b 7d bd
       0.02452202 0.06593575 -0.045108467 -0.061915696
000130 e9 c2 bd 3c 55 8e 02 3c a9 62 94 ba 6b 5b 0d bc
       0.02316423 0.007968505 -0.0011320907 -0.008627753
000140 84 1f e0 3c 9f fb ef 3b a2 56 78 3c 4a 73 af ba
       0.027358778 0.0073236967 0.015157374 -0.0013385799
000150 de af 7e 3c c4 25 7e bc 70 ce 61 bc 22 26 8f 3d
       0.01554486 -0.015511934 -0.013782129 0.06989695
000160 65 94 17 bc cc de 9d bc 19 93 c7 bb 5d bc b4 3c
       -0.009251689 -0.019271277 -0.0060905335 0.022062475
000170 46 00 3b 3d 0d 2e f8 bc e5 ad 29 3d 72 79 c3 bb
       0.045654558 -0.030295396 0.041425604 -0.005965405
000180 6b c1 33 3d 5c f6 ce bc cf ae 25 bd 67 12 55 ba
       0.04388563 -0.025263958 -0.040449914 -0.00081280473
000190 9d 3b 6b 3d 3c 2b 2c 3b 86 a0 9d bc 13 d0 8a bc
       0.0574299 0.0026270887 -0.019241583 -0.01694492
0001a0 7c e9 dd bb 27 ed 20 3d b0 56 8d bc dc 2d 3c bd
       -0.0067722183 0.039288666 -0.01725325 -0.045942172
0001b0 54 12 01 3d d6 65 66 bc 9e 88 48 bb ed 58 c7 3c
       0.03151162 -0.0140623655 -0.0030599008 0.024334395
0001c0 fd 1e bf 3c 05 ae 84 bc 42 e9 a2 39 4c 65 d7 bb
       0.023330206 -0.01619626 0.00031072838 -0.006573355
0001d0 58 8d 07 3b a2 b9 d7 bc 9d 65 04 bd 2f ef 61 3c
       0.0020683613 -0.026333634 -0.03232347 0.013789936
0001e0 40 6d c6 bc 18 ac 02 bb bd 71 13 bd 99 91 d3 bc
       -0.024222016 -0.0019939002 -0.03599714 -0.025826262
0001f0 ed f7 15 3d 0f d8 b9 3c 0a 85 bd 3d 0c 15 38 bd
       0.036613394 0.022686033 0.09253891 -0.044941947
000200 37 15 4e bd 3a 13 e8 3c e8 b4 f8 bc b6 4d 54 3c
       -0.0503132 0.02832948 -0.0303597 0.012957981
000210 41 50 ab bc c2 8f cf bc a9 73 f7 bc 21 f7 96 3d
       -0.020912291 -0.025337104 -0.030206518 0.07371355
000220 20 ec 98 bc f6 a6 34 3c 1c d8 69 bd 34 2f e8 3c
       -0.01866728 0.011026135 -0.057090864 0.02834282
000230 6b 53 15 bd 93 2d 05 3d ee a6 97 3d 42 fb 06 bc
       -0.036456507 0.032514166 0.07404886 -0.0082386155
000240 ae 33 b5 bc 69 37 54 bc a8 ef 68 bd 97 d5 06 3d
       -0.02211937 -0.012952664 -0.05686918 0.03291854
000250 d2 be 68 3d 46 2c 18 3d ef 86 5e 3c b0 f0 2c bb
       0.056822605 0.037151597 0.013581975 -0.0026388578
000260 6d b4 38 bb 32 fe 00 bd 9f fc 5f bd 2d 47 02 3d
       -0.0028183714 -0.03149242 -0.054684278 0.03180616
000270 ce fc 43 bc 5d 77 de 3c 75 1c 53 bc 5e 78 22 bd
       -0.011962129 0.027156526 -0.012885203 -0.039665572
000280 85 13 3a 3c 7f 6f 19 3c 80 3e b4 3c 8b 3d 21 bd
       0.011357193 0.009364962 0.022002459 -0.039365333
000290 0b 51 8f 3d b6 55 ad 3c e0 98 29 3c fd 4b 75 3c
       0.069978796 0.021159034 0.01035139 0.01497173
0002a0 bf 97 fb bb 5c 81 04 3c c3 a6 19 bb 74 77 8e 39
       -0.0076780017 0.008087482 -0.0023445345 0.0002717335
0002b0 26 93 fc 3c af 2e 5b 3c 3c 4d 90 bc 63 04 2e 3d
       0.030831885 0.013377829 -0.017614953 0.042484652
0002c0 fc 82 c3 3c 74 3a db 3c 36 1f 27 bd f9 31 c7 39
       0.02386617 0.026761271 -0.04080125 0.0003799347
0002d0 52 be cf bc 8e 40 5e 3c 3a d2 39 bd ce 29 5d 3c
       -0.025359306 0.013565196 -0.045366503 0.013498737
0002e0 24 fd 62 3c fd dc 25 3d c1 2d 8b bd b1 a4 0f 3d
       0.013854299 0.040493954 -0.06795836 0.03506917
0002f0 a0 64 3c 3d 08 4b cb 3c d9 37 ca bd 1b b5 9b bd
       0.0459944 0.024816051 -0.09873933 -0.076029025
000300 a8 94 08 be 74 f3 66 3d 38 81 da bb 86 6f bd 3b
       -0.13337958 0.05638452 -0.006668236 0.005781117
000310 34 fe a4 bd f5 f7 03 bd 0c 32 54 3c ee e7 3d 3d
       -0.08056298 -0.032218892 0.012951385 0.046363764
000320 a4 c5 ab 3b 54 a3 b4 3c d5 6d bb bc 5a fe 6a 3c
       0.0052420665 0.022050537 -0.02287952 0.014342869
000330 d3 f1 8f bd b4 d0 ba 3c 5b 3a dd bd b3 fc 86 3d
       -0.07028546 0.022804596 -0.10802146 0.06591167
000340 3f b3 1a 3d 40 42 2e 3a 5d 7f 6a 3d ee 3d b1 bc
       0.0377686 0.0006647445 0.05725037 -0.021635976
000350 87 53 57 bd 86 f5 bb bc 87 77 09 be 8b 47 e5 3c
       -0.052569892 -0.022944223 -0.13424502 0.027988216
000360 0d 1e e5 3c 82 ee 98 bb 54 f1 2a bd b3 2c 15 3d
       0.02796843 -0.004667104 -0.041734055 0.03641958
000370 e3 0b e0 3b 96 98 de bc ca 38 10 bd 9a 30 07 3a
       0.0068373545 -0.027172368 -0.03521041 0.00051570835
000380 7c 82 0f 3d d2 60 7e 3d 84 a1 53 3c b5 4c cd 3c
       0.03503655 0.062104054 0.012916926 0.02506099
000390 eb 0a 5c 3d 5f e0 cd bc 72 05 fc 3b 61 76 90 3c
       0.05372135 -0.025131403 0.007691079 0.017634572
0003a0 64 00 d3 bc 44 97 1f 3c 0f d8 78 3d 3e 26 15 bd
       -0.025757022 0.009740654 0.060752925 -0.036413424
0003b0 05 35 9f 3d c2 72 95 bc d4 1f cc b9 a8 17 62 bd
       0.077737845 -0.018243197 -0.00038933626 -0.05519834
0003c0 c2 6a 0c bc 43 5c 81 bc 1b 45 df 3c 9a 48 2d bd
       -0.008570375 -0.015791064 0.027254632 -0.042305566
0003d0 97 00 72 3d 34 71 8e 3d 80 dd 25 b7 11 f8 bf 3c
       0.059082594 0.069551855 -9.886338e-06 0.023433717
0003e0 6d 73 63 bd 56 0c 4a bd 71 e3 52 bc 4d 80 57 bd
       -0.05553 -0.04932817 -0.012871609 -0.05261259
0003f0 a8 ef 13 bd 04 3f d1 bb 67 7c 1f 3d 69 93 bb 3b
       -0.036117226 -0.006385686 0.038937 0.00572436

encoder.linear_layer.bias f4 [40]
000000 c8 d8 e2 3d b7 94 5e 3d 41 e8 07 3d 26 cf 90 3a
       0.11076504 0.054341044 0.03318048 0.0011048063
000010 e0 72 a7 3c 3e dd ba 3c ad eb f4 3d f5 9f 84 3d
       0.020440519 0.022810575 0.11959014 0.06475822
000020 3b a3 5a 3d 7c 82 2f 3c 6e 8f 1b 3d 5c b0 97 bc
       0.053378325 0.010712262 0.037978582 -0.018516712
000030 c0 27 af 3d 65 ff 7c bd 8f 45 06 bc 32 d4 02 3e
       0.085525036 -0.061767 -0.008195295 0.12776259
000040 18 ca 88 3a 1c b5 45 bc b7 0d 56 3d 06 2f a4 bd
       0.0010436205 -0.012067106 0.052259173 -0.080167815
000050 ec 42 90 bc 70 fe 36 bd b4 b8 d4 bd f5 b1 ad 3c
       -0.017610036 -0.044676244 -0.10386792 0.02120302
000060 d2 f3 f0 3d fe cf d8 bd 9c 2c b2 bd f3 3d 33 bc
       0.11765255 -0.10586546 -0.08699915 -0.010940063
000070 da 8a b8 bd 7c 1a 27 3e a1 09 5d 3d c4 60 f7 3d
       -0.09010859 0.16318697 0.05396426 0.120790035
000080 61 dd 95 bd 99 8c 24 3e 9a 2d 96 bc 83 a4 c3 bc
       -0.07317615 0.16069259 -0.018332291 -0.023882156
000090 3a c6 8a bc 26 e1 c2 3d 0f 02 39 bd 73 2d a9 bc
       -0.016940225 0.095156 -0.04516798 -0.020651555

encoder.mean_layer.weight f4 [35, 40]
000000 a1 9d 71 bd a0 db 3d 3d af c7 21 bc 49 2c 8d bb
       -0.058988217 0.04635203 -0.009874268 -0.0043082577
000010 75 f7 b6 3a ae 82 f7 bb 9c af 37 bc b6 48 88 bb
       0.0013959246 -0.00755342 -0.011211302 -0.0041590584
000020 18 6c 46 3b e3 11 fc bb 45 a0 8c bb b0 07 90 3c
       0.0030276831 -0.007692562 -0.0042915666 0.01758179
000030 b4 78 9c 3d 0a 51 12 bc ea 6f 19 bc e3 ba 80 3c
       0.0764021 -0.008930454 -0.009365061 0.015714115
000040 83 cd 3d bd 62 c9 3e 3c 0a b4 b9 bc a7 76 e5 bb
       -0.04633857 0.011644693 -0.022668857 -0.00700267
000050 17 55 27 3c f7 42 0c 3c df 42 09 3c 95 06 9a 3c
       0.010213158 0.008560888 0.00837776 0.018801967
000060 86 ce 02 bd 0f 92 4e bb d7 b4 9a bb 8a b8 b0 bc
       -0.031935237 -0.0031520163 -0.004721265 -0.02157237
000070 a0 35 59 b8 e7 2b 11 bc d2 a9 93 3c 9a 3a 57 bc
       -5.1786774e-05 -0.008860565 0.018025313 -0.01313653
000080 23 99 e6 3b 8f c7 ce bb 09 fa 7b 3d e1 08 19 39
       0.0070372983 -0.0063104103 0.06151775 0.00014594525
000090 ed 0d d2 3c e0 fd a1 3b 93 db 31 3c cd 72 cc bc
       0.025641406 0.0049435943 0.010855573 -0.024957085
0000a0 cc 29 bb bc 41 f0 2e 3d 41 cb 36 bd 62 23 6c 3c
       -0.022847079 0.042709593 -0.04462743 0.014412733
0000b0 94 a2 94 3b 57 4f df 3c c5 f9 f9 3b b4 ba e7 3c
       0.0045359824 0.027259512 0.007628652 0.02828727
0000c0 da 5f 1b 3d 27 ee 0f bd 1a 1f 30 ba a8 14 8a 3d
       0.037933208 -0.03513923 -0.00067185017 0.06742221
0000d0 00 63 3f bc 9c de 91 bc 28 38 ca bc 95 94 1a 3b
       -0.011681318 -0.017806344 -0.02468498 0.0023587097
0000e0 fb 92 24 bd db f3 88 3d 8b 48 bc 3c 2c 11 be 3b
       -0.040179234 0.06687137 0.02298381 0.005800387
0000f0 c1 07 9f 3d 82 12 60 bc 22 18 77 bc 98 7d 83 bd
       0.07765151 -0.013676288 -0.015081437 -0.064204395
000100 e6 4e 3c bd c6 67 48 bb a9 18 17 3c cf 04 88 3c
       -0.04597368 -0.0030579432 0.009222188 0.016603855
000110 3e 75 03 bc b2 2c 49 bc 33 f7 24 bd 5e 4b d8 3c
       -0.008023558 -0.012278723 -0.04027481 0.026403125
000120 d4 4b 2b 3c 25 ce b8 3b da 6d 02 bd a7 ee 2f 3c
       0.010455091 0.0056398087 -0.031843044 0.0107380515
000130 14 fa 16 3d 9d 04 d3 bb 4c fa c7 bc 24 15 62 3d
       0.036859587 -0.006439759 -0.024411343 0.055195943
000140 01 b6 89 3c d1 0c 93 bc 15 58 1e bc 76 14 91 3c
       0.016810419 -0.017950447 -0.009664555 0.017709952
000150 30 e0 1c 3b b4 1e 7c bc ed f9 bd bb 06 ba 6d bc
       0.0023937337 -0.01538818 -0.0057976157 -0.0145096835
000160 7d 4c c2 bc 1c 1e 88 3c 86 a5 52 bc 76 ff 1e 3b
       -0.023718113 0.01661592 -0.012856847 0.0024261153
000170 eb 9c 02 bd 76 0a 0b bc 29 59 47 3c cf bd f1 3c
       -0.03188793 -0.008486381 0.0121672535 0.029509453
000180 0a 48 9b bb 82 01 cf 3c 97 1f 50 bc 9c 8f 99 bb
       -0.0047388123 0.025269274 -0.012702844 -0.004686309
000190 9f 0c 27 bd 01 a7 05 ba d4 82 8a 3c 5c 74 3d 3c
       -0.04078352 -0.0005098433 0.016908087 0.011563387
0001a0 43 4c 12 3d 4c d3 9c 3b b8 cd 0b 3d 13 65 23 bd
       0.03571726 0.0047859307 0.034131736 -0.039891314
0001b0 fb 7e 01 3c eb e3 28 3c a6 ba fb 3c 2b 08 f8 bc
       0.00790381 0.010308246 0.03072865 -0.030277332
0001c0 ca b0 94 3b ff d3 4e bc 90 e1 9b bb 49 dc 17 bc
       0.0045376765 -0.012623786 -0.0047571138 -0.009268829
0001d0 c6 0b fc bc d4 c7 1b bb bb 6b 13 3c cc c5 1d bd
       -0.030767333 -0.002377023 0.008997853 -0.038518712
0001e0 9a fc cf 3c 1e b0 b0 bd 73 2a b3 3d 93 fe 8a bc
       0.025389004 -0.08627342 0.08748331 -0.016967094
0001f0 85 e5 9f bb e4 3d c2 3c 7c 02 a7 3c e3 bf 60 ba
       -0.004879656 0.023711152 0.020386927 -0.0008573515
000200 be 23 f7 bb 3a 0b b4 3c c2 8a 63 3a 24 ec bc bd
       -0.0075421026 0.02197801 0.00086800393 -0.09224728
000210 89 2a 11 bc 7f cd be 3b bf c6 2b bc ac 73 65 bd
       -0.008860239 0.005822837 -0.0104843965 -0.056018516
000220 88 c2 35 3d cf a9 8b bc 2b 40 4b 3c 65 9f f7 3c
       0.044374973 -0.017048744 0.012405436 0.030227372
000230 a6 12 b4 bd 6e 67 33 bc e1 c3 3d 3c db 35 99 3d
       -0.087926194 -0.0109499525 0.011582346 0.07480975
000240 7f be c8 3d e0 bd 59 bd 88 e3 e3 3b 7a 37 25 3d
       0.09801959 -0.053159595 0.006954614 0.04033611
000250 88 66 2d bc de 5e 10 3b 8e 0d 23 bc e4 70 c0 3a
       -0.010583527 0.0022029202 -0.009951962 0.0014682082
000260 5b b5 34 bc e5 5c 89 3b ac f1 99 bc f4 13 4e bc
       -0.011029567 0.004191982 -0.018791996 -0.012577999
000270 ff 6d 3c bd 72 0f 8b bc 7c 5e 44 ba fc 57 62 bc
       -0.046003338 -0.016975138 -0.0007490886 -0.013814922
000280 b6 23 bd bc 3a 13 e6 3c 5f 15 55 3c 4c 7a b0 3c
       -0.023088317 0.02808534 0.013005584 0.02154269
000290 b8 c6 b4 bb ca 09 e0 3c 61 42 10 3c cc ea 1a 3d
       -0.005516853 0.027348418 0.008804888 0.037821576
0002a0 97 ae f9 3c e6 ca db bb 1e 3a 16 bb 1f aa 2e bb
       0.030478759 -0.006707537 -0.0022922824 -0.0026651693
0002b0 8f 9a e8 bc da a3 6f 3c 43 0f 9b bb 6b 5a 3a 3b
       -0.028394012 0.014626468 -0.004732044 0.002843524
0002c0 e4 ae 75 bd 63 a2 1e bc d7 e8 3a 3a 97 b6 e3 3c
       -0.05998124 -0.009682271 0.0007130033 0.027797027
0002d0 31 60 50 bc 64 0c 97 bb c5 66 19 bb ab 51 c0 3c
       -0.012718246 -0.0046096314 -0.0023407203 0.023476442
0002e0 d7 4d cb 3c e1 b3 5b 3c a9 84 b7 3c bc 9c 49 3c
       0.02481739 0.013409586 0.022402124 0.012305435
0002f0 0e 0a 80 3a a2 fd b8 bc c4 8e db bc 85 6c e0 3b
       0.0009768622 -0.022581879 -0.026801474 0.006848874
000300 a6 c4 54 bb 32 75 ad 3b 2a 5e 12 3c 73 26 7b 3b
       -0.0032465844 0.005293512 0.008933583 0.0038322478
000310 be ed 93 3c 14 c1 a1 ba 4a ca df 3b 82 f0 d9 3c
       0.0180577 -0.0012340867 0.0068295347 0.02660394
000320 bd bf 99 bc 8a 0a 74 bc 55 8c 98 3c da da 10 bc
       -0.018768186 -0.014895091 0.018621603 -0.008841241
000330 3b 32 16 bc c1 9f 93 3b f9 ec 87 bc f6 0c 49 bc
       -0.009167249 0.004505128 -0.01659249 -0.012271157
000340 aa f7 4f bb 8c 80 27 3c 98 24 0d 3c 8e b8 ad bd
       -0.0031733313 0.010223519 0.008614682 -0.08482467
000350 d0 6b 2f 3d 92 6a 10 3c a3 59 df 3b 59 32 aa bc
       0.042827427 0.008814471 0.0068161055 -0.02077596
000360 dc 75 ea 3c ca 99 84 ba a5 47 4d bc 56 03 9a 3c
       0.028620653 -0.0010116633 -0.012529288 0.018800419
000370 c4 e4 92 bc b6 37 ad 3b c2 fc da 3b b5 b7 99 3b
       -0.01793135 0.0052861823 0.006682963 0.004691089
000380 2a 90 c8 3c d8 36 d6 bc c7 eb 3d 3b bf 33 7a bb
       0.024482805 -0.026149198 0.0028979646 -0.0038177816
000390 6a 5f 9e 3b ba 48 81 3b 74 4c 28 3c 75 ca 0d bb
       0.0048331516 0.0039454373 0.010272134 -0.0021635566
0003a0 42 96 61 3b c0 75 29 3c 64 45 cc 3c f8 ae 55 39
       0.0034421836 0.010343015 0.024935432 0.00020378444
0003b0 91 6c 13 bd a0 06 d5 b8 01 a7 f3 3b 6d 94 21 bc
       -0.03599221 -0.000101578655 0.00743568 -0.009862048
0003c0 fe b2 f9 3c ec 0c 92 bc 81 3c 4c bc 1e 14 78 3c
       0.030480858 -0.017828427 -0.012465597 0.015141515
0003d0 7c e6 c9 3b f2 40 e9 bb 03 5d 87 ba 90 7b b0 bc
       0.006161509 -0.007118338 -0.0010327402 -0.021543294
0003e0 55 87 23 3c 25 f1 50 3b 27 7e 5f bc 96 3b b4 3c
       0.009980996 0.0031882015 -0.013640917 0.022001069
0003f0 49 f1 9c bc 7c a2 75 3a d9 80 93 3c 9a f7 0e 3d
       -0.019158022 0.00093702204 0.018005775 0.0349041

encoder.mean_layer.bias f4 [35]
000000 ca 7b 05 bb a6 fe 14 bd 7a 7e ad 3a 39 f6 81 3d
       -0.0020367973 -0.036375664 0.0013236545 0.06345791
000010 53 27 89 ba e5 72 4f bb 91 92 17 bd ae 66 0e 3b
       -0.001046399 -0.0031654176 -0.03700501 0.0021728682
000020 e8 e6 f8 3c 21 de 21 3c c3 69 0b bd 9f 5a 98 bd
       0.030383542 0.00987962 -0.03403641 -0.074391596
000030 c5 1a 1b 3d 36 00 6f 3b 0c 3c 1c bd 28 9b 1b bd
       0.037867326 0.0036468632 -0.038143203 -0.037989765
000040 a2 55 d2 bb d2 cc ac bb e3 f7 37 3c 7b e7 32 bd
       -0.0064188996 -0.00527344 0.011228534 -0.04367779
000050 a8 83 6d bc 4a 01 51 bc 6b 12 13 3d 8e 56 e1 3d
       -0.014496721 -0.012756655 0.035906237 0.11002837
000060 9e 14 1a bd 40 fd ce 3c 58 9c 20 3c f6 93 22 3c
       -0.03761732 0.025267243 0.0098029 0.009922972
000070 02 01 55 3c 58 d2 d5 bc 2e b1 82 bc c9 8b 23 bd
       0.013000729 -0.026101276 -0.015953626 -0.03992823
000080 db bb 01 3b 81 0f 1c 3c c3 d0 00 bd
       0.0019795808 0.009525181 -0.03144909

encoder.log_var_layer.weight f4 [35, 40]
000000 3b 5a d4 bb 91 83 ef bb 9b c8 b4 3a 28 5b 26 bc
       -0.006480483 -0.007309385 0.0013792695 -0.010153569
000010 4a 26 c2 ba 66 9c 22 3c e4 72 08 3c 92 03 8b 3b
       -0.0014812436 0.009924984 0.008328173 0.004242369
000020 a2 56 1a bb 9f 88 c9 3b bc 68 3c ba a4 82 7a bc
       -0.0023550172 0.0061503197 -0.00071872375 -0.015289936
000030 48 95 c6 3b 57 96 9e bb fe 35 6d 3b fb 5e 3b 3b
       0.006060276 -0.0048396992 0.0036195512 0.0028590548
000040 c0 1b 89 3c 0c 89 19 bc 48 f9 14 b9 a0 60 6b 38
       0.016736865 -0.009371053 -0.00014207244 5.6118355e-05
000050 a0 ea ac b9 7e 91 31 3b d9 d6 cb 39 ff 38 1d 3c
       -0.00032981206 0.0027094777 0.0003887925 0.009596108
000060 44 21 08 bb bb 26 0b bc 58 37 05 bc ab 05 4c 39
       -0.002077178 -0.008493121 -0.008130871 0.00019457068
000070 1d 90 f8 3b 62 9b 11 3c 6c 3e 9c bb be fe 98 3b
       0.007585539 0.008887144 -0.0047681835 0.0046690395
000080 bd 04 31 3c ef f3 59 3c d5 82 19 3a d8 d9 53 39
       0.010804352 0.013302787 0.00058559823 0.00020203681
000090 98 7e 8e bb fc 06 10 bc 04 21 52 3b 22 e4 b0 39
       -0.0043485872 -0.008790728 0.0032063136 0.00033739308
0000a0 14 25 12 ba b9 c7 24 bc d6 32 94 3b 5f c9 44 bc
       -0.0005574983 -0.010057383 0.0045226617 -0.012010901
0000b0 23 17 e6 3b 24 55 e2 ba 01 58 b7 3c d1 85 5c bb
       0.007021801 -0.0017267806 0.02238083 -0.0033649097
0000c0 90 f1 81 bc dd af a3 3c 6b ee b8 bb a0 37 15 ba
       -0.015862256 0.01998132 -0.005643656 -0.00056921877
0000d0 b1 df 9c bc aa 1e 07 3c d6 40 8c 3c 73 e6 81 bb
       -0.019149633 0.008247057 0.01712076 -0.0039642393
0000e0 7c 52 0b 39 0f a6 44 bb 4e b8 ab bb 3a 32 63 bc
       0.00013286801 -0.0030006205 -0.0052404767 -0.013866955
0000f0 71 f1 ff 3b 1e 39 94 bb 89 81 a5 3b bd 97 bb 3c
       0.0078107645 -0.0045234105 0.005050842 0.022899503
000100 37 54 81 3c 0f 07 ae bb f2 e6 16 3c 0a 03 36 3c
       0.015787227 -0.0053109 0.009210335 0.011109123
000110 44 5d 16 bc bc 34 da b9 b1 05 aa bc 45 69 46 3c
       -0.00917751 -0.0004161949 -0.020754667 0.012110059
000120 59 ba e8 bb 5e ee b9 3c 80 be ff b8 37 4c c0 ba
       -0.0071022925 0.02269667 -0.00012194831 -0.0014671151
000130 a4 53 2e 3b ac 7a 28 bc d2 00 91 3a ae 53 01 bb
       0.0026600147 -0.0102831535 0.0011062867 -0.0019733715
000140 0d 5f db 3b 09 02 c8 bc 51 7b 1a bc a2 c5 7b 3c
       0.0066946805 -0.024415033 -0.009428815 0.015366944
000150 69 2a 2a 3b 42 5c 0c bb 2d d0 4e bb 70 41 00 bd
       0.002596522 -0.0021417295 -0.0031557188 -0.031312406
000160 73 82 74 bb 19 8c 89 ba ea 4a 57 3b b3 6e 1a bb
       -0.00373092 -0.0010494023 0.0032851049 -0.0023564517
000170 d7 66 3c bc 6b 23 61 bc 5b b5 e6 3b 98 4d 81 3c
       -0.011499128 -0.013741354 0.007040662 0.01578407
000180 c7 c9 86 bc 10 d5 3b 38 27 33 a6 bc 86 9e 00 3c
       -0.016453637 4.4782704e-05 -0.020288063 0.007850295
000190 25 fc 37 b9 2a 2c 89 3c 03 6a 41 3b df 73 3f 3c
       -0.00017546171 0.016744692 0.002951265 0.011685341
0001a0 04 51 c4 bb c0 56 4c 3c 1c ab 86 bc 2a d7 ba 3a
       -0.005991103 0.012471855 -0.016439013 0.0014254798
0001b0 eb d9 e7 3b b6 05 f8 3b a9 ac 23 3c cc 24 c0 bb
       0.0070755384 0.00756904 0.009989896 -0.0058637615
0001c0 90 81 a6 3b 5e 9d 3c 3c 59 62 1b bc a5 f9 d5 3b
       0.005081363 0.011512129 -0.009483897 0.006530004
0001d0 bc 27 74 bc 60 22 ac bb dc 93 ba ba aa 71 c6 bb
       -0.014902052 -0.0052531213 -0.0014234739 -0.0060560303
0001e0 e7 bb 28 bc e2 16 23 3c 34 6e 6c 3c cc 42 81 bb
       -0.010298706 0.009954186 0.014430571 -0.0039447304
0001f0 f4 b2 19 3c 58 ca 14 3b b1 89 27 bb 25 0c d7 bb
       0.009381045 0.0022703614 -0.0025564248 -0.006562727
000200 f2 8a 67 bc 4f 8d 06 bc bc d9 37 bb 09 f7 9c 3c
       -0.014132248 -0.0082124015 -0.0028053364 0.019160764
000210 62 37 08 3c 4c 89 45 3b a7 4f 42 3c f4 20 a2 bb
       0.008313986 0.003014165 0.011859811 -0.004947776
000220 be 4e 8d bc c3 cc 4e bb a6 a2 1b 3a 8d 3e 5f ba
       -0.017249461 -0.0031555153 0.0005937017 -0.00085160957
000230 30 c2 a4 bb 80 97 90 3b f8 f8 87 bc 58 b5 4c 3c
       -0.0050280318 0.0044125915 -0.01659821 0.012494408
000240 ed 6b 46 bc 09 60 66 bc 62 12 d3 3b 34 8e c7 bb
       -0.012110692 -0.0140609825 0.0064414004 -0.00608995
000250 ce ed 05 bc 3f a5 01 bc b6 18 08 3c c5 3b 0e bc
       -0.008174373 -0.007912933 0.008306673 -0.008681242
000260 52 bb 3d 3c 3b 71 66 bc 0f cd a7 3b b1 ba 0e 3b
       0.011580305 -0.014065082 0.0051208804 0.0021778757
000270 ea ed b2 bb f4 d3 b8 3b 4d 80 2b bb 47 6e 42 bb
       -0.0054604905 0.005640501 -0.0026169003 -0.0029667781
000280 2e 07 74 3c 35 3d 7d bc a1 16 a7 bb d1 c9 5c 3b
       0.01489429 -0.015456487 -0.005099133 0.0033689628
000290 98 88 2e 3c 09 ae f1 bb d8 02 71 bc 68 a0 5e 3a
       0.010652684 -0.007375483 -0.014710151 0.00084925303
0002a0 de c0 23 bc 1b 34 b8 3b 41 8a 9a 3c 4e b2 59 3c
       -0.009994714 0.005621446 0.018864753 0.01328714
0002b0 e4 86 85 3c 8c 5e 3b 3b 80 46 6e b7 cf 46 40 3c
       0.016299672 0.002859029 -1.420232e-05 0.011735632
0002c0 c4 d7 94 3c 66 a8 36 3b 91 4f c1 bb 89 8b ec 3c
       0.018169291 0.002787137 -0.0058993776 0.02887513
0002d0 0e fb 38 3c 38 d9 68 bc 99 f8 7a 3c b3 08 c5 ba
       0.011290325 -0.014211945 0.015318059 -0.00150325
0002e0 5a 85 cd bb 2f b1 9e 3a 71 23 10 3c 9b bc b1 3b
       -0.0062720003 0.0012107248 0.008797512 0.005424095
0002f0 64 fc d8 3b 9d b5 af bb 58 49 b6 bb 4f 21 30 bc
       0.006621884 -0.005362226 -0.0055629425 -0.010750129
000300 13 c7 2f 3c 5e 9a f8 bb 0a 8e d2 3b 2d db 62 39
       0.010728615 -0.0075867614 0.006425624 0.00021634689
000310 58 01 1f 3b a5 ce d3 bb 52 be 30 bc a1 8b 93 3c
       0.0024262276 -0.006463843 -0.010787563 0.018010916
000320 d8 55 ea 3b 76 56 23 3b 31 33 5e 3b 47 93 6d 3c
       0.0071513467 0.002492336 0.0033905024 0.014500446
000330 68 30 cb 3b 44 8d 54 3c 91 0f c2 3b cf 4c e0 3b
       0.006200839 0.0129731335 0.005922266 0.006845094
000340 f0 e2 3a bc 41 f4 05 3b 52 0d 13 3c c5 ee 70 bb
       -0.011406645 0.0020439776 0.008975344 -0.0036763411
000350 cc d9 c7 3a 9c e7 19 3c 97 ec b0 bb 5f 3b 08 3c
       0.0015247404 0.009393599 -0.0053992975 0.008314936
000360 54 8e 3e bc a6 6f 2a ba a8 4f 94 3a ef f4 25 bc
       -0.011630613 -0.0006501622 0.0011315243 -0.0101291975
000370 3a 69 81 bb 4a ec 24 bb 77 8e ec bb 3b aa a3 3a
       -0.0039493116 -0.0025165253 -0.0072191316 0.0012486646
000380 75 b9 d8 bb c6 ab 24 3c f0 79 8f ba 68 f0 3e bc
       -0.006613905 0.01005072 -0.0010946374 -0.011653997
000390 e9 87 ec 3b b6 8e 15 bc 49 00 f9 3b c7 63 3b 3b
       0.00721835 -0.009128263 0.007598911 0.0028593407
0003a0 46 89 7f 3a eb 4a 8c bc 98 2f 55 bc 5c 7e 81 bb
       0.00097479334 -0.017125567 -0.0130118355 -0.003951831
0003b0 b2 f8 9b 3c 0a 47 3b bc be 20 b1 bb 0f 0e 7e 3b
       0.019039486 -0.011430511 -0.0054055145 0.0038765704
0003c0 3d 24 1b bb 87 45 54 3c 51 66 11 3a 22 8b 8d 3b
       -0.0023672723 0.01295603 0.00055465574 0.0043195644
0003d0 da 44 72 3c 28 6d a2 3b 36 c8 37 3c f0 f0 52 bc
       0.014786923 0.00495686 0.011217168 -0.012874827
0003e0 63 e1 24 3c a8 ee 88 ba bc af 3c 3b 54 f1 d9 bc
       0.010063502 -0.0010447102 0.002879127 -0.026604332
0003f0 28 12 9f 3b 50 d5 ad 3b 1f 10 b1 bb a8 e5 5d 3b
       0.0048544593 0.00530497 -0.005403533 0.003385881

encoder.log_var_layer.bias f4 [35]
000000 14 d1 cd bc 49 21 80 bd cf a7 9e bd 97 fd 54 bd
       -0.02512411 -0.06256349 -0.07746851 -0.051999655
000010 17 6e 85 bd fc 3a 02 bd 10 0b 65 bd 6c 29 95 bc
       -0.065151386 -0.031794533 -0.055918753 -0.018208228
000020 24 0a 8f bd c8 19 2d bd 9f 32 2a bf 0c 6c bd bd
       -0.06984356 -0.042260915 -0.6648349 -0.09249124
000030 1d 06 c6 bd 89 de f8 bc 86 4e e3 bd 58 ef 56 bd
       -0.09669135 -0.03037955 -0.110989615 -0.05247435
000040 89 74 8a bd 8c af c9 bc 40 2e 8a bd b7 bc c1 bd
       -0.067605086 -0.02461984 -0.06747103 -0.094598226
000050 bd 22 6e bd 28 07 1b bd 54 ff 9f bd 0b a1 f4 be
       -0.058138598 -0.03784862 -0.07812372 -0.47779116
000060 53 77 b0 bd 57 48 03 bd 30 e8 d5 bc 1f 17 39 bd
       -0.08616509 -0.03205141 -0.026111692 -0.045188066
000070 a9 ec b9 bd 63 5d 7c bd 4e 41 64 bd 9d 35 e4 bd
       -0.090783425 -0.061612498 -0.055726342 -0.111430384
000080 85 e5 17 bd 48 26 ac bd ce 03 53 bd
       -0.03708412 -0.08405739 -0.0515173

decoder.linear_layer.weight f4 [440, 35]
000000 97 5e 75 3c 1e ea 7b 3e d4 b3 6c 3d 3f 6c 1a be
       0.014976165 0.24601027 0.057788685 -0.15080355
000010 64 3d 6c 3e 9c 00 ec bd 4b 71 b2 bd 1f ed 6e bc
       0.23070294 -0.11523554 -0.08713015 -0.014582901
000020 50 1e b7 bc 4e 37 23 3b 76 af da bd ec 9e 4c 3d
       -0.022353321 0.002490479 -0.10677998 0.049956247
000030 4e 07 42 3e 75 bb 11 3e 8d 63 13 be bd da 19 be
       0.18948099 0.14231665 -0.14393444 -0.15024848
000040 85 0e 1a 3e 4b 14 a2 bd 6d 0f 66 bd 52 4d 0c 3e
       0.15044601 -0.07914027 -0.056167055 0.1370137
000050 88 e7 48 3d 41 76 f8 3c 43 21 a6 bc 40 37 ed 3d
       0.04904893 0.030329825 -0.020279532 0.11582804
000060 84 2b 33 be 72 99 7d bd dc 71 c9 bb a6 08 b1 bc
       -0.17497069 -0.061913915 -0.0061476063 -0.02161057
000070 98 2c 21 be 03 0d e9 3d 1f f6 15 3e c5 a0 26 be
       -0.15739667 0.11379435 0.14644669 -0.16272266
000080 0d 1c a1 3c 58 48 a5 3d 1c 03 73 3d c9 cb 1b be
       0.019666696 0.08070439 0.059329137 -0.15214457
000090 17 a2 ac bc 97 7b d5 3d 89 5e 87 3c 85 00 93 bd
       -0.021073384 0.104239635 0.01652457 -0.071778335
0000a0 8f 6c 99 bd e8 8c 9f 3d 88 38 5d 3d 4e 65 84 3d
       -0.07491409 0.077905476 0.05400899 0.06464635
0000b0 0d 0d e7 bd 6e af ae 3c 57 9e db bd 88 8d 81 bd
       -0.11281786 0.021323886 -0.1072356 -0.06325823
0000c0 5e 49 06 bd 4f 5a 07 3c 2e 16 b5 3d 85 01 cd bd
       -0.032784812 0.008261277 0.08842121 -0.100100555
0000d0 19 ce d2 bc c4 1e 8e 3c ab 7a f6 bd e1 a8 9e 3d
       -0.02573304 0.017348655 -0.12035116 0.07747055
0000e0 f4 62 33 be 63 14 09 3d 8b dc bd 3e d3 4e 09 3d
       -0.17518216 0.033466708 0.37082323 0.03352244
0000f0 7e 42 10 3e bb 4c 65 3c fb aa 44 3d 61 1d fe bd
       0.14087865 0.013995345 0.048014622 -0.12407947
000100 e4 53 fd 3c bd fa 55 bd 0f cf 95 3d de e7 ad bd
       0.030923791 -0.052241076 0.07314884 -0.08491491
000110 37 38 42 bd 8a 52 86 bb fa 67 56 3e 27 8b 05 3e
       -0.047416892 -0.004099195 0.20938101 0.13041364
000120 21 73 92 bd 56 e7 9d bd 37 67 d6 3d 5c 8a 99 bd
       -0.07150865 -0.077101395 0.104689054 -0.07497093
000130 3e 9f d4 3c 67 cc 43 3d 87 40 0d be 77 e7 ea 3d
       0.025954839 0.047802355 -0.13794146 0.1146993
000140 80 c2 6d 3d 7a df 2b 3d c7 88 b9 bd ec a7 a8 3d
       0.058046818 0.04196117 -0.09059291 0.082351536
000150 8a d3 ce 3c 6e 82 a1 bd 3c 0a f8 3d f8 16 97 3d
       0.025247354 -0.078862056 0.12111327 0.07377428
000160 7e 0d b3 bd 13 23 19 be 9b 7e 8f bc 57 8b 75 ba
       -0.08742808 -0.14954786 -0.017516425 -0.00093667716
000170 bc 44 64 3d be 96 8f 3d e4 a2 05 be 11 35 83 3b
       0.055729613 0.07011174 -0.13050419 0.0040041287
000180 9b e5 9f 3d 28 b8 f1 bb 4c 7c ac bd ec 48 0e 3e
       0.07807466 -0.0073766895 -0.08422145 0.13895005
000190 cc 68 2c bc 70 2e 3f bd da 1a 81 bd ac a4 09 be
       -0.010523032 -0.046675146 -0.0630395 -0.13441724
0001a0 f2 4b 75 bc 05 d8 3a 3d 6a 6c e1 3b 1d 25 a9 3c
       -0.01497172 0.04561617 0.006879379 0.02064758
0001b0 dd 98 40 bc 78 a5 3e bd aa 79 aa 3d 14 5e dc bd
       -0.011755195 -0.046544522 0.08323987 -0.107601315
0001c0 b0 dc 14 bc 8b 50 87 bd 82 df 87 bd 48 9a a4 3d
       -0.009085819 -0.06607159 -0.066344276 0.08037239
0001d0 28 6f 05 bc 41 c4 51 3d 56 b2 79 3d 23 91 4b bd
       -0.0081441775 0.051212553 0.06096109 -0.04969896
0001e0 d5 05 8d 3b 95 7e c5 bd b4 4d db 3c a3 f7 ca 3d
       0.0043036737 -0.09643284 0.02677045 0.09910514
0001f0 73 55 96 3d 71 67 d5 bd 53 68 e4 bb 9e 13 10 3d
       0.07340517 -0.104201205 -0.006970444 0.03517496
000200 1a a7 00 3c 73 e8 63 bd b8 1e 17 bc 8f c6 83 3d
       0.00785234 -0.055641603 -0.0092236325 0.064343564
000210 fb e4 ec 3d b1 a0 2f bd 32 98 39 3c 19 92 69 3d
       0.11567112 -0.042877857 0.01132779 0.057024095
000220 64 59 0a 3e 13 0d c2 bd e1 6f b2 3d 1f 35 ab 3d
       0.13510662 -0.0947515 0.087127455 0.083597414
000230 d4 41 aa 3d e6 9f ad bc d1 98 05 be cc 8f 91 3d
       0.08313337 -0.02119441 -0.13046576 0.07107505
000240 c3 bb c8 3d 86 83 80 3d 5c ba e2 bd 89 85 60 bd
       0.09801438 0.06275086 -0.110707015 -0.05481485
000250 4b d5 24 bd 9b 5b 06 3d 28 ed c0 be 8f 6a 1b 3c
       -0.040242475 0.032802206 -0.37680936 0.009485855
000260 0b 8c 16 3d 96 0f 35 3d 82 22 a1 3d d4 7e 5f 3d
       0.03675465 0.044204317 0.0786791 0.054564312
000270 d6 26 60 3d e9 fe d7 3d 47 f0 0e bc 24 9a 92 bc
       0.054724537 0.10546667 -0.008724279 -0.017895766
000280 7a 9f 56 3d 6e 80 06 be aa b2 3b 3b ed 9f 9a be
       0.052398182 -0.1313493 0.0028640428 -0.3020014
000290 e1 40 dc bd eb fe 9a 3d c0 4b 63 3d 43 09 e1 bd
       -0.10754562 0.07568153 0.055492163 -0.10988095
0002a0 c0 12 e1 bd 7a 2e d8 3c 53 7d 73 bd 6b 86 ef bd
       -0.109899044 0.02638935 -0.05944569 -0.1169556
0002b0 73 ca 09 3d bb 15 a3 bd ce b2 00 3e d6 4b be bd
       0.033640336 -0.07963129 0.12568209 -0.09291808
0002c0 ed ed ee bc 19 10 28 3d 49 2d 1a 3e 87 49 41 bd
       -0.029166186 0.041030977 0.15056337 -0.04718926
0002d0 c6 da 86 bc be 19 0b be eb db 86 3d ec ac 3e 3c
       -0.016461741 -0.13584039 0.06584915 0.0116379075
0002e0 c1 22 a1 3c 85 d7 6a be 80 60 59 3e 40 be 20 3d
       0.019669892 -0.22933777 0.21228218 0.039243937
0002f0 80 36 1d be 49 e9 f9 3d 8d 78 b2 3d 04 ab 47 bb
       -0.15352821 0.12202699 0.087143995 -0.0030466923
000300 31 c4 02 3e 0b 05 4f 3d d8 b2 0f be 9f 73 cd bc
       0.12770154 0.05054192 -0.14033067 -0.025079546
000310 98 d0 03 3e 7e e2 5f 3d ca 4c 2c 3e 14 b5 94 3d
       0.12872541 0.05465936 0.16826168 0.072611004
000320 3c bb a0 b9 c2 3a 2a be 39 2b 6a 3d 28 d6 1e bd
       -0.0003065708 -0.16623977 0.057170127 -0.038778454
000330 31 4d e9 3d f6 ce b8 3d 27 1f c8 3c 5d eb e4 bd
       0.11391676 0.0902385 0.024428917 -0.111777045
000340 24 7a fc bc 73 e0 3f be c0 2c 96 bd f1 52 85 3d
       -0.03081996 -0.18737964 -0.07332754 0.065099604
000350 c2 ee 20 be 9f 1d cf 3d f5 8f 60 3d 21 d2 ed 3d
       -0.15716079 0.10113072 0.054824788 0.116123445
000360 71 ff a1 bd 5d b7 0d bb ec 6d 47 bd b9 13 91 bb
       -0.0791005 -0.0021624186 -0.048688814 -0.0044274
000370 29 f3 d4 be a4 43 a9 3b ca b7 b0 bd b7 cf 44 3c
       -0.41591766 0.005165534 -0.08628805 0.012012414
000380 6b d2 82 3c b1 c0 a1 bd 4d 57 a9 bd ef 43 8b bd
       0.015969476 -0.07898081 -0.082686044 -0.06800067
000390 47 ec 2c bd 0d f9 95 bc 07 3f 85 3d ab 10 cf 3d
       -0.04221752 -0.018307233 0.06506162 0.10110601
0003a0 9f 35 13 3d 1d de 8e 3e 67 52 0b 3e c6 f1 d6 3d
       0.03593981 0.27903834 0.13605653 0.104953334
0003b0 8e 53 a6 3d 05 8b 0e 3e 5e d7 18 3c 7f 3d 2f bc
       0.081214055 0.13920219 0.009328691 -0.010695814
0003c0 13 79 2b 3d 83 b1 31 3e 79 74 7b bd 67 f7 32 bd
       0.041863512 0.17352872 -0.061390374 -0.043692973
0003d0 b4 97 71 3d 06 2b c7 bd 06 0f 64 be ed d8 d8 3d
       0.058982566 -0.09725003 -0.22271356 0.1058825
0003e0 bb 45 2f be fa 54 9c 3d 49 81 0c be 12 3a d8 3d
       -0.17116444 0.076333955 -0.13721193 0.10557951
0003f0 ee b1 68 3c 6a c6 86 bc f5 78 9b 3d e4 59 57 3c
       0.014202578 -0.016452033 0.0759143 0.01314399
