models/male_forenames.pth (torch, 424874 bytes, 14 tensors)

encoder.input_layer.weight f4 [100, 11]
00000000: b468 79bd f14d f3bc fc22 8e3c e8ce 1dbe
00000010: 9b46 2ebc 1f78 093e d7f9 0e3d 20d4 83be
00000020: 5f1f 553e 9fa0 8bbe 7424 313e 8940 53be
00000030: e914 943d 7b53 44bd 33d2 1f3e 77f6 2d3e
00000040: 41c1 55bc 6070 43bb 84ec f0bc 14ea 163e
00000050: 1c54 4cbe 6854 523c f921 ccbd fc8e e13c
00000060: f269 943d 74ba 39bd dd3b f23d 541a c1bb
00000070: f685 7f3b e0e2 90bd 0a5b 073c 28cb 3f3e
00000080: 128c e5bd d625 c13d 378b 0abe ee31 41be
00000090: f1d1 8b3d 5a55 673e 25a9 f4bd c62e 5bbd
000000a0: 5c08 f8bc d8ca 34be d0b9 533e 3a7f b7bd
000000b0: e5c8 88be 85e0 193e c136 fabd 4c5b 8a3d
000000c0: 8354 263e 19c8 d3bd fcc4 1d3e a51d 093e
000000d0: d302 80be 2637 623e 7c01 3fbb 1fa0 8dbe
000000e0: 2b52 023e 3ba2 38be 8cc4 333e b7e8 6b3c
000000f0: 23d4 163e 0f40 21be 9d80 4fbc c641 323e
00000100: a376 0e3c dc0d f9bc 536a a43d 8a93 463e
00000110: 8d52 92be f896 6a3b 0a47 49be cdba 67be
00000120: b597 9abd 8d40 933e a6b9 2f3e b440 73be
00000130: 28c7 d83d b6c6 773b eb9a dabd 2f1d 04be
00000140: f45c f93d 545e 843d ad4e 24bd d9a5 873b
00000150: e2be 6e3c aa71 813d 354f f2bd bcb7 513e
00000160: 9039 4d3d 2c9e 36bd dd58 0abd 23cf 223e
00000170: 0ab8 f0bd a9f6 b3bd 2d5e eabc b3d7 1ebe
00000180: e95b ff3d 31b9 10be 03f2 3bbd 702f ebbd
00000190: b104 62bd 8fa9 1dbd bc5f ac3d 28d4 e9bb
000001a0: e450 e63d 81e6 f5ba 879b 563d 371e 86bd
000001b0: dfac 993d 386a 78be ce0c 21be 858f 63be
000001c0: 09d2 3bbe 988f c23d 5942 463e 3631 3abd
000001d0: 631e 71be 3b1a 8c3c 3a81 e9bd 09b8 9b3e
000001e0: ccd6 c7bc 2ab6 36be 93c0 053e 9459 453e
000001f0: 4ffc 6fbe 3bac d33c ebfa 1abe 955f 8e3d
00000200: d48f 96be 8c57 8cbe 763f 2c3d 1942 07be
00000210: cfe9 2fbe 8752 d63d 0bf8 16be 5ede ab3c
00000220: 39e8 2b3e f11a 65be fcc2 613e 5467 8fbe
00000230: 44c8 933e 03d2 b03d 1c97 1dbd b35f ccbc
00000240: 91de afba a7a3 1bbd b0d9 243e ada5 013d
00000250: f75c 05be 9156 85bd 2f3f b1bb 1a5e 1abd
00000260: d865 a2bd 4a4d 79be aa05 b03c 87d6 b83b
00000270: 8baf a93d f777 a23c e945 1fbe e3b9 083e
00000280: 6ef3 bbbd 887e fdbc c60b b0bd b89b 233e
00000290: 407e 76be f0c8 203d d44b 6c3d 1e26 dfbc
000002a0: bb64 37be 0e3d 07bd 4ee1 063e c718 a33c
000002b0: f47a db3d 9dfb 35be 3cec 373e c493 873e
000002c0: 6176 b3bd 80b0 533e 2ff7 55be e45d 0a3e
000002d0: e12d 83bd 32a9 3f3e a181 5dbe 995f c73d
000002e0: 8f82 cb3d 303d aa3c a05a 1abe 0802 afbb
000002f0: e453 12be 8161 203e 2293 22be b11b aabd
00000300: 217f 1f3e d475 9abc d92e 6bbd 3d53 0abe
00000310: e557 77be a0a5 d6bd c0ce c63d 6529 f23d
00000320: 2056 62be 3c1a 63bc cc2c 68bc 8eca db3d
00000330: 1df8 d93b 0eea 9abd 5a18 9e3c 6f6e 063e
00000340: ec87 b13d bcd8 2b3e dd24 3b3d 0db2 21be
00000350: 2c2e 443e a822 75be f789 053e e182 a1bd
00000360: 1607 13bd 22e4 b3bd 76c5 07bd 4426 873e
00000370: 59fd 1dbe b1cc d33d 0716 ab3c 7b9b c03d
00000380: 24cd 46bc a0e1 da3b 8d41 dd3d 55d5 93bd
00000390: 2f12 32be f59e de3c bc26 c9bb cc3c 083d
000003a0: d16c 873c 5a34 90bd 7917 2d3d 4543 f23d
000003b0: 1c00 09be 730e c53b 811b 00bd 950c d7bd
000003c0: 9520 00be f28b 88be 82f2 a3bd dc50 84bc
000003d0: 2f7f 2e3e 7169 0c3e 7b7d 9fbd 2a8a 04bd
000003e0: 8d47 e5bb dd51 5fbd e70b acbd 5176 bcbd
000003f0: 72d8 343e aa83 13be bbb4 f43d ddca 593d
-0.06089087 -0.029700251 0.017350666 -0.1541096 -0.010636951 0.13424729 0.034906235 -0.25747776
0.20812748 -0.27270982 0.17299062 -0.20630087 0.07230551 -0.047931176 0.15607528 0.1698855
-0.013046564 -0.002982162 -0.029409654 0.14737731 -0.1995396 0.012837507 -0.09967417 0.027534
0.0724677 -0.04534383 0.11827824 -0.005893031 0.003898976 -0.07074523 0.0082614515 0.18729842
-0.11208357 0.09431045 -0.13529669 -0.18866703 0.068271525 0.22591153 -0.11946324 -0.053511404
-0.030277424 -0.17655504 0.2067635 -0.089598134 -0.2671577 0.15027054 -0.12217475 0.06755695
0.16243176 -0.103409 0.15407175 0.13390215 -0.25002155 0.2209135 -0.0029145172 -0.27661225
0.12726657 -0.18030636 0.17555445 0.014398745 0.14729361 -0.15747093 -0.012664941 0.17407903
0.008695277 -0.030402116 0.08028092 0.19392219 -0.28578606 0.003579555 -0.19656006 -0.22629853
-0.07548467 0.28760186 0.17160663 -0.23755151 0.10584861 0.003780765 -0.106740795 -0.12901758
0.121759325 0.06463304 -0.040114094 0.0041396436 0.014571877 0.06320508 -0.11831514 0.20480245
0.050103724 -0.04458444 -0.033776153 0.15899329 -0.11753853 -0.08787281 -0.02860936 -0.1551197
0.12468702 -0.14133145 -0.045885097 -0.11483657 -0.055180255 -0.03849178 0.084166974 -0.0071358867
0.112458974 -0.0018760712 0.052394416 -0.06548732 0.07503676 -0.24259269 -0.15727541 -0.22222717
-0.18341841 0.095000446 0.19361247 -0.045457087 -0.23546748 0.017102351 -0.11401601 0.30413845
-0.024394415 -0.17842928 0.13061742 0.19272453 -0.23436092 0.025838962 -0.1513478 0.069518246
-0.29406607 -0.27410543 0.04205271 -0.13208808 -0.17179035 0.104649596 -0.14743058 0.020980056
0.16787805 -0.22373559 0.22047037 -0.2800852 0.28863728 0.086338066 -0.038474187 -0.024947977
-0.001341777 -0.037997868 0.16098666 0.03165214 -0.13023745 -0.06510652 -0.0054091434 -0.0376874
-0.079295814 -0.2434589 0.021487076 0.005640808 0.08285435 0.019832594 -0.15554012 0.1335216
-0.0917729 -0.030944124 -0.085959956 0.1597737 -0.24071598 0.03925413 0.057689503 -0.027239855
-0.1790952 -0.03301721 0.13171884 0.019909276 0.10716811 -0.17771764 0.1796121 0.26479924
-0.08762813 0.20672798 -0.20895074 0.13512379 -0.06405235 0.18716887 -0.21631481 0.09735031
0.099370115 0.02078113 -0.15073633 -0.0053408183 -0.14289814 0.15662195 -0.15876439 -0.08306063
0.1557584 -0.018855013 -0.057417724 -0.13508315 -0.24154623 -0.10480809 0.09707403 0.11824302
-0.22103167 -0.013861235 -0.014170837 0.107319936 0.006651892 -0.07564174 0.019298721 0.13128065
0.08668503 0.16781896 0.045689452 -0.15790577 0.19158238 -0.23939002 0.1304091 -0.07886291
-0.03589543 -0.08783747 -0.033147298 0.26396382 -0.15428676 0.10341776 0.020884527 0.094046555
-0.01213387 0.0066797286 0.108035184 -0.07218424 -0.17389749 0.027175406 -0.0061386507 0.033261105
0.01653138 -0.07041235 0.042258713 0.11829237 -0.13378948 0.0060136854 -0.03127623 -0.10500447
-0.12512429 -0.2666927 -0.08005239 -0.016151838 0.17040704 0.13712098 -0.077876054 -0.032358326
-0.006997055 -0.05452143 -0.08400708 -0.092022546 0.17660692 -0.14405695 0.11948534 0.05317198

encoder.input_layer.bias f4 [100]
00000000: d540 283e 1982 67be 0bb3 18be e89e 5cbe
00000010: 06f1 053e 1aa4 eebd a2df 8ebe 4657 8bbd
00000020: e9e4 1abd cece 3b3e 2678 a53e 5c85 73bd
00000030: 771b 273e b343 253d 5990 8cbd 2946 7bbe
00000040: 20ce 07be 2b34 7a3e cd10 9b3d 42f7 d03d
00000050: 7d69 c73d 0d1f 933c 55f3 32be dbaa a4be
00000060: dd14 52be 56d3 0fbe e1f2 37bd 5732 823e
00000070: a7ea b63e 19ee 06bc a1da 153d 777f 8ebe
00000080: fffa 01be b660 1abd 2f0c a43e 61f7 33be
00000090: 48c4 52be e7c6 07be 4ed9 ec3d 6ee7 40be
000000a0: 733c 4e3e 57f5 8abe 59bd 463c 5411 723e
000000b0: f7ad 023e b902 ddbd bc37 333e fbeb 93be
000000c0: 900d 65be e2d5 e1bd 0edd 7fbe c15f 16be
000000d0: 9d25 6cbe a923 15bd 2ac1 203e 7ce7 73be
000000e0: fe78 813e da69 fbbd 9a84 67be b648 443d
000000f0: 7900 67be 7d22 5b3e 049e fb3d c18c 103e
00000100: 9bf8 803e c417 c5bd d137 d5bc 7cd2 5a3d
00000110: f016 93be d6bc c6bd 1e5f 9539 e062 a5bd
00000120: 5d9f 17bb b6d4 823e d381 bc3c b2d6 6cbe
00000130: b01f 2b3e 921b 263e 7a78 f0bd cd65 46be
00000140: 5687 a1bd 8806 db3d 0079 05be 044f a0be
00000150: b16c 96bd e753 adbb 9f23 d5bc 83f9 113e
00000160: b002 85be 761e 58be e405 aabd 04a0 bbbc
00000170: 555d e0ba 0775 8abe 4042 e4bc 6ae5 32be
00000180: 1eb0 50be 24a0 3c3d 3b24 7ebe 2cec 493d
0.16430981 -0.22608222 -0.1491205 -0.21544993 0.13080224 -0.11652394 -0.27904993 -0.068037555
-0.037815962 0.18340608 0.32318228 -0.059453353 0.16319071 0.040347766 -0.0686347 -0.24538483
-0.13262224 0.24433963 0.07571564 0.10203411 0.09736917 0.017959142 -0.17475636 -0.32161602
-0.20515771 -0.14045462 -0.04490936 0.2542903 0.357259 -0.008235478 0.036585454 -0.27831623
-0.12693404 -0.037689887 0.32040545 -0.17574836 -0.20582688 -0.13259469 0.11564885 -0.18838283
0.20140247 -0.27140304 0.012130105 0.23639423 0.12761675 -0.10791535 0.1750173 -0.28890976
-0.22368455 -0.11027123 -0.2498667 -0.14684965 -0.23061223 -0.03641096 0.15698686 -0.23818773
0.25287622 -0.12276049 -0.22609177 0.047920905 -0.22558774 0.21399875 0.122859985 0.14116193
0.2518967 -0.096236736 -0.026027592 0.05342339 -0.28728437 -0.09703986 0.00028490362 -0.080754995
-0.002313576 0.2555291 0.023011124 -0.23128775 0.16711307 0.16221455 -0.11741729 -0.19374771
-0.078871414 0.10694605 -0.13034439 -0.31310284 -0.0734495 -0.005289543 -0.026017962 0.14255337
-0.25978613 -0.2110537 -0.08301905 -0.02290345 -0.0017117659 -0.2704241 -0.027863622 -0.17470327
-0.20379683 0.04605116 -0.24818508 0.049297497

encoder.mean_layer.weight f4 [60, 100]
00000000: a64a f23c 2b82 fc3c 7fd9 09bd 79f1 4dbc
00000010: a8b0 ac3b ccec 053d e4ea c2bd 0220 3abc
00000020: 9d22 563c 9644 1dbd e486 163d 0fe4 1d3d
00000030: 0b8f a9bc 20b7 96bd 602d eb3b 78c0 7f3d
00000040: f22a cabc a9e2 053d 8d83 f5bc 73af 013d
00000050: 545b f4bb 6c82 943d 74b6 ef3c 04a6 983d
00000060: 6412 59bc e0dd 2b3c 0e56 7d3b 4fe7 803d
00000070: e035 3abc a938 a73d a090 ddbc 4a53 d9bb
00000080: b3a6 993d 422d 8abd a434 173d c557 aebc
00000090: 6c32 963d 5b40 213b b939 03bd 90af b6bd
000000a0: 97e3 963d c7f3 963b 8f99 813d 445b 87bd
000000b0: ebd5 3f3d e2d7 aabc 2021 01bd 0925 e2bc
000000c0: ceca d4bc 11ac 193b 5f4e f43b 4028 ae3d
000000d0: 621d 3b3d 4084 8e3c f85b 82bd 786e 10bd
000000e0: 6501 b7bc a7b2 52bc 396d 8c3d a157 3bbd
000000f0: 1501 fb3c c2b9 713b 6ec8 183d de29 0f3d
00000100: f4db 043d 2281 93bc 3eb4 e2bc 58df edbc
00000110: d70b 583d ed7f 573d 0809 8abd c58e 09bc
00000120: 2e48 a23b b2c1 903d 7a1a 003d 98cd cb38
00000130: 39c7 6cbc 2b0d 00bd 27c9 5abd a75f cd3c
00000140: 9d64 50bc 8db1 b93c 544d 623c 6884 7e3c
00000150: 2e10 e4b9 41bf c5bd ddb8 a43d 77ae 88bc
00000160: 2c16 2e3d 081d a3bc 721e e2bc bf7d 6cbb
00000170: 85b2 48bd d948 993d 7196 06bd 508f 533d
00000180: 8188 543c ef4e 5ebd b65d 88bc 460d cfba
00000190: 81c4 4a3d 145a f03b 80a8 893c 3fe1 c43c
000001a0: 35d9 9cbc 35fe c7bd cde1 18bd 7caa 8ebc
000001b0: 96b6 2e3b c14a 44bd 2a09 babd 2870 38bc
000001c0: faa3 f93b a6e8 623c ea44 e63b 6687 38bd
000001d0: fef0 f9ba 0815 7b3c 50f1 743d c002 2dbd
000001e0: 5848 903d da18 833c 5b49 763d a635 1fbc
000001f0: 4692 b7bc 2657 643d a96d 883c f7ea 88bc
00000200: 7b5a 1d3b bb1a c7bc d0a6 d7bc c7a5 4d3d
00000210: b47a 733b 8d56 983d 8d55 0ebd bff7 073d
00000220: 1ad9 a0bb 4609 c83b ac23 64bc cec7 3b3d
00000230: 7040 acbc 5995 17bc 5086 0e3d 90d4 3f3c
00000240: cd2e 9cbd 2653 a3bd 2939 463a 11d1 02bd
00000250: 9e67 033c 8e7f 7c3d 2436 3e3d be56 f23c
00000260: 70b6 09bd 9043 3c3c 080d 4b3d d38d 213c
00000270: 8abd 6e3d 131e 9dbd fb83 563c 348f aebc
00000280: b1ae a63c 820e 90bd b1aa 753c 67d1 34bc
00000290: 708c 963c a012 68bd 2652 223d 3131 73bd
000002a0: 448f b83b bc50 9d3d 457b 603d 6983 0c3d
000002b0: 08a1 bdbc 4ed7 84bd 188e 86bd 8cc7 83b9
000002c0: a6cd 90bd cc84 83bb ecf0 fcbb ac36 79bc
000002d0: e170 6c3c dda3 883c 4510 afbc 55cb 273c
000002e0: d961 f63b d0d0 993d c960 32bd e4af 073d
000002f0: 68ac cd3c cb90 81bc ff45 85bd 28f3 023d
00000300: ae32 b5bd 51ec 36bd a435 c93c 034a d73c
00000310: 89f5 953c 29c6 203d 2e3a 473c 3124 8fbd
00000320: bfb9 453c 624b 28bd 60fb 81bd 3cc0 673d
00000330: 767f e13b 6efb 92bc 8dbe a53c 37e7 13bd
00000340: 7343 08bb 120f eabc c4f7 343d 0474 61bd
00000350: a464 7fbd e0e8 efbc 02c7 703d de01 a93c
00000360: b1e0 113d 4def 8bbc d889 513c b888 cebc
00000370: df84 2bbc 7cfd 263d 5f4b 583d 7e68 943c
00000380: 33c5 1b3d 29bc 89bc a502 ba3c 91cb 093d
00000390: f7ee 323d 3db1 ce3c fe04 84bd b637 ccbd
000003a0: 250d bfbd 01d1 95bd ee6e 95bc f990 0e3d
000003b0: db79 dd3c 1c31 6d3c 052e 57bc 6d46 88bd
000003c0: ba57 24bd c735 163d 73b2 6b3d b810 2d3d
000003d0: 1a28 50bb 1a7d ab39 41d7 c6bc 982b 71bd
000003e0: 5ac5 e8ba 140a 1fbd c781 3a3d 73dc 78bd
000003f0: b5ad 09bd fee3 acbc a6ec 113d a0be 453b
0.02957661 0.030823788 -0.033654686 -0.012569779 0.0052700825 0.03269653 -0.09517458 -0.01136017
0.013069776 -0.038395487 0.036749735 0.03854757 -0.020698091 -0.07359147 0.00717704 0.062439412
-0.024678681 0.032686863 -0.029969955 0.031661462 -0.007457176 0.072514385 0.029261805 0.0745354
-0.013249014 0.010489911 0.003865603 0.062941186 -0.011365384 0.08165104 -0.027046502 -0.0066322433
0.075024985 -0.067469135 0.036915436 -0.021282086 0.07333836 0.002460501 -0.03203747 -0.08920205
0.07367628 0.0046066972 0.06328117 -0.066092044 0.046834867 -0.020854894 -0.03152573 -0.02760555
-0.025975611 0.0023448507 0.0074556316 0.08503771 0.04568232 0.017397046 -0.06365198 -0.0352616
-0.022339532 -0.012859977 0.0685677 -0.045737866 0.030640164 0.0036884402 0.03730052 0.034952037
0.032436326 -0.018005911 -0.027673837 -0.029037163 0.052745666 0.052612234 -0.06740004 -0.008395855
0.004952452 0.070681944 0.03127525 9.718089e-05 -0.014451795 -0.031262558 -0.05341449 0.025070025
-0.012719301 0.02266767 0.013812382 0.015534498 -0.00043499604 -0.096556194 0.080430724 -0.016684754
0.042501613 -0.019911304 -0.027602408 -0.0036085693 -0.048998374 0.07484598 -0.032858316 0.051650345
0.012971998 -0.054274496 -0.016646247 -0.0015796802 0.049503807 0.007334957 0.01680398 0.024033187
-0.019146541 -0.09765283 -0.037324715 -0.017415278 0.0026659123 -0.047922853 -0.09083779 -0.011257209
0.0076184245 0.013849413 0.007027258 -0.045051 -0.0019069014 0.015324838 0.059800446 -0.04223895
0.070450485 0.016003061 0.06012855 -0.009717381 -0.022408616 0.055747174 0.016653853 -0.016713602
0.002401023 -0.024304738 -0.02632466 0.050206926 0.0037151994 0.07438383 -0.034749556 0.033195253
-0.004908693 0.006104621 -0.01392452 0.045844845 -0.02102682 -0.009251916 0.03479606 0.011708394
-0.07626114 -0.07974844 0.0007561618 -0.031937663 0.00802031 0.061645083 0.04643835 0.029582378
-0.03362125 0.0114907175 0.049572974 0.009860474 0.058286227 -0.07671752 0.01309299 -0.021308519
0.020346971 -0.07034017 0.014994309 -0.0110362535 0.018377513 -0.056658387 0.039629124 -0.059373084
0.005632313 0.076814145 0.05480506 0.03430501 -0.023148075 -0.064863786 -0.06570071 -0.0002513494
-0.07070474 -0.0040136334 -0.00771915 -0.015210789 0.014431209 0.016679699 -0.021370063 0.010241349
0.0075189886 0.07510531 -0.043549333 0.033126727 0.025106624 -0.015816113 -0.06507491 0.031970173
-0.08847557 -0.044658963 0.02456171 0.026280409 0.018305557 0.03925148 0.012159867 -0.06989325
0.012068211 -0.041087516 -0.06346774 0.056579813 0.0068816496 -0.017942157 0.020232463 -0.036109176
-0.0020792156 -0.02857164 0.0441816 -0.05504228 -0.062351838 -0.029285848 0.05878354 0.020630773
0.035614673 -0.017081881 0.012789212 -0.025211677 -0.010468691 0.040769085 0.052806254 0.018116232
0.03802986 -0.016813355 0.02270634 0.0336414 0.043684926 0.025230998 -0.06446265 -0.099715635
-0.09328679 -0.07315255 -0.018241372 0.034806225 0.027035644 0.014477041 -0.0131335305 -0.06654058
-0.040122725 0.03667238 0.05754323 0.042252272 -0.0031762184 0.0003270887 -0.024272563 -0.058879465
-0.0017759011 -0.03882797 0.04553392 -0.06075711 -0.033612926 -0.021104809 0.035626076 0.0030173436

encoder.mean_layer.bias f4 [60]
00000000: 59d8 a8bd 04fa 833c d7d0 93bd 7bcc aabd
00000010: 3b60 47bc 6912 e7bc 1b3b b63d 1600 b53d
00000020: 416a ac3d ef36 8fbd aee5 91bc d8c9 e9bd
00000030: 9711 49bd 14b0 6c3a 2a39 6bbc ace6 0abd
00000040: 3262 523d e286 eebc ecbd 783c da4f 65bc
00000050: ceea 7d3d b935 c6bc 19b8 7d3b 36d9 af3d
00000060: 1995 3fbc 1ba1 47bc 40ac 2ebb 5d14 0e3b
00000070: 9cbc 9d3d 520e 8b3c adfc 07bd 4e5d 31bd
00000080: a425 513d 79e6 783d e025 5a3d 5b93 6ebc
00000090: cbdf 7a3d 85b5 8b3d d249 0dbd 9b6e 363d
000000a0: 09b7 a0bd ab71 78bd 5e33 043d a775 bf3d
000000b0: 7fe7 483d 6fa2 373d fd98 d33c 71aa 8b3d
000000c0: d01c 9abc 40c1 b43d 044b fe3c 8b53 5dbd
000000d0: 4255 bd3d 0398 da3c e184 433d 3dc8 f6bc
000000e0: 5b8c a4bc d760 893d 245a a03d 8071 573c
-0.0824439 0.016110428 -0.072175674 -0.08339783 -0.012168939 -0.02820702 0.08897992 0.08837907
0.08418704 -0.069928996 -0.017809715 -0.11415452 -0.04908904 0.0009028923 -0.014356891 -0.033911392
0.051363178 -0.029117052 0.015182 -0.013996089 0.061991505 -0.024195539 0.0038714467 0.085863516
-0.0116932625 -0.012184407 -0.0026652962 0.0021679618 0.0770199 0.016974602 -0.033199955 -0.043301873
0.051061288 0.06076667 0.053258777 -0.0145614995 0.06124858 0.068217315 -0.03449423 0.044539075
-0.07847411 -0.060655277 0.03227555 0.09348612 0.049048897 0.044832643 0.025829786 0.068196185
-0.018812567 0.08825922 0.03104163 -0.05403475 0.09244777 0.026683813 0.047734145 -0.030124778
-0.020086458 0.06707924 0.07829693 0.013149619

encoder.log_var_layer.weight f4 [60, 100]
00000000: de90 a1bd 3da6 14bc 0427 203d 4bcd 953d
00000010: 0ed7 883c eac5 1a3d 6c7c 82bd 8955 debc
00000020: b11b dbbc ee54 ca3c b295 82bd 9249 e1bc
00000030: d599 cabc a101 a4bc 5993 ba3d 1dc0 ebbc
00000040: 59e3 ef3c f439 09bd 2f75 e5bc 61d9 4b3d
00000050: 5aea 84bb af83 11bd fbf8 a9bc b1cd 4c3d
00000060: a2f8 d23b 9983 3d3d d76d 79bc 556f e23d
00000070: 86af 1cbd 6e15 bf3d ea8b a83d 89fa 633d
00000080: 2ac8 693d c4a0 853d 90f3 613c bf2f 17bd
00000090: c086 753d 024d 923d dc4c 1abb a525 31bd
000000a0: 6344 7bbd 2ab7 c1bc 3331 96bd da47 0b3d
000000b0: ee26 ddbb 2105 6d3c ca21 9f3d adf9 623d
000000c0: e802 cb3d 38fb 283e 2f45 993d 6acb 893d
000000d0: 3012 49bd 3e86 4cbd 7a11 cd3d abb8 283d
000000e0: 0d7b 1d3d 9e36 10bd 0aa3 79bb 782c 023d
000000f0: 7db1 4f3d 4020 543b 586d a33c 82cb 0e3c
00000100: 6c20 08bd 62a2 963d 32fd ba3b 2695 b8bc
00000110: 75de 82bd 62d1 b73c cd71 583c ea3e e1bb
00000120: 8c10 c43b 7c42 be3d 4f49 963c 70cc d43b
00000130: 1619 bebc 4a93 8ebd 33ef 34bd 27fa d1bc
00000140: c8a8 ef3d 9878 923d 7150 d83c 4db7 7ebd
00000150: d60f 75bb d479 713c aa78 e7bc edc2 d23c
00000160: 37af 47bd 7969 fc3c 6838 923d 7517 123c
00000170: 5f1a abbd 0a54 b5bd 020a cc3b 99b9 febc
00000180: 714a de3d f48a 313c ff6f 59bc 3d35 f93b
00000190: d857 19bb 643e a8bc bf3c 13bb 4a9b e6bc
000001a0: ba8a ff3b 3c3a 2b3d dc54 4d3c f43e d23b
000001b0: 088f 4a3d cb5f 0abd 6644 3ebd b003 19bd
000001c0: 8919 acbd 9fdd ae3c 4245 a5bc b424 b9bc
000001d0: db75 f4bb bb0d 8f3b d627 4fbc 28f1 a43d
000001e0: fb67 a83c d616 e838 7735 0dbd 9857 863d
000001f0: 2c1f 103c a66f 3c3d 2ecd d33b d7f7 7bbd
00000200: fe4a 20bd 6190 60bd 09f3 8a3c 2013 383d
00000210: a7bb 8f3d b13a a13c 6b5f 4d3d 57b4 b9bd
00000220: f01a 9dbc da6b 303b 065f 343d cb45 48bd
00000230: 399c 823c 1072 05bd 1528 e6bc 80ae b23d
00000240: 98f3 503d 70c7 f6bc c172 203d 7bab c83d
00000250: 8249 3c3c d607 43bc dd93 ad39 69ee bcbb
00000260: 0966 3abb 5060 94bc 8dab 8d3d 854a b83d
00000270: 7659 e83c b480 bbbc 7473 f73b d94a c33c
00000280: fdb0 9c3d 07d4 2abd 64ec 073b b5e2 08bd
00000290: 19ad 78bd f2f1 8cbd 0e03 f6bc 65b9 8d3d
000002a0: 2902 8f3c 83fa 8e3d 8853 27bc 290d d8bc
000002b0: e8db 213a 9c1f b33d 451d 83bd 6e1b b83c
000002c0: 2e64 3e3d 8b04 a53c dc4d bbb9 341a 42bc
000002d0: d788 493b 654f a03d 8fab c23c d9ae 4fbc
000002e0: 89ca 9e3a 4a3d 193d 9bcd bcbc 224b 2ebc
000002f0: a886 36bd 9245 34bd 789c 8bbd 1e6f adbd
00000300: fd49 cabc 1326 01bc f1b4 f13c 9054 6cbd
00000310: 8b12 1bbc 20d5 82bc cd1e 58bc 27e3 803b
00000320: 284e 433d c920 5a3c ee7a 223d 5555 c2bb
00000330: 2113 763d 32e3 003d b8e2 86bd b711 00bd
00000340: 5a33 20bb 7ee2 043d a580 42ba 4cb9 e33c
00000350: f891 5ebc f47e 9d3c 9585 993d b742 183d
00000360: 18f5 c93c 25de 1abd c68e 573b 975b a1bd
00000370: b1ca 43bc 9420 fabc bbd4 3b3d 177f a83d
00000380: cd2c 93bc 3b55 d93c 677d 3b3c de62 563d
00000390: 482f b8bd 2061 063c d321 4abd 4ecd a1bd
000003a0: 99c7 71bd ebaf 2d3c eff6 e2bc 661d 78bc
000003b0: 760a 88bd 1593 873c ad6d 62bc 369a 883a
000003c0: b278 c9bc 9163 9a3c 91d8 373d 260d e23c
000003d0: 811e 41bb 7589 85bd 3b6d 913d b669 ba3c
000003e0: 218d 223c bfc1 e03c b083 f63c e7af 703d
000003f0: 4bfc 053c 0d2e 44bd 35ee ac3d b90f f6bc
-0.07888959 -0.009072837 0.03909971 0.07314547 0.016704109 0.0377864 -0.06371388 -0.027140396
-0.026746603 0.0246987 -0.06376208 -0.027500901 -0.024731556 -0.020020308 0.091101356 -0.02877813
0.029283212 -0.033502534 -0.028009979 0.049767856 -0.004056257 -0.035525974 -0.020748606 0.05000085
0.0064383307 0.04626808 -0.015223942 0.11056391 -0.03825333 0.09330259 0.082298115 0.05565885
0.057075657 0.06524804 0.01379098 -0.03691077 0.05994296 0.07143594 -0.0023544347 -0.04324879
-0.061344516 -0.02364691 -0.07333603 0.03400407 -0.0067490255 0.014466555 0.077701166 0.05541389
0.09912664 0.16502082 0.07483899 0.06728251 -0.04908961 -0.04993271 0.10013099 0.041191738
0.03844743 -0.035208337 -0.0038091564 0.03178069 0.050706375 0.0032367855 0.0199496 0.008715512
-0.033234045 0.07355191 0.0057064528 -0.022532057 -0.063900866 0.022438709 0.013210726 -0.006873955
0.005983418 0.09290025 0.018345503 0.0064940974 -0.023205321 -0.06961687 -0.04417343 -0.025631977
0.11702114 0.07151908 0.026405545 -0.062186528 -0.0037393472 0.014738519 -0.02825578 0.025727713
-0.048751082 0.030812012 0.07139665 0.008916725 -0.08354639 -0.0885392 0.006226779 -0.03109436
0.10854042 0.010836352 -0.013271331 0.0076052235 -0.0023398306 -0.020537563 -0.0022466627 -0.02815022
0.00779852 0.041803584 0.012532439 0.006416196 0.04945281 -0.03378276 -0.04645195 -0.037357032
-0.08403308 0.021345912 -0.020174626 -0.02260051 -0.0074603385 0.0043656505 -0.012643775 0.080538094
0.020557394 0.000110668756 -0.034474816 0.06559676 0.008796494 0.046004914 0.0064636683 -0.061515655
-0.039134018 -0.05482519 0.016961591 0.044940114 0.07018214 0.019681307 0.050139826 -0.090676
-0.019177884 0.0026919753 0.044035934 -0.048894685 0.015943633 -0.03257948 -0.028095284 0.087246895
0.05101356 -0.030124396 0.039171938 0.09798332 0.011492135 -0.011903724 0.00033107298 -0.0057657254
-0.0028442165 -0.018112332 0.06917486 0.089985885 0.02836297 -0.022888519 0.007551605 0.023839401
0.07650945 -0.04170611 0.0020740265 -0.03341933 -0.060711954 -0.06882085 -0.030030753 0.06920127
0.017457085 0.06981375 -0.0102127865 -0.026373463 0.0006174431 0.087462634 -0.06402067 0.022474017
0.046482258 0.020143768 -0.0003572543 -0.011847068 0.003075173 0.07827643 0.023763446 -0.012675964
0.0012114804 0.037411965 -0.02304726 -0.01063803 -0.044562012 -0.04401166 -0.068169534 -0.084684595
-0.024693483 -0.007882613 0.029505225 -0.057697833 -0.00946487 -0.015970767 -0.013190937 0.0039333287
0.047681957 0.013313481 0.039668016 -0.0059305825 0.060076836 0.03146667 -0.06586212 -0.031266894
-0.002444467 0.032442562 -0.0007419682 0.027798317 -0.013584606 0.019225575 0.07496182 0.037173
0.024653003 -0.03780951 0.0032891496 -0.078787975 -0.011950181 -0.030533113 0.045857172 0.082273655
-0.017965699 0.026529899 0.0114434725 0.05234038 -0.08993393 0.008201867 -0.049348664 -0.07900487
-0.05902824 0.010601024 -0.027705638 -0.015143728 -0.0664262 0.016549626 -0.013820094 0.0010421935
-0.024593685 0.018846305 0.04488427 0.02759416 -0.0029467645 -0.065203585 0.07100912 0.022755485
0.009921343 0.027436135 0.03009209 0.058761504 0.008177827 -0.04789548 0.08443872 -0.030036794

encoder.log_var_layer.bias f4 [60]
00000000: a898 b03c fb0e 56bb 8e5a a93d 1d2b a9bd
00000010: 4c81 a9bd 39b3 17bd fd6d 543d eb8c dabd
00000020: 7837 19bd c6cd ae3c d019 ccbc 859c 9abc
00000030: 03fb ea3a 3a6f 22bd 6802 103d 63f6 fd3c
00000040: 89a3 c93c 12ce c9bd 473b 76bc bde1 2fbd
00000050: 6e84 a8bd a056 e5bc 020a b13d 6693 443d
00000060: a7d0 7fbd fb97 30bd a601 18bd fe0d dcbd
00000070: 2093 98bd e67c 5bbd 8592 a1bd 1073 e4bd
00000080: 757c 65bd 708d 63bd a5ea debd 2bfd 9bbd
00000090: 29a8 653d 4760 9bbd 49cb 9dbd 2c99 8d3b
000000a0: 25b8 513d a87e 94bc f5f1 e7bc 202f f4bc
000000b0: 19d6 64bd 832a 13bd 5f98 92bd 1b40 febc
000000c0: d4a0 8dbd d469 aa3d e09f 2a3d 8c72 1e3d
000000d0: b78d de3c f72a 9dbd 4eae 0fbd 06ee 4dbd
000000e0: 362d 72b9 979b b83d 189d 6d3d 376c 3f3c
0.021557167 -0.0032662738 0.08269225 -0.08260176 -0.082766145 -0.037036154 0.051862705 -0.10671409
-0.037406415 0.021338355 -0.024914652 -0.018873462 0.001792759 -0.039656855 0.035158545 0.031001275
0.024614112 -0.09853758 -0.015028781 -0.04293989 -0.08228384 -0.027995408 0.08644487 0.047992133
-0.062454846 -0.04311369 -0.037110947 -0.10744856 -0.07449937 -0.05358591 -0.078892745 -0.11154759
-0.056026895 -0.055554807 -0.10884599 -0.07616647 0.056068573 -0.07586723 -0.07704789 0.004321238
0.051201005 -0.0181268 -0.028313616 -0.029807627 -0.055868242 -0.035929214 -0.07157969 -0.031036427
-0.06915441 0.08320966 0.041656375 0.03868346 0.027167184 -0.076742105 -0.03507834 -0.050275825
-0.00023095761 0.090140514 0.058011144 0.011683515

decoder.input_layer.weight f4 [100, 60]
00000000: ecdd b63d c6c9 793d 5620 08bd 156e d6bd
00000010: 70f2 3abd a427 a53b 12f7 d7bd 8ec8 06bb
00000020: 591c eebd 92f2 8ebc b2ec f53d cc55 f43c
00000030: 1eb3 20be 9d53 923d af6c f43c d304 7dbd
00000040: 163c 9fbd b601 113d 4765 f73d 175c c4bd
00000050: 3fc7 bd3d d4c5 dcbd 017d eebc 89ce b93d
00000060: 43b5 45be ace9 0abe 91e7 243e b686 093e
00000070: 3fae cc3d 65c8 c73d 40bc 9abd 64c0 8abc
00000080: 6912 1a3c 2bd0 46bd e11f ee3d 0e1e a03d
00000090: 6caf 823c 3125 c9bd 8a99 b0bd ba33 09be
000000a0: ffb4 e4bc 794d b13d 5a6c 61bc b911 ad3d
000000b0: f2f0 723d 91b5 a4bc 2c28 e73d 5b5c 73bd
000000c0: 7b2b 1b3e f857 f03c 0006 383d 4dea 8fbe
000000d0: ffd2 49bd 68eb 43bc a091 5b3c 29ec babc
000000e0: 401a 093d d35f 673d 0a10 07bd ce6f 6cbd
000000f0: b6fe c5bd 871c 073e f92c 5e3c 998c 233e
00000100: add9 e93d 67d7 043e c347 15ba 147d fbbd
00000110: 8f53 fd3d f868 24be 4f7a 53be fa98 bb3d
00000120: 54d4 f93b 79d9 c23c c693 a8bc c290 4dbc
00000130: 6772 2a3e c01e f7bc aa66 f4bd d5c2 14bc
00000140: e560 58bd a30c 53bd fdea 963d 2626 e73c
00000150: 500e c33d c56e f1bd 44fa e53d 0a5c f7bd
00000160: 97c2 37be e09a 3139 0df5 a9bd 60e1 bf3d
00000170: 6cb6 0fbd 8af6 be3c e19d 8c3d e9f8 963c
00000180: f0f2 d9bd 277c bfbc 6907 1bbe 7e54 183d
00000190: d449 babb 57ea 39be 367d a9bc 0191 f3bc
000001a0: 91f2 453d c601 9fbd 1db2 4dbe 8acc 80bd
000001b0: 6356 0c3d 7ed1 6c3d b2ff 0e3d 71d4 873e
000001c0: a120 66bd bfaa 793d 91e2 093d 5503 a73d
000001d0: 0110 28bc 4c6d 89bd c5fb dfbd 7106 f83d
000001e0: bd66 7c3d b9e1 b93c fa12 63bb 8b32 cc3d
000001f0: 4498 133e 9f34 f4bd 4b09 c73d 9cac eabb
00000200: ee06 ca3d 9b74 543d 79ec 7e3d a9ab 5c3d
00000210: ed6d d33d 04c6 f3bb 561b 24be 52aa 9d3d
00000220: 9c9e 13be bd46 42bc aad8 90bd 631b e3bd
00000230: c099 153e 77b9 ffbd 41f7 2fbe c572 e0bc
00000240: 74e7 a03d 55ff 8c3c 51f2 1b3e 7ba5 ecbd
00000250: 4c51 903d b336 3abd 29a3 123c ddea 1a3d
00000260: 1b79 c9bd dfd3 463d b226 743d 6c15 c7bc
00000270: 6af1 4fbb 4585 f1bd 136a af3b dd0d 8cbd
00000280: ee58 973d 0f7f b53c e544 26bd d7b9 0e3d
00000290: 6de5 ac3d bc54 09bd cf89 c7bd 6d70 3b3d
000002a0: fa55 91bd 5999 82bc 9a9b 9bbc e6e9 61bd
000002b0: f951 083c 7cee ffbd 619b c0bd e484 4bbc
000002c0: a9b3 983d 5264 293e 2528 fe3d 4240 8ebd
000002d0: 6d99 f5bd 3ec8 a1bd d633 963d e4f6 87bd
000002e0: 3380 0bbe 7737 a6bd 1958 bebd 4a49 6a3c
000002f0: 5093 37bb ccbb c63b 730d e13d 74fb 543d
00000300: 1221 aebd 3f4a 51bd a0dc 1c3e 9847 4d3d
00000310: a75f 82bc 36c1 953d fd1e 713d da40 5f3e
00000320: f6ee 4f3d 52ad c1bd acc1 b83d d10f 3a3c
00000330: 3dfb f9bc 3ebf ed3d 838b 233d fbc2 48be
00000340: 56b8 593d 2bf6 41bd e85e 41bd 903c 14bd
00000350: 3412 423d 8162 193d c3d5 6bbd 9165 a23d
00000360: 2063 94bd 45c2 a93b 7983 eebc f67e 8bbd
00000370: cb07 40bd bf82 2bbd 39ee b33d 2cda e5ba
00000380: 20d7 533c feb2 a1bd f75d 223e 42e9 e83c
00000390: f06c 603d fdbd 68bd b255 acbd 2d4c 1cbe
000003a0: c317 803d ab4e 16be 886b ffbc a2be 6fbc
000003b0: 6883 dc3b 4f45 c93d eb07 fcbd 5468 87bd
000003c0: 294f 3bbd 6f6f 083e 5d6c ecbd 2b60 103d
000003d0: c387 b23c d8d1 743e 9e53 7bbc 8fcb c33d
000003e0: 0788 453d f43a a63c 395b 873d 4f5c 9fbc
000003f0: 0b6d 433d 5400 cebc 15b2 8abc 6488 01bd
0.08929047 0.06098344 -0.033233963 -0.10470215 -0.045641363 0.005040126 -0.10545172 -0.0020566317
-0.11626501 -0.01744965 0.12008037 0.029826067 -0.15693328 0.07144854 0.02983698 -0.06177218
-0.07775132 0.035402022 0.12079864 -0.09587877 0.09266519 -0.1077992 -0.02911234 0.090725966
-0.19307427 -0.13565701 0.1610396 0.13430294 0.09994172 0.09755019 -0.07555437 -0.016937442
0.009403803 -0.04853837 0.11627174 0.078182325 0.015952788 -0.09821547 -0.08623035 -0.13398638
-0.027918337 0.08657355 -0.013758743 0.08450646 0.059311815 -0.020106109 0.11286959 -0.05941425
0.15153305 0.029338822 0.044927597 -0.28108445 -0.049273487 -0.011957981 0.013401419 -0.022817688
0.0334723 0.05648787 -0.03297428 -0.057723813 -0.09667723 0.13194476 0.013560527 0.15971602
0.114184715 0.12972794 -0.0005694592 -0.12279716 0.12369453 -0.16055667 -0.20652126 0.09160037
0.0076241884 0.02378534 -0.020578276 -0.01254672 0.16645204 -0.03016603 -0.11933644 -0.009079655
-0.05282678 -0.051525723 0.07369039 0.028216433 0.09524214 -0.11788706 0.11229375 -0.12078102
-0.17945324 0.00016937731 -0.08298693 0.09369159 -0.03508608 0.023310918 0.068660505 0.018429236
-0.1064204 -0.02337463 -0.15139546 0.037189953 -0.0056850705 -0.181558 -0.020689588 -0.02973223
0.048327032 -0.0776401 -0.20087476 -0.06289013 0.034262072 0.057816975 0.03491182 0.26529267
-0.05618346 0.06095385 0.033663336 0.081549324 -0.010257722 -0.067103 -0.10936693 0.121106036
0.061621416 0.02269064 -0.0034648762 0.09970578 0.14413553 -0.11924099 0.09718569 -0.00716169
0.09864603 0.051869016 0.062237237 0.053874645 0.10323701 -0.007439377 -0.16026053 0.07698502
-0.14415973 -0.011857686 -0.070725754 -0.11089208 0.14609432 -0.124865465 -0.17184164 -0.027398476
0.07856646 0.017211596 0.15229155 -0.115550004 0.07046756 -0.04546232 0.008950033 0.03782164
-0.09837552 0.0485419 0.059607215 -0.024302207 -0.0031729587 -0.11792997 0.005353221 -0.06838582
0.07390009 0.022155313 -0.040593047 0.0348452 0.08442197 -0.033528075 -0.09743082 0.045761514
-0.07096477 -0.015942262 -0.018995095 -0.055154704 0.008320325 -0.12496659 -0.09404636 -0.01242182
0.074561425 0.16542175 0.12410001 -0.0694585 -0.11992154 -0.07899521 0.07334106 -0.066388875
-0.13623123 -0.08116048 -0.09294147 0.0142997 -0.002801139 0.0060648676 0.10988893 0.051997617
-0.085024014 -0.051096197 0.15318537 0.050117105 -0.015914751 0.07312243 0.058867443 0.21802083
0.050765 -0.09456886 0.09021315 0.01135631 -0.030515308 0.11608742 0.03992797 -0.19605629
0.053154312 -0.047353905 -0.04720965 -0.03619057 0.04738064 0.037447456 -0.057576906 0.079295285
-0.07245469 0.0051806294 -0.029115425 -0.06811325 -0.046882432 -0.041872736 0.08785672 -0.0017536334
0.012929708 -0.07895468 0.15856157 0.028431538 0.05479139 -0.056821812 -0.084147826 -0.15263434
0.06254532 -0.14678447 -0.031179205 -0.014632853 0.006729532 0.09827673 -0.12306198 -0.06611696
-0.04572979 0.13323759 -0.11544106 0.035247963 0.021793252 0.23908174 -0.01533976 0.0956031
0.04822543 0.020291783 0.06609196 -0.019453196 0.047711413 -0.02514664 -0.01693062 -0.031624213

decoder.input_layer.bias f4 [100]
00000000: 05d5 563e 2fb5 5d3e ad4e c33d 6f79 86bb
00000010: 8e96 2a3e 922e 0e3d b84c 843e e187 f3bd
00000020: 2407 2c3e 71ac 7c3e ce0c 83bd 2689 873d
00000030: 1da5 083e 3c10 1dbd 8d21 5b3e 891f 6e3e
00000040: 3e85 e7bd 281e 61bc a904 643e e6ca 383e
00000050: ada3 ed3d 3d36 a63d d4ef 9f3d 38a7 cf3d
00000060: 009a ec3d fe89 543e 36a6 d33c d0c9 203c
00000070: 4639 683e b94e eb3d 70d7 45bc ae57 46bd
00000080: 4d11 39be 34f8 16be c600 1a3d f3eb 833d
00000090: fb18 7bbd 2e50 a63d e66f c8bd af7a 6d3d
000000a0: da5a d93d 8bba 393e 3eb9 b13d 94e6 e43d
000000b0: 75b5 1e3e c279 653e 6dff abbd 3938 873e
000000c0: 880b bf3d 1ec7 2a3e 5297 873d 3e6e 983e
000000d0: 931f 4abd bf4d 0b3e 91bd 733d b2b9 003e
000000e0: 14da 153e 50ba 6c3e d62d 1b3e f243 8f3e
000000f0: e63b 2b3e ecf7 623e 1cbf ec3c c5ff af3d
00000100: f8d9 b43d 6bbd 683e 0e18 c63c cfd6 a8bc
00000110: 09ae d63d cded 083e 7100 a9bc 0b13 383e
00000120: 84ec 0b3c 185f 5dbc 4940 513e 0ba8 123e
00000130: 8ec0 09be 4b23 823c e82a 693c 45c6 c1bd
00000140: 4cc0 193e f7dc 1a3e 138c e93b 4edb 613e
00000150: ad91 a73d d61c 2c3e 2e65 0f3d 0d2e 823e
00000160: fd03 143e e5a9 173e b20e 95bc cbc7 b33d
00000170: e5bf 6bbd b40b 9c3d a5dc 0f3e c140 223d
00000180: 7d4e eb3d 1cae 24bd 12aa 66bd d260 223e
0.20979698 0.21651147 0.095364906 -0.0041038315 0.16658995 0.03471238 0.25839782 -0.11891151
0.16799599 0.24675156 -0.06398927 0.06617956 0.13344236 -0.03834556 0.21399517 0.23254217
-0.11304711 -0.0137401 0.22267403 0.1804615 0.11603484 0.08115814 0.078094155 0.10139316
0.11552811 0.20755765 0.025836091 0.009813741 0.22678098 0.114896245 -0.01207529 -0.04842346
-0.18073006 -0.1474312 0.037598394 0.06441488 -0.06130312 0.08120762 -0.09786968 0.05797833
0.10613032 0.18137567 0.0867791 0.11176792 0.15498908 0.22409728 -0.08398328 0.26410082
0.09328371 0.1667752 0.06620659 0.29771608 -0.049346518 0.13603877 0.059506956 0.12570837
0.14633971 0.23117948 0.15154204 0.27981526 0.16722068 0.22164887 0.028899722 0.08593706
0.08830637 0.22728507 0.024181392 -0.020610241 0.10482413 0.13371964 -0.020630093 0.17976014
0.008540276 -0.013511442 0.20434679 0.14321916 -0.1345236 0.01588597 0.014231421 -0.09461645
0.15014762 0.15123354 0.007127294 0.22056314 0.08182082 0.16807875 0.0350086 0.2542576
0.14454646 0.14810903 -0.018195484 0.08778342 -0.05755605 0.0761942 0.14049013 0.039612535
0.1148958 -0.040205106 -0.056314535 0.15857247

decoder.lstm_layer.weight_ih_l0 f4 [400, 100]
00000000: c6a7 103e a871 f33c 3f15 393e ccf9 f5b9
00000010: a92e 1b3d a813 c23c e57d acbd e837 8d3d
00000020: 5b23 c13d a3c5 45bd 94c7 063d f4d2 dd3c
00000030: 7e53 603d 499c 273d fdf8 9e3c ad56 053d
00000040: e8e8 d93d c01e 0b3e b8db abbb 7205 0bbe
00000050: 95e3 353d 657f 513d a739 863e 7c4d 6f3b
00000060: 8132 023e a0f8 e33d e447 c53d b4e7 05bd
00000070: f10d 0b3e 88ba 35bd 5022 f0bd 8d86 84bd
00000080: bc2b 423e a03d f03c de53 583e 32b9 3a3d
00000090: e301 56bd cb93 873c 9779 d8bc 5b5b 053c
000000a0: 9e3e 543e 6433 383e 585d 603e c422 c73d
000000b0: d488 453c 6e16 3dbd f8e3 3a3e 665c 013d
000000c0: 5d3e 793d 7539 a2bd db13 133c 08f7 333d
000000d0: 8eb8 a23d 4778 083c 1d64 f13d dc30 ac3d
000000e0: 8dae f53c e749 1e3e 9165 d7bd a831 133e
000000f0: 1c88 6ebc a51c 883d 272d c73d 8993 bf3d
00000100: dc7e c33d fe10 1a3e 45cb 3fbd 8266 86bd
00000110: 96ca 023d b050 153e 4308 743c e926 2e3d
00000120: 7392 13bc fccb fabd 5f27 fc3c f812 0ebd
00000130: 945e 833d 5888 5a3d 2d13 713d 42c3 37bd
00000140: d44d 8dbd efb5 c3bc 7e2c 19bd 37ab 643e
00000150: 2998 a73d 597c 12bc c936 a23c 9b67 b6bd
00000160: 72df 153b b13b 8dbd 1d4a bb3d 3a3e bd3c
00000170: 71ad c0bd 6c30 563e d203 0bbd 5d68 843d
00000180: 8c4e 9e3d 8487 ed3d 1cbc 773d c900 53bc
00000190: d343 e63c 517e a9bd 15d6 81bb 6237 513c
000001a0: 54b9 e6bd 2422 173d e2de f83c 210c d5bc
000001b0: 8204 c33d 2f9f 9fbd 5ead 5e3d 3690 123c
000001c0: c15f 99bd 2dac b6bb a3d6 903d 10aa 72bd
000001d0: ac03 16bd c6fb 03bd 120d 513d 12d5 cdbd
000001e0: 9e9c 55bd 919d d83c 2b56 3b3d babd a8bd
000001f0: 3f4a 53bd 02b6 793d e733 a73c a1ff 62bc
00000200: 0a19 19bd 7ce4 943d f13e 90bc 8c06 a4bd
00000210: 28b4 123e f8e3 9e3d 14af 923c 337b 283d
00000220: a9bf 163d 0c90 abbd ee7c 0abe cd40 9bbd
00000230: 1f2d 85bd 9b9e 8fbc a041 b3bd 7a6b 01be
00000240: 1b81 da3c 7138 633d 752b 6d3d 20d3 653d
00000250: dbbb ab3c fc06 01bc 8398 983d eadd e4bb
00000260: 86f2 063d 9113 62bd 95e9 0cbd f80b 7e3d
00000270: c4a0 33ba 274b d8bb 098c c53c 6f4a 8a3d
00000280: 4696 7e3d abd6 a43c 34af 0a3d a534 59bb
00000290: 08ac 9f3d bbf7 9e3d cb39 5fbc 14a4 b5bc
000002a0: ed1f 6c3d 3ddd bd3d 4caa ba3d 6862 203d
000002b0: 8dbb 413e 69c8 bb3d 514d 79bc 5151 b33b
000002c0: 7e53 9d3d 39d5 e13d 3761 d5bb b373 2c3d
000002d0: c5b1 4dbc ab38 25bd f3ef 8fbc ca0f 3f3d
000002e0: 7759 1fbd 6c3e 9a3b 4b71 64bd 22c6 903a
000002f0: e770 ca3c 4e86 a1bd bcbe 20bd a318 183d
00000300: 9332 eabc d8aa 92bd d31c 94bc 8ce0 aa3c
00000310: ac16 b0bd 6705 933d 572d 273d 6989 c33d
00000320: a24d 9f3d 9116 583e b742 773e 2af7 733d
00000330: c48f 293e bc31 1b3e f028 a23d 84af cb3d
00000340: c272 4e3e 752d 0ebd 2259 813c 730b 2a3e
00000350: 4b77 b13d 4901 e93d b536 8b3d 7374 053e
00000360: c95b edb9 61c1 f83d ebe1 203e b7f7 893d
00000370: ceb4 6d3e d106 483e 8925 833e 182a 0a3e
00000380: 9d62 fa3d 2536 513e ce79 9d3e a3ef 513d
00000390: 66d1 3e3e d4fe 503d 239f 86bd 4cdc 9d3d
000003a0: 355f 59bd 5b6f 003d 29e3 0f3e 8aac 7c3d
000003b0: 008f c53c d66e 033e cf2f 643e 1ca5 c93d
000003c0: b5c1 383e dbcd 633e 373d 1b3e ff85 1b3e
000003d0: ee12 3f3e 9a24 213d ddfe 263e dd6a c03d
000003e0: dcd0 063b 12f7 f5bb b086 133e ed2f e03d
000003f0: 8da9 4e3e b652 fc3d fb75 e03d 308e 2e3e
0.141265 0.029717281 0.18074511 -0.00046916155 0.037886295 0.023691013 -0.0842245 0.06895429
0.09430572 -0.048284184 0.032905176 0.02707813 0.054767124 0.04092053 0.019405836 0.032553364
0.106401265 0.13585949 -0.0052446984 -0.13576296 0.044406492 0.051146884 0.2621586 0.003651469
0.12714578 0.11131406 0.09632853 -0.032691672 0.13579537 -0.044367343 -0.117252946 -0.06470976
0.18961996 0.02932626 0.21125743 0.045586772 -0.052247893 0.016549965 -0.026425166 0.008139457
0.20727012 0.17988354 0.21910608 0.09723428 0.012056548 -0.04616397 0.18251026 0.03158226
0.06085049 -0.07921115 0.008976902 0.04393676 0.07945357 0.008329458 0.11786673 0.08407757
0.029990459 0.15457879 -0.10517419 0.14374411 -0.014558818 0.066460885 0.09725409 0.09354312
0.09545681 0.15045545 -0.046824712 -0.065625206 0.031931482 0.14581561 0.014894548 0.042517576
-0.009007084 -0.12245938 0.030780492 -0.03468606 0.06414524 0.053352684 0.058856178 -0.044863947
-0.0689961 -0.023890464 -0.037395947 0.22330938 0.08183319 -0.00894078 0.019801514 -0.0890648
0.002286878 -0.06896151 0.09144995 0.023100961 -0.09408081 0.20916909 -0.03393919 0.06465218
0.077298254 0.11598113 0.06048213 -0.012878605 0.028108513 -0.08276046 -0.003962288 0.012769552
-0.11265817 0.036897793 0.030379716 -0.02600676 0.09522344 -0.07794034 0.054364555 0.008945515
-0.07488967 -0.005574724 0.07072189 -0.059244215 -0.036624596 -0.03222253 0.051037855 -0.100504056
-0.052151315 0.026442321 0.045736473 -0.082393125 -0.05158448 0.06096459 0.020410491 -0.013854892
-0.037377395 0.072701424 -0.017608138 -0.08009061 0.14326537 0.07758325 0.01790575 0.041133117
0.036803875 -0.08377084 -0.1352422 -0.07580719 -0.06502747 -0.017531684 -0.08752751 -0.12638655
0.02667289 0.05547375 0.057902772 0.056109548 0.0209636 -0.0078752 0.07450964 -0.006984462
0.032946132 -0.05519444 -0.03440245 0.062023133 -0.0006852264 -0.0066007557 0.024114626 0.06752478
0.06215503 0.020121893 0.033858493 -0.003314295 0.07796484 0.077620946 -0.013624619 -0.022172965
0.057647634 0.092707135 0.09114513 0.039156348 0.18919201 0.091690846 -0.015216188 0.00547234
0.076819405 0.11026997 -0.006511833 0.042102527 -0.012554591 -0.040337246 -0.017570471 0.046645917
-0.03890368 0.0047071483 -0.055772107 0.0011045376 0.02471204 -0.07886945 -0.0392444 0.03713287
-0.028588569 -0.07161492 -0.01808015 0.020859025 -0.08598074 0.07178765 0.040814724 0.09547693
0.07778479 0.21102358 0.24146543 0.059561886 0.16558748 0.15155691 0.079179645 0.09945586
0.20160964 -0.03471132 0.015789572 0.1660593 0.086653315 0.11377198 0.06797544 0.13032703
-0.00045272548 0.12146259 0.15711181 0.06736701 0.23213503 0.1953385 0.25614575 0.1349262
0.1222584 0.20430811 0.30756992 0.051253926 0.18634567 0.051024273 -0.06573322 0.07708034
-0.053069312 0.031356197 0.14051498 0.061687984 0.02411604 0.1283525 0.22283863 0.09845945
0.18042643 0.22246496 0.1516007 0.15187834 0.18659565 0.039341547 0.1630816 0.093953826
0.0020571267 -0.0075062597 0.14406848 0.10946641 0.20181866 0.12320463 0.10960003 0.17046428

decoder.lstm_layer.weight_hh_l0 f4 [400, 100]
00000000: 89c1 e33b be87 9f3d cab1 b3bd c013 5b3d
00000010: 6d4e ce3d c79b f5bd eee5 04bd 8618 4d3e
00000020: 2744 f7bc 2526 19bd 5bd3 873c 53ab a3bd
00000030: 42d7 26be 7d71 52bd 77dc c0bd 039e debd
00000040: 71b5 953d 03c5 293e 0ba7 2abd e3fd 553e
00000050: 1bca 053e 835b 3a3b 6c07 1abd d747 1cbe
00000060: 107d a3bd 263f 86bd 651f 533e 2deb b73d
00000070: b523 963d 0e69 b23c ccf6 b33d 10ab 053e
00000080: e173 92bd 2469 1c3e 69da a5bc 8562 7ebd
00000090: 67c8 0bbc dbfe 8e3d f242 4c3d cda7 0cbe
000000a0: 5a44 0c3e 852b 2ebe 0f7b 3bbd 1114 a53d
000000b0: 6252 4ebe f127 c83d 1842 6b3c cad0 77bb
000000c0: 046a fc3c 0361 5e3d 6009 c13d 1c3a 053e
000000d0: 2b24 b8bd 7faf 623d 068c a33d 1539 b3bd
000000e0: 8ad1 c9bd a423 adbd d782 bebd 31bb a03b
000000f0: 8280 f3bd 1ec0 8abc 24fc 1d3c c765 b3bd
00000100: 86c4 89ba d9a5 acbd ffa6 523e 19a0 d73d
00000110: 834e b5bc 65c1 883d 4f40 ac3d 8262 f93d
00000120: c393 d23d 7b03 07bd 48e5 12bc 91c1 a4bd
00000130: 8c46 f73c 33a4 1ebe 30cd 26bd 88f1 9a3d
00000140: f58f 823d 7333 113d 8e83 2e3d aea1 81bd
00000150: 633e 91bc 5941 34be 53cd e33d 8a3c c9bc
00000160: aea1 733d 8da2 8abd c14b d1bd 8ad8 393e
00000170: 2354 0cbe 4f9d 1dbe 7b1e 853d 588e 28be
00000180: fac3 f3bd 357b 08bd e015 ec3d eb76 90bc
00000190: 1462 373b 84f1 d6bc 9095 a2bc f344 5fbc
000001a0: 722d 58bd 63a0 e43d 6039 58be bfc0 4abd
000001b0: 9a6d 733e dfc0 95bd 96c0 993d 2eb8 5e3e
000001c0: ae52 3f3d 796f a83d 9f34 913e dc3c 3dbe
000001d0: 717c c9bd 5962 6cbd d9a7 1abe 35a1 dabc
000001e0: 2b40 fb3d 3262 0cbe 229a 153e a857 87bc
000001f0: 3b44 e1bd 7948 1ebc 3779 25be 0a31 193e
00000200: 95f6 8abc 8258 2a3c 946f 4abd 0e1f 2d3e
00000210: 7eff 08bc a2a6 273e 86eb 4c3e c7fc b63d
00000220: ad46 a0bd 36a0 4cbe fa06 5a3d 669e eb3b
00000230: 7c69 383d 493a 963e c6b7 6a3c c087 0abd
00000240: dc79 e43d 378e 273d 3ecc 233c e38a 973d
00000250: d6db 263e 4a6c 173e 4378 62be 7b1f 393d
00000260: 212b dd3d 45de 133d c667 903d 443e f83b
00000270: bfae bbbc 2dcd 1bbd b328 a13d 3018 d1bc
00000280: 40f1 173d 1487 003e 8e4e e03d 3455 613e
00000290: 2429 8cbd cce6 ce3d 7868 cdbd 90ee 08be
000002a0: d0f4 013d 5baf 7d3d c3e7 5cbe 7bf4 973d
000002b0: c36b 0abd 290c 453d 345e 923c ec68 9bbd
000002c0: 519a efbd 0fa5 bebd 4020 603c 03fe bbbd
000002d0: e695 0a3e 44b8 93bc 4559 67be 02c4 eebb
000002e0: 22bb 1bbe 8fef 063e 3c2f 243e b65f 8a3d
000002f0: 3497 cfbd 20c2 0b3e 4b3b 43bd cef9 5ebe
00000300: 40d6 94bc 88cd 223d 71a2 3cbe 89d6 493e
00000310: 7eb2 b53d 474b dc3c 0f5d b0be 92ee b33d
00000320: 5caf 95bd 4120 0bbe c1ee 503d 1997 2bbe
00000330: eb23 d9bd d47f ff3d dcaa 21bc 20d0 edbd
00000340: ccd0 dabd 74d4 18be 7298 13be fb97 97bd
00000350: 65a1 8abd 888a c4bd b223 3c3e f5d9 a9bd
00000360: a8bd 08be 708f 213e 7124 86bd 4322 b2bc
00000370: 8668 babd b104 98bd e669 4b3e b3d1 c3bc
00000380: b156 a0bd e31f 9ebd f4b3 a8bd 336a 3c3e
00000390: 8515 ad3d 2bdd fe3b 6127 bcbd 3f0a 7ebe
000003a0: b11c 1d3e bf11 3dbe e2d9 723c 6c47 9f3d
000003b0: 1296 91be 3177 b3be d104 873e b519 d23d
000003c0: be57 ae3d abae 583d ad0d babd e2c8 423d
000003d0: df24 f13c c3e5 373d 125c 4ebd 9536 16be
000003e0: 796d 2dbe 445a b53c a0cb 793d bad8 a9bc
000003f0: 8717 e3bd 50fd e53a 4152 453b 13df 913d
0.0069505614 0.07789563 -0.08774145 0.053485632 0.10073552 -0.11992603 -0.03244584 0.20028886
-0.030183865 -0.037389893 0.016580274 -0.07991662 -0.16293052 -0.051377762 -0.0941705 -0.10869982
0.07309998 0.1657906 -0.04166321 0.20897631 0.13065378 0.0028435893 -0.037604734 -0.1526178
-0.07982838 -0.06555013 0.20617445 0.08980403 0.07331029 0.02177861 0.08787307 0.13053536
-0.071510084 0.15274483 -0.020245748 -0.062105674 -0.008531666 0.069822036 0.04986853 -0.13735886
0.13697949 -0.17008789 -0.045771655 0.08060468 -0.20148614 0.09773243 0.01435902 -0.0037813657
0.030812271 0.054291736 0.09425616 0.13010448 -0.089912735 0.055343147 0.07985692 -0.08751122
-0.098544195 -0.084540635 -0.093022995 0.0049051275 -0.11889745 -0.016937312 0.009642635 -0.08759647
-0.0010510839 -0.084300704 0.20571516 0.10528583 -0.022132164 0.06677512 0.084107034 0.12176992
0.102820896 -0.032962304 -0.008965798 -0.08044732 0.030185007 -0.15492325 -0.040723026 0.075656
0.06375114 0.035449456 0.04260593 -0.06329666 -0.017729944 -0.17603053 0.11123147 -0.024565
0.05948036 -0.06769285 -0.10219527 0.1814901 -0.1370397 -0.1539204 0.06499954 -0.1646055
-0.11902614 -0.033320624 0.1152761 -0.01763483 0.0027982043 -0.02623821 -0.019846708 -0.013627279
-0.052777715 0.11163404 -0.21115637 -0.049500223 0.23772278 -0.07312178 0.07507436 0.21749946
0.04670971 0.08224387 0.2836046 -0.18480247 -0.098381884 -0.05771098 -0.15103091 -0.026688198
0.122680984 -0.13709334 0.14609578 -0.01652129 -0.10999342 -0.0096608335 -0.16159521 0.14960113
-0.016963283 0.0103970785 -0.049422815 0.16906378 -0.008361695 0.16372159 0.2001172 0.08934932
-0.0782598 -0.1998299 0.05322931 0.0071905134 0.045022473 0.29341343 0.014326042 -0.033820868
0.11156055 0.04090711 0.009997426 0.073995374 0.16294798 0.14787403 -0.22116189 0.045196038
0.10799242 0.036100645 0.07051043 0.007575782 -0.022910474 -0.038037468 0.07869091 -0.025524229
0.03709531 0.12551528 0.10952483 0.22005159 -0.068437845 0.10102615 -0.100296915 -0.13372254
0.031727612 0.06193481 -0.21572785 0.07419678 -0.033794176 0.0481073 0.017867185 -0.07588372
-0.116993554 -0.09308826 0.013679564 -0.09179308 0.13533744 -0.0180322 -0.22592647 -0.0072865495
-0.15208104 0.13177322 0.16033643 0.06756537 -0.101362616 0.13648272 -0.047663968 -0.2177498
-0.018168569 0.03974679 -0.18421341 0.19710745 0.08871935 0.026891364 -0.34445998 0.08785738
-0.07308838 -0.13586523 0.051008943 -0.16756858 -0.10602554 0.12475553 -0.009867396 -0.11611962
-0.10684356 -0.14924794 -0.14413622 -0.07402035 -0.06769065 -0.09596735 0.18372992 -0.08293525
-0.13353598 0.15777373 -0.065499194 -0.021744853 -0.091019675 -0.0742277 0.19864616 -0.023903703
-0.07829035 -0.07720926 -0.08237448 0.18399887 0.0845137 0.00777783 -0.091871984 -0.24808596
0.15342976 -0.18463801 0.014822455 0.077772945 -0.28434807 -0.35051873 0.26370862 0.102588095
0.08512829 0.05290095 -0.0908464 0.047554858 0.029436527 0.044896852 -0.050380774 -0.14669259
-0.16936292 0.022137769 0.060985208 -0.020733226 -0.11088472 0.0017546806 0.0030108842 0.07122626
