models/surnames.pth (torch, 130474 bytes, 22 tensors)

encoder.input_layer.weight f4 [35, 12]
000000 54 b9 62 3e 6f 74 ed bb e8 27 f0 3d cd 14 84 3c
       0.2214101 -0.007246546 0.117263615 0.0161232
000010 7a ba b9 bc 66 38 a2 3d 71 16 82 be 44 78 85 3e
       -0.022671927 0.079209134 -0.25407746 0.26068318
000020 f7 d0 10 3e 80 50 2a 3e c5 68 10 be 4a b9 05 3e
       0.14142214 0.16632271 -0.14102466 0.13058963
000030 e1 f2 07 3c 96 c5 4a 3d f9 31 2b be b8 30 d5 bd
       0.008297653 0.04950484 -0.16718282 -0.10409683
000040 4c 6b d2 bd 9e 29 a2 bd 93 9d a8 be 2f 05 e3 3c
       -0.102743715 -0.07918094 -0.3293272 0.027712433
000050 e7 36 2a 3d 93 2d 04 3e a9 95 46 bc fa 6b 85 be
       0.041556265 0.1290801 -0.012120643 -0.26058942
000060 64 7b 37 be 5e 8f 59 3d 04 cc 91 bc 92 c0 b4 bd
       -0.17918164 0.05311524 -0.017797478 -0.08825792
000070 2c 9f 9c bc 91 0d 69 3d 5d 67 ce 3c 6d 8d 85 be
       -0.019118868 0.056897704 0.025195772 -0.26084462
000080 63 cb a6 3e 07 70 29 be c7 39 93 3e 48 a2 b1 3d
       0.32577047 -0.16546641 0.28755018 0.08673531
000090 3a c5 40 3e b5 86 4c be 6b ec 1f 3e e3 4a 96 bd
       0.18825236 -0.19973262 0.1561753 -0.07338502
0000a0 02 13 a9 bc 46 16 b6 bd 32 de 18 be 7b 15 92 be
       -0.020638946 -0.08890967 -0.14928511 -0.28532013
0000b0 77 f5 a7 be 20 2a 13 be 9f 47 72 be ee 1c 28 be
       -0.32804462 -0.14371538 -0.23660134 -0.16417286
0000c0 cf 8d d9 3d c6 12 12 be 4d 68 38 bc 12 05 49 3e
       0.10622751 -0.14264974 -0.011255336 0.1963084
0000d0 50 66 15 bd 27 05 81 3e c1 50 98 3d 2e c9 93 bc
       -0.036474526 0.25199243 0.074372776 -0.018040266
0000e0 e1 7c 05 3e cb b2 b9 3d 3f b8 a5 bd 1c 06 eb bd
       0.13035919 0.09067305 -0.08091783 -0.11475775
0000f0 34 20 d1 bd b2 b3 0b ba bf dd ac bd 37 68 0b be
       -0.102112204 -0.0005329206 -0.08440732 -0.13613974
000100 b1 76 13 be 24 6c a5 be 55 24 c2 3e f0 42 57 3e
       -0.14400746 -0.32309067 0.37918344 0.21021628
000110 b9 7b 86 3d bf 3d 24 3d 4b 2a b3 bc 48 f8 af 3d
       0.06566567 0.04009795 -0.021870753 0.08592278
000120 fb 64 4d be ad 0d 87 bb 26 20 83 3d 91 5b 5d bc
       -0.20058052 -0.0041215033 0.06402616 -0.013510601
000130 1a 2e d9 3d 93 5d 7d 3e d5 8c 5e 3e 6d d2 13 3d
       0.10604496 0.24742727 0.2173341 0.03608935
000140 58 71 e8 3d 77 dd db bd af e3 d4 3d 4e 62 02 be
       0.113497436 -0.107356004 0.1039499 -0.12732813
000150 b0 76 68 3e a9 9c d5 bc 25 dc 4f bd 80 92 8b bd
       0.22701526 -0.026075678 -0.050747056 -0.06815052
000160 56 97 4b 3e 9e 1d 4a 3d dc 65 16 bd 9a de 6f be
       0.19881949 0.04934465 -0.036718234 -0.2342476
000170 29 6e 3d 3e a9 fb ee 3d b2 25 4b 3e 76 d7 49 3d
       0.18499054 0.11669094 0.19838598 0.049277745
000180 fb a2 2f be 5b 55 52 be 10 73 00 bd 12 03 0d be
       -0.17152016 -0.20540373 -0.031359732 -0.13770702
000190 21 e3 ae 3d dc 20 c9 be 4c 39 a2 3e 49 a9 fb 3d
       0.08539415 -0.39282882 0.3168434 0.12288148
0001a0 9f dd e0 3d a2 42 f3 bd 49 4f ad bc a6 4c 83 be
       0.10979771 -0.118779436 -0.02115597 -0.25644416
0001b0 fc 48 9d bd 64 7e ec 3d 07 a5 a3 3d 44 44 28 3d
       -0.07679936 0.115475446 0.07990461 0.04108073
0001c0 2a af 71 be dc 8f a0 bd ba 5c 15 be a6 8b 63 3e
       -0.23601976 -0.07839939 -0.14586154 0.2222124
0001d0 d1 5b 49 be 35 03 98 be 85 21 19 3e 32 bd b2 bd
       -0.19663931 -0.29689947 0.14954193 -0.087274924
0001e0 2d 69 f7 bd 7b 96 2a be e6 db 92 3d 3c 9d 00 3d
       -0.120806076 -0.16658966 0.071708485 0.03139995
0001f0 48 e8 4c 3e a7 c3 75 3e b5 25 de 3d 1a 06 37 3d
       0.20010483 0.24000417 0.10847036 0.044683553
000200 e1 db 54 3e 73 ca d1 3c 76 b3 02 bc 4d 9e 49 be
       0.20787002 0.02560923 -0.007977357 -0.19689293
000210 f8 cd 60 3d 08 79 26 3e 87 20 55 3e 3b 1d 5b be
       0.054883927 0.16257107 0.2081319 -0.2139787
000220 f1 6a 80 3d fb 2e 9a bd d4 4a 37 be 1e 19 2d be
       0.062703975 -0.07528492 -0.17899638 -0.16904113
000230 23 92 0c 3c b0 2f 79 be 3c 38 9a bc 10 07 39 3e
       0.008579764 -0.24334598 -0.018825643 0.180691
000240 cd da 6d 3d 02 c2 f4 bc e8 90 d6 bc f3 b4 53 bd
       0.058069993 -0.029877666 -0.026192144 -0.05168624
000250 c4 e6 18 bd c0 5e 4d be ac 04 01 3e 4d 1d 3a 3c
       -0.03732945 -0.20055676 0.12599438 0.011359525
000260 dc 15 da be f2 9f 2d 3e 72 fa f3 bd 18 3e cc bd
       -0.42594802 0.16955546 -0.11913003 -0.09972781
000270 c1 f0 32 3e 65 32 e0 3d cf da 7f 3d e2 6d 9b bd
       0.17474653 0.10947112 0.06246453 -0.07589318
000280 9e 59 dc 3d 2e 88 51 3e 1a 22 1e 3d 67 f2 fb 3c
       0.107592806 0.20462105 0.03860674 0.030755235
000290 3e f1 ba 3d be f3 b9 be d3 f9 ef bd 30 20 00 3e
       0.091280445 -0.36318773 -0.11717572 0.12512279
0002a0 fd 67 78 3d 62 7b da 3d 58 4e 46 3d 4f d0 79 3e
       0.060646046 0.10668065 0.04841456 0.2439587
0002b0 2e d5 47 be aa 41 fd bd af ab 9b 3e 4a aa 52 3e
       -0.19514915 -0.1236604 0.30404422 0.20572773
0002c0 17 ae cb bd 04 01 83 3e 5e ab a1 bd 20 6f 6e bc
       -0.099453144 0.25586712 -0.07894014 -0.014552861
0002d0 6d 48 9d 3d e7 63 2a 3e c6 15 18 be e4 2c e2 bc
       0.0767983 0.16639672 -0.14852056 -0.027609296
0002e0 0f a9 0f bd da 9a 8f be ec b9 5f 3e ef cf 57 3d
       -0.035073336 -0.2804783 0.21848267 0.052688535
0002f0 bb a3 13 3e bd 08 e4 3d 42 06 35 3e c0 74 35 3e
       0.14417927 0.11134479 0.17678168 0.17720318
000300 77 e9 69 bc 15 f7 35 3e 59 60 3d be 63 b4 16 be
       -0.014276854 0.17770036 -0.18493785 -0.1471725
000310 7f 86 3c 3e 78 92 e1 3d ed 33 56 be 3a 8d 0b 3d
       0.18410681 0.11014265 -0.20918246 0.03407023
000320 31 67 09 3e 8e cc 2b be df 78 b4 be 2e 39 86 3d
       0.1341827 -0.1677725 -0.35248467 0.06553875
000330 2f 12 88 be b5 1d 0f 3e e7 d1 9a 3d e8 5f 4a 3e
       -0.26576373 0.13976176 0.07559567 0.19763148
000340 31 5e 86 3d 91 90 cf bd 15 32 92 bd 7d 25 8f be
       0.06560934 -0.10134996 -0.07138459 -0.2795829
000350 8f 0f 2a 3e fb 2d f3 bc 71 4b 32 bd 84 21 2b be
       0.16607498 -0.029685011 -0.043528978 -0.16712004
000360 cf 79 08 be 90 f8 c0 bb ff 18 03 3c b3 3e d3 3d
       -0.13327716 -0.005889006 0.008001565 0.10314693
000370 9a 91 8b bd f0 b1 3f be 87 a2 38 3e 24 1a 9d be
       -0.06814881 -0.18720222 0.1803075 -0.30684006
000380 7d 27 8e 3e 75 6f 7e 3e dd 30 45 bc b2 49 c1 bd
       0.27764502 0.24847205 -0.012035576 -0.094378844
000390 e0 a0 96 3e ad f2 85 bb 57 de ae bc c7 73 5a 3e
       0.29419613 -0.004087767 -0.021346254 0.21333228
0003a0 dc 78 98 3d 19 05 87 be 00 32 b0 3e 59 1d 31 3e
       0.07444927 -0.26371077 0.34413147 0.17296351
0003b0 71 b7 63 3c 63 49 09 3e 53 73 29 bd 74 e4 1a bd
       0.013898716 0.13406901 -0.041369747 -0.037815526
0003c0 d6 f2 4d be 7b ab b4 bd 7f 40 d0 3b 55 fc 60 3e
       -0.20112166 -0.0882177 0.006355345 0.21971257
0003d0 44 ac 74 3e 79 45 56 3e 0a 55 a1 3d 65 29 61 be
       0.23893839 0.20924939 0.07877548 -0.21988447
0003e0 54 87 ee be 24 d9 71 be 4e 68 19 be a4 7a 8c be
       -0.46587622 -0.23617989 -0.14981195 -0.27437317
0003f0 09 ea 9b bd 89 de 20 be 88 52 b9 3d d3 b9 13 be
       -0.07612998 -0.1570989 0.09048945 -0.14426355

encoder.input_layer.bias f4 [35]
000000 bb c7 98 3d 9b 37 87 bd a0 9f cb bd 09 df 53 be
       0.074599706 -0.06602403 -0.099425554 -0.2069055
000010 31 ba c0 bd da a3 0a bb a2 a7 5d be 4b 40 3e be
       -0.09410513 -0.0021154792 -0.21645978 -0.18579213
000020 d4 2a 08 be 2c cd 67 bd 13 fa 8a 3d f8 d6 10 be
       -0.13297588 -0.05659215 0.06785979 -0.14144504
000030 7e 48 82 3e 8e aa 6c 3e 12 70 7d be 02 9d 1b bd
       0.25445932 0.23111936 -0.24749783 -0.03799153
000040 4b c0 a2 bd 5e ac 80 3d 31 89 7d 3d a8 6a e3 3d
       -0.07946833 0.062828764 0.061898414 0.111043274
000050 a8 c7 26 be 85 f8 80 be 82 3a 31 3e 99 8b 7d be
       -0.162871 -0.25189605 0.17307475 -0.24760284
000060 61 62 88 be e6 a3 86 3d 78 f9 da bc 3b 9a 19 3e
       -0.26637557 0.0657423 -0.026730284 0.1500024
000070 ff b5 12 be 04 58 5b be 9d 44 0e be 62 48 bc bd
       -0.14327239 -0.21420294 -0.13893361 -0.091934934
000080 54 18 20 3e aa 59 89 be e0 32 c1 bd
       0.1563428 -0.2682622 -0.09433532

encoder.batch_norm.weight f4 [35]
000000 c7 d7 11 3f 3c 14 06 3f d6 ee 17 3f 5e ea 2c 3f
       0.56969875 0.52374625 0.5934881 0.67545116
000010 b8 7b 16 3f b6 41 15 3f 08 91 ef 3e f7 72 0c 3f
       0.5878253 0.5830339 0.46790338 0.5486292
000020 eb 02 04 3f d6 dc 0e 3f 4e 68 15 3f 55 c2 0d 3f
       0.5156695 0.5580572 0.5836228 0.5537465
000030 68 1f 1e 3f e5 cd 04 3f d7 07 0a 3f b8 65 17 3f
       0.6176667 0.5187667 0.5391821 0.59139585
000040 4b 3f 05 3f 00 4c 1a 3f 99 30 06 3f 7e bb 07 3f
       0.520497 0.60272217 0.52417904 0.53020465
000050 e1 7e 1b 3f 19 c4 30 3f 8e b3 fd 3e 4b 20 06 3f
       0.60740477 0.6904922 0.49551052 0.52393025
000060 c4 ba 16 3f f7 a5 31 3f 69 5e 0b 3f 0e 31 01 3f
       0.5887873 0.6939387 0.54440933 0.50465477
000070 88 72 12 3f f1 c3 1c 3f 18 9d 16 3f 6a ec ea 3e
       0.5720601 0.6123648 0.58833456 0.45883495
000080 48 d7 30 3f 04 6f 14 3f 8e 68 1f 3f
       0.69078493 0.57981896 0.6226891

encoder.batch_norm.bias f4 [35]
000000 2d d3 a4 be f0 5e c0 be fd bb 8c be 32 92 4e be
       -0.32192364 -0.37572432 -0.27487174 -0.20172957
000010 77 eb b0 be 24 b2 9c be 8a b3 f1 be f3 3e d4 be
       -0.34554645 -0.3060466 -0.4720729 -0.41454276
000020 65 90 be be ce 3b be be 09 c0 a5 be 7e ea a4 be
       -0.3721954 -0.37155002 -0.32373074 -0.32210153
000030 99 ca 92 be 0f 59 e5 be 98 88 bd be b7 c5 8b be
       -0.28670195 -0.4479451 -0.37018275 -0.27299282
000040 5b e1 ce be ba 59 9a be ee 2a e6 be 48 55 c3 be
       -0.40406308 -0.3014658 -0.44954628 -0.38151002
000050 a2 0a 8a be ac fd 2b be fb 08 e5 be 86 5d c8 be
       -0.26961237 -0.16795987 -0.44733414 -0.39133853
000060 62 fc ad be 20 d4 2b be 78 db bd be 80 e5 d2 be
       -0.33981615 -0.16780138 -0.37081504 -0.4119072
000070 ad 0a 9e be 59 74 7e be 03 ca a2 be 9f 01 e1 be
       -0.3086752 -0.2484907 -0.31794748 -0.4394655
000080 fb 68 22 be e4 9c b2 be 7f 69 69 be
       -0.1586036 -0.34885323 -0.2279415

encoder.batch_norm.running_mean f4 [35]
000000 a9 2e 84 41 2d a6 b4 c1 4d 9c 4c c1 fa d7 47 c0
       16.522783 -22.58114 -12.788159 -3.1225572
000010 27 bd a2 41 1a e8 7e c1 af 03 0d 41 92 98 53 41
       20.34236 -15.931665 8.813399 13.224749
000020 d1 3d 83 c1 20 05 40 c1 81 38 78 41 7d e6 62 c0
       -16.405184 -12.001251 15.513795 -3.545318
000030 87 e6 d3 c0 ac 3c ad 41 2a ec 65 41 22 0d 54 c0
       -6.6218905 21.654625 14.370157 -3.3133016
000040 7d 7e b4 c0 20 27 f2 c0 79 5f 0c c1 6c a0 e9 41
       -5.6404405 -7.567276 -8.773309 29.203331
000050 37 74 e6 40 cb 64 96 c1 04 c8 d8 41 fd c4 c4 41
       7.2016864 -18.799215 27.097664 24.596186
000060 5b fc 09 3f a4 0d 9b 40 aa a6 f8 3e 13 b8 d4 41
       0.5390069 4.845415 0.48564655 26.58988
000070 0d 4f 9d bf 7e 4a f0 c1 2f 7a 8d c1 b0 5d 88 41
       -1.2289749 -30.036373 -17.68466 17.045746
000080 90 b5 63 c1 b2 79 99 3e 21 78 0f 3f
       -14.231827 0.2997566 0.5604268

encoder.batch_norm.running_var f4 [35]
000000 91 e5 24 42 c7 34 36 42 12 08 c0 41 d9 b1 2d 43
       41.224186 45.55154 24.00394 173.69472
000010 60 b5 ca 41 91 d3 ce 42 c0 a7 7f 42 f6 bf 9f 41
       25.338562 103.413216 63.91382 19.96873
000020 1d 07 89 42 30 c5 0d 42 ac 76 6d 42 63 4d 57 42
       68.51389 35.442566 59.36589 53.825573
000030 81 56 27 42 ea 98 f0 41 63 1f 86 42 69 46 4c 42
       41.834476 30.074665 67.0613 51.06876
000040 b1 cc de 41 5b 3c 1c 42 51 23 25 42 03 16 a1 42
       27.849947 39.05894 41.28449 80.54299
000050 b3 36 0a 43 8b 23 13 43 67 24 b1 42 44 b4 80 42
       138.21367 147.13884 88.5711 64.35208
000060 87 77 ab 41 ae c5 f4 42 97 6c 92 42 49 63 4b 42
       21.433363 122.38609 73.21209 50.84696
000070 7d fa 06 42 36 7c 9c 42 16 ed 47 42 f5 e2 02 42
       33.744617 78.2426 49.98153 32.721638
000080 e0 f3 02 43 11 f9 24 42 c8 d3 81 42
       130.95264 41.24323 64.913635

encoder.mean_layer.weight f4 [25, 35]
000000 83 1d 9d bc d9 f4 6b 3c 43 f8 aa bc 7c 68 9f 3c
       -0.019179111 0.014401638 -0.020870334 0.019459002
000010 bc d6 94 bc 9a 7d 1f bc 79 5a e1 3a c0 b0 c5 bc
       -0.0181688 -0.009734536 0.0017193101 -0.024132133
000020 9a df bd bc f0 12 a5 3b ba 8a 19 bc e6 f8 8a 3c
       -0.02317791 0.005037658 -0.009371454 0.016964387
000030 c3 bf 04 3d e0 8d 54 bb e2 34 91 bc ad 12 20 bc
       0.03240944 -0.0032433197 -0.017725412 -0.009770078
000040 26 75 b0 bc 9c ea c1 3b a8 5e ba bc a5 8e 48 bc
       -0.021540236 0.00591786 -0.022750214 -0.01224104
000050 0d f2 90 3c 27 15 a2 3c e4 3f 77 bc 58 3c 1c bc
       0.017693544 0.019785477 -0.015090916 -0.009535871
000060 c4 53 bc bc 89 01 f7 3c fd 9d 2b bc 25 d5 59 bc
       -0.022989161 0.0301521 -0.010474679 -0.0132954465
000070 2c 83 86 3c 54 2e 52 3c f3 e8 d6 3c 3a 6f 1a ba
       0.01641997 0.012828428 0.026234126 -0.0005891208
000080 ef c9 9b 3c 26 b3 ec bc ab 5b c7 3c 4e 1f 85 bc
       0.019017188 -0.028894018 0.024335703 -0.016250279
000090 73 95 02 3b 50 73 8d bc ed 48 d1 3b fd 14 d5 bc
       0.0019925504 -0.0172669 0.0063868673 -0.026010985
0000a0 4a 04 26 bb fe f0 95 bb 17 5b 42 bc 9b ad 33 bc
       -0.0025332146 -0.0045758476 -0.011862538 -0.010966684
0000b0 c6 56 91 bb d1 17 24 bc 7f 25 c9 3b e0 63 69 3c
       -0.004435393 -0.010015444 0.006138503 0.014245003
0000c0 21 34 ba 3c 8c 7e fd 3a 08 d1 09 bc f8 a8 83 3a
       0.022729935 0.0019340082 -0.008411653 0.0010044863
0000d0 88 0e f0 3b 40 d5 d2 bc 02 25 2f bc 4b 56 90 3c
       0.007325951 -0.025736451 -0.010689976 0.017619273
0000e0 38 98 d9 3a a8 dc 79 bc 54 ea ee 3a 08 9a 8f bc
       0.0016601151 -0.015250362 0.0018227794 -0.017529503
0000f0 b0 01 ac 3c f9 bf 86 bc 51 c4 c0 bc 9d 5f b2 3b
       0.020996898 -0.016448962 -0.023531111 0.005443527
000100 07 f1 22 3c d2 0f ab 3c a2 08 8d 3b 36 79 86 3c
       0.009945161 0.020881567 0.0043040076 0.01641522
000110 89 b2 08 3b 4c c9 f2 3b 84 62 6e 3c ee f0 97 38
       0.0020858368 0.0074092504 0.014549855 7.245118e-05
000120 89 b0 b9 3a 3a 14 05 bc a4 a5 91 3c 54 7b bf 3b
       0.0014166991 -0.008122498 0.017779179 0.0058435593
000130 66 b3 ed 39 bf ae 25 bc 50 5c 65 3c 73 b1 02 bb
       0.00045337825 -0.0101124635 0.01399906 -0.0019942194
000140 c0 4a 79 3b d6 51 28 bc c8 fb e8 ba 82 61 1b 3c
       0.003803894 -0.010273417 -0.0017775232 0.009483697
000150 a1 e7 87 3c ab 8f a3 bb 11 f9 e6 bb 38 ad ac bb
       0.016589941 -0.004991492 -0.007048734 -0.0052696727
000160 6a 50 9f 3c ac d7 2c 3c a4 12 77 3b 37 43 1c bc
       0.019447524 0.010549467 0.003770032 -0.00953751
000170 2a 3a 45 3c 74 09 19 3c dc 42 27 bc 0d 43 01 3b
       0.012037793 0.009340633 -0.010208812 0.0019723803
000180 40 25 b8 3b 71 e4 d0 3b 50 1a 67 bc 55 93 7f bb
       0.005619675 0.0063748886 -0.0141053945 -0.003899773
000190 d6 ef 21 bb de a7 26 bc 5b 94 ae bb 63 2b 27 3b
       -0.0024709604 -0.010171859 -0.005327744 0.0025508038
0001a0 bd 6c 63 bb 55 5f af 3a 74 63 a3 3b 42 bf de 3b
       -0.0034702264 0.0013379852 0.004986221 0.006797702
0001b0 9f e8 7e bc 7e 7f bd ba 52 d4 15 3b 3f a0 54 bc
       -0.015558391 -0.0014457551 0.0022862148 -0.012977659
0001c0 dd 73 a1 3c 8b a8 80 bb e2 99 56 bb 2b b4 9c ba
       0.019708568 -0.003926342 -0.003274553 -0.001195555
0001d0 43 c0 b0 ba 5b 92 79 bc 27 fa aa 3c fa 8b 3f 3c
       -0.0013485033 -0.015232648 0.020871235 0.011691088
0001e0 57 34 03 3c 34 f0 8d 3b 21 4b 94 3b 7f a7 1e 3b
       0.008008084 0.004331613 0.0045255576 0.0024208722
0001f0 1c 80 f9 3b f1 dd 0a bc 90 3d 66 bc 26 42 1f bb
       0.007614149 -0.0084757665 -0.014052764 -0.0024300902
000200 dc 09 b9 3b d4 1d 9f 3c 6b 2e e7 bb 91 b3 9b 3b
       0.0056469273 0.019423403 -0.007055094 0.0047516306
000210 4f f6 00 bc 07 26 c1 3b 73 3b 17 bc 2a 8b 05 bc
       -0.007871225 0.005894426 -0.009230482 -0.008150855
000220 9e 02 26 ba 60 73 2d bb b7 6f d3 3c 2c a1 da b9
       -0.00063327875 -0.0026466474 0.025810106 -0.00041700283
000230 f4 80 30 3c 00 58 24 34 6b 98 98 3c a7 98 89 3b
       0.010772932 1.5305704e-07 0.018627366 0.004199106
000240 5c b3 65 3c b0 ed 00 bc d3 13 b8 bb ce e4 fe 3c
       0.014019813 -0.007869169 -0.0056175976 0.031114962
000250 cb 6a 13 bb 68 8b 22 bb 1e e8 89 3b 45 d6 2a bb
       -0.0022494073 -0.002480233 0.0042085787 -0.0026067656
000260 18 25 e9 3a 84 98 f8 3b d8 5f 3c 3b cc f6 ad bb
       0.0017787544 0.0075865407 0.002874365 -0.0053089615
000270 b2 c9 2c 3c 42 61 95 bb fe e3 33 bc 31 97 8d bb
       0.010546135 -0.004558713 -0.010979651 -0.004321002
000280 80 0d a5 bc 93 25 4a bc a6 f2 f3 bb ae bb 34 3b
       -0.020148039 -0.01233806 -0.0074446974 0.0027577686
000290 f6 d3 ae 3b ec 2d c9 bb 17 44 9b 3c bc 58 94 bc
       0.0053353263 -0.0061395075 0.018953366 -0.018108718
0002a0 06 60 ab bb 69 61 af 39 16 0b 4f bc bb 9f fa ba
       -0.0052299527 0.00033451177 -0.01263692 -0.001912109
0002b0 a2 84 26 bc 68 b9 24 3c 4e c5 55 bb 60 59 50 ba
       -0.010163458 0.01005397 -0.0032618823 -0.0007947888
0002c0 51 53 75 bb e0 22 b8 bb b8 e8 5a bc 39 24 c3 3a
       -0.0037433694 -0.005619392 -0.013361149 0.0014888115
0002d0 f0 7d 04 3a e4 1f 36 bc 66 1b 96 bb a6 50 2a 3c
       0.00050541665 -0.011116002 -0.004580903 0.010395205
0002e0 a5 ec ca 3b 4a 9f 00 bb f5 cb bc bb 6b 4c 05 3c
       0.006192761 -0.0019626194 -0.0057616183 0.008135895
0002f0 8f 91 ae bc 91 ad c1 bb a4 06 5b ba ab 89 e8 bb
       -0.021309642 -0.0059105833 -0.00083551765 -0.0070964894
000300 f2 7a 24 ba b1 fe 18 3c 18 4a 0f 3c cc 34 47 bb
       -0.0006274424 0.009338067 0.008745693 -0.003039646
000310 2e 92 b9 ba d1 5b af 3b dc 8b 10 bb 56 58 2a 3b
       -0.0014157945 0.0053515215 -0.002205602 0.0025992594
000320 01 98 01 ba bb 08 87 bc e2 f0 0f bb 9b 55 a6 bc
       -0.000494361 -0.016483655 -0.0021963646 -0.020304492
000330 14 c5 dc 3a 10 a8 bd bb 87 33 4b bc 99 07 d1 bb
       0.0016843402 -0.005787857 -0.012402422 -0.0063790795
000340 e5 33 b2 bb de ba 5f ba 29 1e ab bc ae 97 f0 3b
       -0.005438315 -0.000853462 -0.020888405 0.0073423004
000350 be c2 0c bc 6c db c3 3b 8e 89 6b bb 98 4d c1 bb
       -0.008591352 0.005977085 -0.0035940143 -0.0058991425
000360 1f 56 15 bc 8e 15 d3 bb 8e 8d c1 bb 02 0a 65 bb
       -0.009114771 -0.0064417785 -0.005906767 -0.0034948592
000370 cb fb 8c bc 82 a0 43 3b 2a 9d 05 3d c8 8a 4f 3c
       -0.017209908 0.0029850309 0.032620586 0.012667365
000380 20 37 ed 38 76 21 94 bc 92 7f 30 bc 58 99 5a 3c
       0.000113113085 -0.018082362 -0.010772603 0.013342224
000390 4d d0 b2 bc ac 67 b3 bb 0d 28 80 3c 9b 77 9f 3b
       -0.021827841 -0.005475005 0.015644098 0.004866553
0003a0 17 d7 c2 ba c5 9f 74 bc 38 bb 93 bc 05 c7 9a 3c
       -0.0014865127 -0.01493067 -0.018033609 0.018893728
0003b0 ce 51 9c 3b 48 4b 86 bc 43 39 c4 3b a5 d3 8e 3b
       0.004770494 -0.016393319 0.0059882714 0.004358726
0003c0 77 85 c5 3b 97 d7 25 3c fe ce 27 3b 28 7c 78 bc
       0.006027873 0.010122201 0.0025605555 -0.01516632
0003d0 f5 76 a4 3c 97 21 27 bd 95 db d3 3c 35 13 ef bc
       0.020076254 -0.04080352 0.02586154 -0.029183963
0003e0 57 7f df 3c da 7e 24 bd fa d3 8a bc 96 c2 80 3b
       0.0272824 -0.040160038 -0.016946781 0.0039294465
0003f0 56 bb 9b bc f7 1f ec b9 c0 84 7f 3c f3 a8 41 bc
       -0.019010227 -0.00045037243 0.015595615 -0.011820066

encoder.mean_layer.bias f4 [25]
000000 17 c2 6a bc b1 ec 83 bb 63 bd 1e 3a 8c d7 68 3a
       -0.014328501 -0.0040260185 0.00060554425 0.00088822166
000010 1c 98 25 3b 98 fb 00 3c 12 91 ca bb 34 97 79 bc
       0.0025267666 0.007872485 -0.0061818445 -0.015233804
000020 de 6b 98 bb c2 4f 44 bb 90 d3 7a 3c c0 35 1a 3c
       -0.0046515306 -0.0029954766 0.0153092295 0.009412229
000030 ea 33 ab bc 0e ff db b9 1e 87 1d 3c 28 6e 64 3b
       -0.020898778 -0.00041960966 0.009614734 0.0034855697
000040 af 5b a2 3b eb ae eb bb 7e 25 9d bb e0 9d 72 bc
       0.004954777 -0.0071924827 -0.004795729 -0.014808148
000050 d5 8d 44 bc e8 cf 49 bb 1d 76 d4 ba 55 b0 c3 3b
       -0.011996706 -0.0030794088 -0.0016209517 0.005971948
000060 24 41 ae 3b
       0.005317824

encoder.log_var_layer.weight f4 [25, 35]
000000 16 19 02 bc 35 c1 60 bc b9 50 f4 3b 63 53 3e bb
       -0.007940551 -0.013717939 0.007455912 -0.0029041402
000010 30 91 bb bb 73 27 b5 3b 18 e4 9d bb 31 ad e8 ba
       -0.005724095 0.0055283844 -0.0048184507 -0.001775181
000020 85 a3 ba 3a b9 8b 0b bc c5 d8 ae 3b 82 2f 21 3b
       0.0014239406 -0.008517199 0.0053358995 0.0024594967
000030 d0 98 95 3a e2 e1 fa bc d5 f1 e8 bb 40 16 23 3b
       0.001141334 -0.030625287 -0.0071089067 0.0024885088
000040 b6 bc 30 3c fe 81 7e 3b d3 41 8f bc d5 78 8c 3b
       0.01078718 0.0038834806 -0.017487442 0.0042868652
000050 a7 36 e9 3a 2c 65 1d 3c fc 2a e7 3b 27 71 a3 bc
       0.0017792777 0.009606641 0.0070546847 -0.019951416
000060 b7 5a af 3b 47 8c 8e bb 5f ff 16 bc 07 5c 57 bc
       0.00535139 -0.0043502185 -0.009216159 -0.0131445
000070 10 b9 05 3c d3 85 b7 bb bf 79 58 3c fa 04 bc bb
       0.008161798 -0.00560067 0.01321262 -0.005737898
000080 73 3b da ba d9 5f cf bb 3c 77 4a 3c 19 d9 86 3b
       -0.0016649797 -0.0063285646 0.012357529 0.0041152355
000090 37 a8 54 bc 79 94 82 ba cf 74 10 3b d0 52 d1 3b
       -0.012979559 -0.0009962461 0.002204228 0.006388046
0000a0 b0 a4 81 b8 1a 86 bc bc f1 8d aa 3b 07 ed 58 3c
       -6.181875e-05 -0.023013163 0.005204909 0.0132401055
0000b0 f0 c4 96 3b 2e ec 39 bc 45 04 00 3b 78 3f 0f 3b
       0.0046011135 -0.0113478135 0.0019533795 0.0021857899
0000c0 4d 1e 1a 3c 01 76 50 3b cb cb 00 3c 89 41 33 3c
       0.009406638 0.0031808617 0.007861088 0.010940918
0000d0 7e b6 76 bb c4 2e ad 3b 47 7d 18 3c 31 d9 62 3c
       -0.0037645395 0.005285116 0.009307212 0.013845728
0000e0 67 e0 01 3c 45 ad 26 3c 58 c5 8f ba c5 1f 44 3b
       0.007927037 0.010173147 -0.0010968847 0.0029926163
0000f0 bd 11 a8 3a 55 95 a1 bb 92 d3 2b 3c 75 e1 2c 3c
       0.0012822669 -0.004931132 0.010487454 0.0105518
000100 c6 56 9e bb 3d b5 86 bb 9b 8c bf 3a 80 22 fe 3b
       -0.0048321215 -0.0041109608 0.0014614047 0.0077555776
000110 b0 bc 61 bb 7b ab 06 3b 05 5a 24 bc 55 52 1f bc
       -0.0034444742 0.0020548988 -0.010031228 -0.009724219
000120 c5 4d a6 ba 36 df 8e ba 51 3e 0a 3c 82 22 37 3b
       -0.0012687972 -0.0010900262 0.008437709 0.0027944152
000130 47 08 62 3c fd 01 02 bc e9 be 8a 3b 26 64 86 ba
       0.013795919 -0.007935044 0.004234184 -0.0010253235
000140 f8 be b6 b8 e4 15 1d bb 7f 96 6f 3c 7f 63 ae bb
       -8.714007e-05 -0.0023969347 0.014623283 -0.0053219195
000150 5f 12 22 bc b3 c9 ac bb af fe 1e bb 34 fe 97 bb
       -0.009892075 -0.005273068 -0.002426069 -0.0046384577
000160 18 35 2c bc 46 24 58 3b 2a b8 0a b9 7f ad b3 ba
       -0.010510705 0.0032980605 -0.00013229312 -0.0013708322
000170 cd 8f 02 bc 40 88 bc 3a 1f cb b8 ba f3 aa 72 3b
       -0.007968855 0.0014383867 -0.0014098621 0.0037028163
000180 11 c4 11 bc 3f 49 10 3b 64 1e 9a b8 bf 12 06 bb
       -0.0088968435 0.0022016314 -7.348953e-05 -0.002045795
000190 34 d8 7f 3b 54 37 c7 3b ba 7d 74 ba f4 21 3e bb
       0.003903878 0.0060795937 -0.0009326596 -0.0029011937
0001a0 5c dc 5c 3b ed 17 17 3c 71 30 29 bc 91 e6 3d bb
       0.003370068 0.009222013 -0.010326491 -0.002897654
0001b0 bb 4d 84 3a f6 f4 db bb 35 e7 1f bb 0e 3c bf bc
       0.0010093966 -0.006712551 -0.0024399285 -0.023344066
0001c0 ce 58 41 bb b4 ed 22 3c 0c 8f 80 3b df bf 27 3c
       -0.0029502395 0.009944368 0.0039233025 0.010238617
0001d0 5a c5 0d 3b 06 3f 1a 3c aa 6f ac bc 56 fd a6 3b
       0.0021632523 0.00941444 -0.02104934 0.005096118
0001e0 94 5f 3f bb d9 86 05 bc 7b 07 0d 3a a9 9c 80 bc
       -0.0029201256 -0.008149826 0.0005379838 -0.015699701
0001f0 8a e6 95 3a 3b cb 2e 3c c7 1b 56 ba 28 be b1 3c
       0.0011436504 0.010668571 -0.00081675913 0.021697119
000200 d5 f2 b5 bc c9 80 db bb 5e ef 29 bc 94 47 0c bb
       -0.022210518 -0.006698702 -0.010372011 -0.0021404969
000210 05 a9 1b 3b e1 77 63 3b 3f 6b 3f bb 7a 18 f5 3a
       0.0023751867 0.0034708905 -0.002920821 0.0018699311
000220 60 c5 36 3c c1 09 99 ba 56 23 8c bc 8a 50 dd bb
       0.011155456 -0.001167588 -0.017106693 -0.006753986
000230 9f 55 61 bc 0e 93 ce bb ce ab 4f bc 51 61 c9 3a
       -0.013753324 -0.0063041514 -0.012675239 0.0015364086
000240 ab 11 05 3b c6 f4 1c 3c 3c fb 2e bc c0 5b 89 bc
       0.002030472 0.009579843 -0.010680016 -0.016767383
000250 17 2a de bb ce 42 df 3a 53 0e 7e bc b4 07 df b8
       -0.00677992 0.0017033459 -0.015506345 -0.000106349034
000260 f8 93 fd 39 34 dc 80 3a 9f 9a e3 3b a0 6f 2d 3a
       0.00048366166 0.0009831251 0.0069459225 0.00066160597
000270 45 be 14 3c b9 2f 26 3c 82 5b 16 bc 14 29 e8 ba
       0.009078567 0.010143214 -0.009177091 -0.0017712438
000280 64 c9 8e 3a 11 c8 ab 3a a1 4b 19 bc 28 24 0d bc
       0.0010893759 0.0013105889 -0.00935641 -0.008614577
000290 0d 43 d0 bb a5 f9 71 bb 6a f5 7e 3b da ed 33 bc
       -0.0063556493 -0.0036922481 0.0038903602 -0.010982001
0002a0 00 18 45 3c 82 96 39 3b a8 86 52 3c 42 af d6 3b
       0.012029648 0.002831847 0.012849487 0.006551654
0002b0 2a 60 17 bc d7 60 08 bb 98 90 06 3c 49 ba 47 bb
       -0.009239236 -0.0020809674 0.008213185 -0.0030476025
0002c0 98 ad 56 bb ed d8 1f bc 65 a8 b7 3b 51 c5 16 bc
       -0.0032757279 -0.009756309 0.005604791 -0.009202317
0002d0 42 20 c9 3b 8d 3f cf 3a 8e 63 5f bb a0 b2 93 3c
       0.0061378786 0.0015811786 -0.0034086439 0.018029511
0002e0 86 fb 50 bb 9f 1d e4 bb 5e e8 5a bb c7 f2 59 bb
       -0.00318882 -0.006961539 -0.0033402662 -0.003325628
0002f0 ff 3a 3b 3c 4b 4d ee bb ed 66 2f bc 1c 0f b2 3b
       0.01142764 -0.0072723976 -0.010705692 0.00543393
000300 7c a8 b0 bb 30 f6 54 bc aa a5 6e bb de 95 34 3c
       -0.0053911787 -0.012998149 -0.0036414661 0.011022059
000310 c1 24 43 bb d2 9e 48 3c b3 dd 1a 3c 55 96 7c bc
       -0.0029776546 0.012244897 0.009452271 -0.015416701
000320 b1 b4 d9 3b ae 84 e5 bb ae 16 e7 bb aa 33 3f 3c
       0.0066438545 -0.007004342 -0.007052264 0.0116700325
000330 ce bf c7 3b 81 75 6b 3b 3f ae 6e bb b4 a9 84 3b
       0.006095863 0.0035928192 -0.0036419777 0.0040485505
000340 86 3e f5 bb fe 93 d8 3a b9 f7 5a bc 9b 2e 82 3a
       -0.00748426 0.0016523597 -0.013364726 0.0009932102
000350 bc 9b cf bb d7 f3 a5 3a 91 d4 08 3c 7c 4a 78 3b
       -0.0063357037 0.0012661171 0.008351461 0.0037886193
000360 ab 48 1f bc 69 86 e5 bb 2f df f9 3b e0 af cb 3b
       -0.009721915 -0.0070045483 0.0076254825 0.0062160343
000370 20 02 99 bb 8d 92 20 39 b1 a7 b1 3b 28 16 12 3a
       -0.004669443 0.00015313383 0.0054216017 0.00055727595
000380 89 04 99 bc 84 aa 2b bc f3 4e 93 3b 91 03 0c b9
       -0.01867892 -0.010477666 0.0044954955 -0.00013352769
000390 da 49 0a bc 6c 49 07 bc 60 71 69 bb 86 54 2c 3b
       -0.008440459 -0.008257251 -0.0035620555 0.0026295497
0003a0 24 a6 21 bc 65 3c 29 bb 9d 20 ae bb 7a 71 fd 3b
       -0.009866271 -0.0025823351 -0.0053139464 0.0077344747
0003b0 09 20 3d bb c9 29 ec bb c8 46 6f 3b 92 ae b8 ba
       -0.0028858206 -0.0072071296 0.0036510695 -0.0014090112
0003c0 fc fd 00 bb bd fe ea 3b 79 e6 de ba 8a 46 0a 3c
       -0.0019682636 0.0071714805 -0.0017005942 0.008439669
0003d0 71 a2 15 3b 84 54 73 3b 03 4c 26 3c 4f 1d 51 3a
       0.0022832418 0.0037129233 0.010149959 0.00079770846
0003e0 41 39 c0 3b 7a 1e 0f bc 96 44 ac 3b a8 ef ca 3c
       0.0058662 -0.0087352935 0.0052571995 0.02477248
0003f0 18 0b ad 3b 9f 39 5c 3c 08 bb 2a bb d8 46 b6 bc
       0.0052808635 0.013441472 -0.002605142 -0.022250578

encoder.log_var_layer.bias f4 [25]
000000 5e 5c 00 bb cd 4f 22 3a 1d 3b 62 3b 73 ad 25 bb
       -0.0019586305 0.0006191701 0.0034520098 -0.0025280386
000010 91 fe c3 b9 99 7f ec ba 07 5e b8 bb b3 41 12 bc
       -0.00037382965 -0.0018043398 -0.0056264433 -0.008926797
000020 3c 0d b5 b9 1d 49 2e 3b 60 02 11 bc 10 6a 17 bb
       -0.0003453287 0.0026593872 -0.008850664 -0.002310399
000030 2d 66 ba bb 3f 05 d2 38 77 72 54 bb 24 b6 8e bb
       -0.00568845 0.000100145575 -0.003241686 -0.004355209
000040 1e ad 27 bb 88 97 b9 3b ab a3 da 39 9c 73 2f bc
       -0.0025585364 0.005663816 0.00041702142 -0.010708716
000050 f6 21 f2 b9 2c 79 97 ba f2 29 57 bb a1 be 21 bb
       -0.0004618314 -0.0011556498 -0.0032831398 -0.0024680274
000060 27 38 17 bc
       -0.009229696

decoder.input_layer.weight f4 [54, 25]
000000 b1 88 1c bd 4e 35 a3 bd 48 fc 39 3d 08 30 c0 bc
       -0.038216297 -0.079691514 0.04540661 -0.023460403
000010 d6 dd 4d bd 81 70 0a be 8d 47 89 bc dc d7 20 3d
       -0.050260387 -0.1351948 -0.01675775 0.03926836
000020 f9 b6 03 3e a4 43 2d be b6 6d 4d 3d 57 92 53 bd
       0.12862767 -0.16920334 0.050153457 -0.051653232
000030 84 57 3c 3e 47 cb 08 bd 15 f2 39 be 1b d1 02 3e
       0.1839276 -0.033396985 -0.18158753 0.1277508
000040 c0 d0 32 3d 7c 2c ea bd 9b 01 07 be 02 5c 49 3e
       0.04365611 -0.11434266 -0.13184206 0.19664004
000050 59 72 44 3e 4c 1b 50 3e 30 9f 97 3d 4d d5 1a bd
       0.19184245 0.20322913 0.074034095 -0.037801076
000060 5f df e1 bc 53 a4 6e 3e ac 0d 06 be 8a c2 e6 3d
       -0.027572332 0.23304872 -0.13091153 0.11267574
000070 e0 fb f5 bd 56 d7 0d be b4 cb 6e 3e 18 05 d0 3d
       -0.12010932 -0.13851675 0.23319894 0.101572216
000080 47 c2 01 bd a4 57 75 3d 0e e2 c1 3d 5b dd 3c be
       -0.031679418 0.059898034 0.09466945 -0.18443815
000090 09 72 8a bd d6 31 e2 3d a1 4a b1 bd 98 1d e6 bd
       -0.06760032 0.11044662 -0.086568125 -0.11236113
0000a0 f4 5d 00 bd 94 5f 82 bd 27 ea 04 3e d1 ea 9c 3d
       -0.0313396 -0.06365886 0.12979947 0.07661975
0000b0 a1 af bb 3a 0e 16 6c 3d 46 76 a5 bd ac ca 11 bd
       0.0014319309 0.05763822 -0.080791995 -0.035593674
0000c0 89 34 09 3e fa 13 38 be 1a b0 1b be 96 e2 65 3c
       0.13398947 -0.1797637 -0.15203896 0.014031073
0000d0 ac f1 f3 3c 89 14 09 3e b6 17 c4 bd ea f6 62 bc
       0.029778324 0.1338674 -0.09574835 -0.013852814
0000e0 58 6b cd bd e3 67 75 be 4c aa fa 3d b1 c9 a6 bd
       -0.1003024 -0.23965411 0.12239513 -0.08143938
0000f0 9b 7a 3b 3e a2 68 8d bd cb 6d 41 be e0 34 7c 3a
       0.18308489 -0.06904723 -0.18889539 0.0009620916
000100 30 30 da bd 25 79 b9 3d f7 24 bc 3d 76 df 2e 3e
       -0.10653722 0.090563096 0.09186738 0.17077431
000110 9f 71 ee 3d 85 de 46 bd 19 8a 1e 3e 10 2f 21 be
       0.11642765 -0.048552055 0.15482368 -0.15740609
000120 7b f1 2d 3e 92 3f 16 3e 1c 39 36 3e f4 6f a4 3d
       0.16986649 0.14672688 0.17795223 0.08029166
000130 cf d3 12 3e 5e e3 8d 3d a0 f3 20 3e f9 00 e6 3c
       0.14338611 0.069281325 0.15717936 0.028076636
000140 3a b4 2c 3c a7 ef 6d bd 52 f9 f7 3d a3 00 07 3e
       0.010541016 -0.05808988 0.12108101 0.13183837
000150 0f 3d 32 bc f5 0d 77 bc f7 53 07 be c1 89 f4 3c
       -0.010878815 -0.015079011 -0.13215624 0.029850842
000160 20 e3 04 3e bc 1f 9a bd ef 81 a7 bd 57 33 49 3e
       0.12977266 -0.07525584 -0.0817908 0.19648491
000170 f5 61 dc 3d 3d 7f b0 3c 6c 77 17 3d ed ef 7c be
       0.10760871 0.021545047 0.036979124 -0.247009
000180 5b 8b 46 be 02 35 b1 3d 2b 8a 3d 3e e7 d4 4f bc
       -0.19389097 0.086526886 0.18509738 -0.012685037
000190 55 53 2b be 46 b1 bc 3d 10 d0 3e 3a 54 72 89 bd
       -0.16731007 0.092135 0.00072789285 -0.067112595
0001a0 c9 f0 0e be 7f bf 8b 3b e5 28 43 bd 59 2c c7 bc
       -0.1395904 0.0042647715 -0.047646422 -0.024313139
0001b0 61 d4 75 bd 8b de 49 be 95 92 1d be f5 b4 2d be
       -0.060016993 -0.197138 -0.15387948 -0.16963561
0001c0 20 20 6e be aa 48 9c 3d 26 5e 0a 3e 9f d7 82 3d
       -0.23254442 0.07631047 0.13512477 0.06388783
0001d0 f6 bc f8 3c 7b e5 4e bd b6 6b d6 3d 58 76 fc bd
       0.030363541 -0.05051182 0.10469763 -0.1232726
0001e0 b0 29 ca bd 09 ee c5 3d 9f 91 57 bd d8 75 8c 3d
       -0.098712325 0.09664542 -0.05262911 0.068584144
0001f0 f9 09 06 bd de e0 03 3e c1 28 81 3d b1 0e 32 be
       -0.032724354 0.12878749 0.06306601 -0.17388417
000200 89 cc 04 be 0c 8b b9 3d 86 dd f1 bc 99 48 3e be
       -0.12968649 0.09059724 -0.029524576 -0.18582381
000210 33 ba 3c 3e 0b 3e 6a 3d 96 31 31 bd 6d 61 07 3e
       0.18430404 0.057188075 -0.04326018 0.13220759
000220 7f 3e 86 bd 34 ef e2 3d 4b cd 0c 3e a1 f4 8a be
       -0.06554889 0.110807806 0.13750188 -0.27139762
000230 e0 22 30 be cf 7d e6 3d 2f a8 4b be c6 80 13 3e
       -0.17200804 0.11254465 -0.19888376 0.14404592
000240 44 84 e0 3c d0 a6 6b bd 16 ab 8d bb b3 4a 34 3b
       0.02740682 -0.05753213 -0.0043233735 0.0027510345
000250 c1 5c bf bd 43 09 cd bd c2 10 be 3d 5e a7 9f bb
       -0.09343863 -0.10011532 0.0928054 -0.0048722466
000260 5a 6c 53 3d 33 1e cd 3d 5e bb 32 3e 71 dc 06 be
       0.051617004 0.10015526 0.17454287 -0.13170029
000270 17 b2 a2 3d d5 56 10 3e 1d 4b 4e 3e ca ba d1 3d
       0.07944124 0.14095624 0.20145841 0.10240705
000280 8c 32 da 39 f4 e3 ba 3c a4 d8 60 be ba b3 99 bd
       0.0004161786 0.022813775 -0.21957642 -0.07504983
000290 70 be 1a 3e 45 3c 52 be 7a 65 95 bc 77 ae 43 bd
       0.15111709 -0.20530804 -0.018236864 -0.047773805
0002a0 ea 81 0c 3e 30 ba 08 be 59 8c d3 3c 33 0c 1a be
       0.13721433 -0.13352275 0.025823759 -0.15043716
0002b0 29 ae 34 3d f9 4a 4e bd c5 73 21 3e 91 80 a7 3c
       0.044111405 -0.05036447 0.15766819 0.020447047
0002c0 cb 8b a1 3d e4 91 0e 3e 4a a9 95 3c ba 95 ef 3d
       0.078879915 0.1392284 0.0182692 0.1169848
0002d0 c4 72 39 be 1e 30 52 be bc 60 7c bd ff 1f 5b be
       -0.18110186 -0.20526168 -0.06161569 -0.21398924
0002e0 06 79 7b be f9 d4 fe 3d a0 c3 ba 3d 41 d6 0b bd
       -0.24557886 0.12442965 0.09119344 -0.034139875
0002f0 44 f3 c5 ba 74 47 84 3d d0 4a da 3b 89 ec 1e be
       -0.0015102406 0.06458941 0.0066617504 -0.15519919
000300 60 0a c0 bd da 15 2f 3c 84 7a e8 bd f3 19 24 3d
       -0.09376979 0.010686362 -0.11351493 0.04006381
000310 10 e0 3b 3d 0b a7 f2 bd 3e 8a 1d 3e 71 41 9e 3c
       0.04586798 -0.11848267 0.15384766 0.019318314
000320 27 38 0e 3e e8 d2 d0 3d 50 34 4f 3d ef 2c 21 3e
       0.13888608 0.10196477 0.050587 0.15739797
000330 bf 99 df bd 28 58 65 be 17 cd 25 3e ac 25 5b be
       -0.109179966 -0.2239691 0.16191517 -0.2140109
000340 94 50 b3 bd 7b 7b d4 bc 16 e9 dc bd 85 98 9c bd
       -0.087556034 -0.025937786 -0.10786645 -0.07646278
000350 47 00 58 be 37 4c ed 3c 4e 6a 0c 3e 8c 56 00 3e
       -0.21093856 0.028967006 0.13712427 0.12533015
000360 89 a1 3a 3e dc 9b 01 be c6 72 14 be 42 a8 b8 bc
       0.18225683 -0.12657112 -0.14496908 -0.02254117
000370 cb ed 9e 3d c7 ad 1d be 13 26 72 be 07 f9 3b bd
       0.07760199 -0.15398322 -0.23647337 -0.045891788
000380 97 cc a2 bb 28 d8 78 bd 29 83 a6 3d 0f bf e6 bd
       -0.0049682367 -0.060753018 0.081304856 -0.1126691
000390 b8 19 23 be 59 f5 40 3e 78 67 17 3e 5a d0 55 bd
       -0.1592778 0.18843593 0.14785564 -0.052200653
0003a0 e7 60 4a 3c 88 2c 85 bd b6 56 77 be c8 62 26 3e
       0.012352205 -0.06502634 -0.24154171 0.1624862
0003b0 c9 1d c1 3d c3 47 5e 3d 6f b3 e3 3d 48 0d e2 3d
       0.09429509 0.054267656 0.111182086 0.110376894
0003c0 dd 36 f7 3c c1 7c f9 3c ab ae 50 3e d7 dd 15 3e
       0.030177528 0.030454995 0.2037913 0.14635406
0003d0 7b 1b 0e bd 46 ef 21 3e 48 a7 25 bd b8 1d 72 3d
       -0.034694176 0.15813932 -0.040442735 0.059110373
0003e0 68 96 d1 bd 04 a7 6d 3e 92 cc 00 bd 6c b5 d9 bc
       -0.10233766 0.23208243 -0.031445093 -0.026575767
0003f0 d9 ee a1 bd 87 bf 04 be e5 1f 05 be b1 61 bc bd
       -0.07906885 -0.12963687 -0.13000448 -0.09198321

decoder.input_layer.bias f4 [54]
000000 4a 9a 15 be f4 e5 ec 3d 5d e6 87 3b 25 74 08 be
       -0.14609638 0.115672976 0.0041473345 -0.13325556
000010 ad 87 69 be aa aa 52 bd ec 75 85 3d de d5 c8 3d
       -0.22805662 -0.05143229 0.065166324 0.09806417
000020 6c 3b a5 bc 7c be 0d bd 2d 8f 25 3e 0c 77 f4 bd
       -0.020169936 -0.03460549 0.16167898 -0.11936769
000030 45 be 41 be 7a e3 22 3e 2f af 55 be 34 a1 0b be
       -0.18920238 0.15907088 -0.20867608 -0.13635713
000040 5b 40 43 3d 86 fa 96 bd ab b5 32 3d 4a 3f ca 3d
       0.047668796 -0.07372002 0.043630283 0.09875353
000050 bf 23 22 3e 52 2a ff bc d0 8b 27 3e 34 92 77 3d
       0.15833949 -0.03114811 0.16361928 0.060442165
000060 a2 15 04 3d bf 18 11 be 10 dd 10 3e 05 8e 2a be
       0.032247193 -0.14169596 0.14146829 -0.16655739
000070 c0 be 2b be 61 09 1c be 8d 20 cb bd c6 e8 1e be
       -0.16771984 -0.15237953 -0.09918318 -0.15518484
000080 80 12 19 be 14 d5 84 3c 45 1c df bd 08 3f 10 be
       -0.14948463 0.016214885 -0.10894064 -0.14086545
000090 ad c6 2e bd 3a be 37 be f1 64 08 3e a5 96 33 be
       -0.04266994 -0.1794366 0.13319756 -0.17537935
0000a0 81 55 3b 3d 29 bb 36 be 7d 05 96 bd 9d 64 03 be
       0.04573584 -0.17844833 -0.073252656 -0.1283135
0000b0 eb d4 10 be 86 0c 23 3d 32 f8 18 bd ca 56 e2 bc
       -0.14143722 0.039806865 -0.037346072 -0.027629275
0000c0 a4 eb ba 3d 5d b1 5b 3d 27 6b 2a be 2b f1 52 bd
       0.09126976 0.053635944 -0.16642438 -0.051499527
0000d0 17 1f 11 be 61 fa 44 3e
       -0.14172016 0.19236137

decoder.batch_norm.weight f4 [54]
000000 5b 13 71 3f 99 d0 87 3f f8 52 84 3f 93 9b 83 3f
       0.9417016 1.0610534 1.033782 1.0281852
000010 e5 b6 89 3f df 8e 83 3f 97 17 6f 3f b7 72 83 3f
       1.075894 1.0277976 0.9339537 1.0269383
000020 29 39 6f 3f 5e 52 82 3f 88 5c 81 3f 3f 13 7e 3f
       0.93446594 1.0181386 1.0106363 0.9924812
000030 9a 55 85 3f 5e c5 77 3f 01 5d 7d 3f cb 22 79 3f
       1.0416749 0.96785533 0.9897004 0.97318715
000040 10 15 83 3f 1c 2d 76 3f c3 12 7c 3f 88 45 79 3f
       1.0240803 0.9616258 0.9846613 0.9737172
000050 01 7a 7d 3f 3d 0b 79 3f 2f b6 75 3f 08 f6 6e 3f
       0.9901429 0.97282773 0.95981115 0.93344164
000060 2f 1d 7a 3f 51 a1 7c 3f e0 99 83 3f 02 63 80 3f
       0.9770078 0.9868365 1.0281334 1.0030215
000070 9c dc 84 3f a3 2a 72 3f a4 00 82 3f 74 51 79 3f
       1.0379825 0.9459631 1.0156446 0.9738991
000080 de 50 78 3f 21 51 79 3f ab ec 84 3f cd 08 86 3f
       0.96998394 0.9738942 1.0384725 1.0471436
000090 86 a7 80 3f 90 ce 7b 3f 51 4b 80 3f bf 90 6b 3f
       1.0051124 0.98362064 1.0022985 0.9201774
0000a0 d2 06 7f 3f 08 ec 73 3f bf ee 81 3f 03 21 7b 3f
       0.9961978 0.9528203 1.0150985 0.98097247
0000b0 76 c0 7a 3f a7 92 70 3f 95 c8 8a 3f 95 aa 86 3f
       0.9794992 0.93973774 1.0842463 1.0520808
0000c0 61 c4 82 3f 35 cb 7e 3f 59 51 7b 3f c8 7b 7c 3f
       1.021618 0.9952882 0.98171 0.98626375
0000d0 22 8e 6c 3f e8 64 6b 3f
       0.9240438 0.91950846

decoder.batch_norm.bias f4 [54]
000000 25 26 e5 3d 55 c5 6b 3e 3f 4e 56 3e 66 70 54 3e
       0.11188916 0.23024495 0.20928286 0.20746002
000010 00 7a 6f 3e 5c 4d 33 3e 43 a9 f0 3d bf b1 29 3e
       0.23386383 0.17509979 0.11751034 0.16571711
000020 cf 60 e7 3d f0 c8 85 3e c9 07 4d 3e f9 e1 1e 3e
       0.11297762 0.26129866 0.20022501 0.15515889
000030 09 49 86 3e 79 9b ce 3d 01 ac 29 3e f3 44 ee 3d
       0.26227596 0.10088248 0.1656952 0.11634245
000040 7a 29 4a 3e a5 69 1d 3e 65 40 43 3e ee 03 c0 3d
       0.19742385 0.15372331 0.19067533 0.093757495
000050 31 ea 74 3e 3f 2b b3 3d 6c 18 f5 3d 3f 0e bb 3d
       0.23917462 0.08748483 0.11967549 0.091335766
000060 fd 1a 0d 3e 8f c5 36 3e b1 0f 19 3e d0 ce 52 3e
       0.13779826 0.178488 0.14947392 0.20586705
000070 c5 2d 7d 3e 74 20 01 3e 3d 31 41 3e 16 43 e5 3d
       0.24724491 0.12610036 0.18866439 0.11194436
000080 8c 38 df 3d 5d 30 bb 3d 34 0c 79 3e f1 3c 7a 3e
       0.10899457 0.09140084 0.24321061 0.2443731
000090 17 04 32 3e 46 a0 38 3e cb 3d 2a 3e c4 dc db 3d
       0.17384373 0.1802989 0.16625135 0.10735467
0000a0 88 41 21 3e 1e ed 10 3e b6 58 6f 3e f6 70 4f 3e
       0.15747654 0.14152953 0.23373684 0.20257935
0000b0 13 1d 07 3e 91 3b 0b 3e 36 19 84 3e e4 18 21 3e
       0.13194685 0.13596942 0.25800484 0.15732151
0000c0 eb 8d 52 3e 75 57 2b 3e 46 ae 3c 3e 4f ea 60 3e
       0.2056195 0.16732581 0.18425855 0.21964382
0000d0 59 b7 8e 3d 06 04 8a 3d
       0.069685645 0.06739049

decoder.batch_norm.running_mean f4 [54]
000000 91 c1 05 be d9 bb 18 3e 50 77 bd bc 90 39 55 be
       -0.13062121 0.14915408 -0.023128182 -0.2082274
000010 32 ec 8e be ad d5 dd bd d7 88 7b 3d 43 3c ad 3d
       -0.27914578 -0.10831771 0.061409798 0.0845876
000020 73 e9 88 bd 2f 1c 3c bd e3 68 f3 3d 43 2a 62 bd
       -0.06685152 -0.045925315 0.1188524 -0.055216085
000030 d8 87 49 be e5 20 e0 3d 6c c4 63 be d3 1b 09 be
       -0.19680727 0.10943774 -0.22242898 -0.1338952
000040 5c 80 85 3d 9a 88 dc bd 56 5c 95 3d 64 46 d2 3d
       0.06518623 -0.10768242 0.07293002 0.10267332
000050 89 18 4e 3e 2b f9 56 bd 04 e0 d3 3d ea 5c 81 3d
       0.20126547 -0.05248372 0.10345462 0.0631655
000060 6e eb e5 3b 65 b1 0e be d4 ee 5e 3e 83 d6 80 be
       0.007016591 -0.13934858 0.21770793 -0.2516366
000070 4c 38 a3 bd b3 49 21 be 99 b1 d6 bd 9d 15 d8 bd
       -0.07969722 -0.1575077 -0.10483093 -0.105509974
000080 f4 9e 2d be dd 7b a7 3d e9 e1 02 be d7 1b a9 bd
       -0.16955167 0.08177922 -0.1278149 -0.08257263
000090 5a 0a 30 be 1a c1 5a be 9e 97 03 3e 55 d4 81 be
       -0.17191449 -0.21362725 0.12850806 -0.2535731
0000a0 5a 5f af 3d 35 e3 06 be 33 a5 c6 bd 75 bc 13 be
       0.08563109 -0.1317261 -0.09699478 -0.1442736
0000b0 b3 4e 14 be 5e ec 86 3d bc dc 9b 3d f9 d6 c6 3c
       -0.14483146 0.06588052 0.07610461 0.024272429
0000c0 0a 92 03 3e a8 ba 0b 3d 20 74 60 be d2 46 aa bd
       0.12848678 0.034113556 -0.21919298 -0.08314289
0000d0 d8 e5 94 bd f4 53 41 3e
       -0.07270402 0.18879682

decoder.batch_norm.running_var f4 [54]
000000 a0 19 98 3e 00 18 ad 3e 64 3d cd 3e c0 85 8c 3e
       0.2970705 0.33807373 0.400859 0.27445793
000010 a2 0e b8 3e e6 01 a9 3e ad 79 94 3e 31 7c eb 3e
       0.35948664 0.3300926 0.2899908 0.45993188
000020 d9 89 e7 3e dd 66 d7 3e b5 74 8c 3e d3 74 9e 3e
       0.45222357 0.42070666 0.2743279 0.30948505
000030 b4 54 d6 3e 15 c6 6c 3e ce 66 e6 3e 6f 8c bf 3e
       0.41861498 0.23122437 0.4500031 0.3741183
000040 a9 ce e5 3e a2 bd f3 3e 42 b9 58 3e 54 fc ca 3e
       0.44884232 0.47605616 0.2116442 0.39645636
000050 a8 8f 8e 3e d2 e9 b2 3e eb 7c eb 3e 81 c6 dd 3e
       0.27843976 0.34944016 0.45993742 0.4331551
000060 2f 2d b1 3e 6b f4 c6 3e 8e fb fa 3e a6 0a c8 3e
       0.34604785 0.3885835 0.49020046 0.39070624
000070 c0 a0 af 3e 8f 30 aa 3e 5e 17 77 3e af 41 18 3f
       0.3430233 0.33240172 0.24130008 0.59475225
000080 f3 d8 74 3e ce 71 a9 3e 94 c6 b0 3e 1b 63 5e 3e
       0.23910885 0.3309464 0.34526503 0.21717493
000090 b5 88 af 3e 52 1c 89 3e 96 1f a9 3e 9b 82 ab 3e
       0.34283987 0.2677942 0.3303191 0.33498082
0000a0 99 f5 86 3e 43 61 3f 3e 56 b5 74 3e ac ec bd 3e
       0.2635925 0.18689446 0.23897299 0.3709463
0000b0 1d 83 c8 3e 0e 64 e4 3e d5 28 94 3e c2 d6 c7 3e
       0.39162531 0.44607586 0.28937402 0.39031035
0000c0 da 72 9b 3e 75 1a a0 3e df ab be 3e 97 db f9 3e
       0.30361062 0.31270185 0.37240502 0.48800346
0000d0 5f f5 d7 3e 58 7c 88 3e
       0.4217939 0.26657367

decoder.lstm_layer.weight_ih_l0 f4 [216, 54]
000000 9b 77 64 3e 80 53 9a 3e 35 8a 9d 3d 88 db 07 3e
       0.22311251 0.3014183 0.076923765 0.13267338
000010 48 e4 31 3e 9b 76 e5 3d 34 37 48 3e 76 1c 27 3e
       0.17372239 0.11204263 0.19552308 0.1631945
000020 1a b4 f9 3d 93 62 25 3e 47 9e d1 3d 28 5b 15 3e
       0.12192555 0.16150884 0.10235267 0.14585555
000030 8f 63 3f 3e c4 79 d4 3d d6 99 26 3d 28 6c 11 bd
       0.18690322 0.103747874 0.040674053 -0.035503536
000040 1f 57 60 3e d0 6f 5e 3e 6f e2 8a 3d 8f 0e 48 3e
       0.21908234 0.2172234 0.0678147 0.19536804
000050 d1 57 26 3e e2 b3 21 3d f3 55 46 3d a3 ae f3 3d
       0.16244437 0.03947819 0.04842181 0.11898544
000060 10 76 5a 3e af 12 8b 3d 5d 62 b4 3d fb 19 dd 3d
       0.213341 0.06790673 0.08807824 0.10795971
000070 bd 1d fe 3d 7b 50 78 3e e4 45 8e 3e 43 e0 4c 3e
       0.12408016 0.24249451 0.27787697 0.20007424
000080 d1 b8 5d 3e 81 8e 03 3e 83 b4 16 3e b2 fc 55 3e
       0.21652533 0.1284733 0.14717297 0.20897177
000090 db ff 11 3e cb 2d ea 3d 7c f1 27 3e b1 ec 50 3e
       0.14257757 0.114345156 0.16400713 0.2040279
0000a0 16 5f 08 3e 8d f4 87 3e 59 b5 61 3e c9 fc 42 3e
       0.13317522 0.26553765 0.22041835 0.19041742
0000b0 09 59 8f 3d 60 00 39 3e 59 8c 9d 3e 9c d4 c6 3d
       0.06999404 0.1806655 0.3077114 0.09708521
0000c0 0d e6 a6 3d 00 44 92 3d ee 2a 0a 3d 75 74 93 3d
       0.081493475 0.07141876 0.033732347 0.07199947
0000d0 e5 e6 62 3e de 5e 6d 3d 93 da 0e 3e 92 22 b6 3e
       0.22158392 0.0579518 0.13950567 0.3557325
0000e0 1d 2a 80 3e 56 9a 20 3e 6a 70 35 3e ad a9 59 3e
       0.2503213 0.15683874 0.17718664 0.21256132
0000f0 bc 4f 7f 3e 96 68 fe 3d 0f 49 a6 3e 70 b5 aa 3e
       0.2493276 0.12422292 0.32477614 0.3334155
000100 1a 85 4a 3e 55 3b 32 3e 23 0f 42 3e 23 96 75 3e
       0.19777337 0.17405446 0.18951087 0.23983054
000110 33 50 a0 3e 52 d4 34 3e e8 af 96 3e 7c dc 47 3e
       0.31311187 0.17659119 0.2943108 0.19517702
000120 e6 45 8d 3e 30 46 29 3e e1 2d 1b 3e 0d a7 5b 3e
       0.2759239 0.1653068 0.1515422 0.21450444
000130 e7 f9 10 3e 6e 31 a3 3e f6 9c c9 3d ec 3c 0a 3e
       0.1415783 0.3187365 0.09844391 0.13499802
000140 74 4c 1a 3e d9 ca 8a 3e 4f 01 51 3e e4 c2 1f 3e
       0.15068227 0.27107885 0.20410655 0.15601689
000150 35 5b 02 3e eb 22 66 3e e1 3f c3 3e 77 0a 42 3e
       0.12730105 0.22474258 0.38134673 0.18949305
000160 a6 37 30 3e 39 cd 14 3e 8e 31 a3 3e ca 13 2c 3e
       0.17208728 0.14531411 0.31873745 0.16804424
000170 e0 6d 2f 3e 83 95 46 3e 97 30 80 3e 54 bb 61 3e
       0.17131758 0.19392972 0.2503707 0.22044116
000180 7b ce aa 3e 8d b3 e0 3d 2c 31 7e 3e e8 7c 0f 3e
       0.33360657 0.109717466 0.24823445 0.14012492
000190 68 84 e5 3d 0e 47 c4 3e 06 2b 1b 3e c4 0f 8e 3e
       0.11206895 0.3833546 0.15153131 0.27746403
0001a0 84 0e 1f 3e d6 34 92 3e b3 75 af 3d 5d 23 36 3e
       0.15532881 0.28555936 0.08567371 0.17786928
0001b0 8e bb cb 3e 17 08 90 3e 64 80 a6 3e df 82 97 3e
       0.3979153 0.28131172 0.3251983 0.29592034
0001c0 8b e4 a0 3e ed 54 d5 3e f2 57 49 3e 2f a7 e4 3e
       0.31424364 0.41666356 0.19662455 0.446588
0001d0 ec 42 53 3e be c9 e4 3e a8 8a 7b 3e 1b 0b cd 3e
       0.20630997 0.44685167 0.24564612 0.40047535
0001e0 96 64 b2 3e d9 90 b5 3e 85 9d e6 3e fb 64 d7 3e
       0.34842366 0.35462072 0.45042053 0.4206923
0001f0 77 cc a2 3e 54 ef d8 3e 8f a2 99 3e f8 de 03 3f
       0.3179662 0.42370093 0.30006835 0.515121
000200 23 cb d1 3e 5f d4 94 3e fb f3 a6 3e 2f 82 88 3e
       0.40975294 0.29068276 0.32608017 0.26661822
000210 8f da d3 3e 3d 10 aa 3e 96 4a b9 3e 96 87 e8 3e
       0.41377684 0.33215514 0.36189717 0.45415944
000220 b3 5b d3 3e 11 62 dc 3e 23 ec c4 3e 32 f5 a5 3e
       0.41280898 0.4304357 0.38461408 0.32413632
000230 3a aa 98 3e 65 27 99 3e 80 39 00 3f fe e6 02 3f
       0.29817373 0.29912868 0.5008774 0.51133716
000240 12 44 cd 3e 84 31 b9 3e 04 29 e5 3e d2 6c 99 3e
       0.40090996 0.3617059 0.44757855 0.29965836
000250 cc a7 e2 3e 9b b2 a6 3e 35 46 90 3e 28 61 93 3e
       0.44268644 0.3255814 0.28178564 0.28785062
000260 b1 8c a9 3e 4d 34 f8 3e 22 70 cc 3e e2 02 89 3e
       0.33115152 0.48477402 0.399293 0.26760012
000270 88 69 c5 3e 44 42 bb 3e a7 3e b8 3e c1 ee 83 3e
       0.38557076 0.36573994 0.359853 0.25768092
000280 2d 27 e9 3e e4 ef 81 3e 23 ae 0c 3e 07 09 20 3d
       0.455377 0.25378335 0.13738303 0.03907111
000290 f1 5d d6 3d 7e 91 11 3e 93 40 b0 bd b2 3e dc 3d
       0.10467137 0.14215657 -0.086060666 0.10754146
0002a0 09 ad b7 bd 8f 19 a0 bc 7b de a2 3d 3a c6 eb bd
       -0.08968551 -0.019543437 0.07952591 -0.11512418
0002b0 fd b4 30 bd 4c 58 7c 3d 10 d2 ac 3d c5 98 c5 bc
       -0.043141354 0.061607644 0.08438504 -0.024120698
0002c0 1b fe 75 bb b9 23 83 3d 0e 81 12 3c 73 c3 02 be
       -0.0037535492 0.06403298 0.008941902 -0.1276987
0002d0 4d c6 e2 3c 91 fd 66 3c 19 d7 56 3d a7 90 2c 3d
       0.027682448 0.014098541 0.052451227 0.04213014
0002e0 0e 45 ec 3c 96 02 00 bd b9 70 ba 3c c7 43 f7 3b
       0.028841522 -0.031252466 0.022758828 0.0075459215
0002f0 28 9e a1 3c 08 f8 04 bb 7b 7d 9d 3c f2 9f 93 bd
       0.019728735 -0.002028944 0.019224873 -0.072082415
000300 4e 50 2b 3d 97 a6 fd 3d b5 3b fb bd 5e b0 58 bd
       0.04182463 0.1238529 -0.122672476 -0.05290257
000310 39 5e 0e bb e5 98 af bd bb 85 89 bd 5d 22 f6 3d
       -0.0021723642 -0.08574084 -0.0671496 0.12018273
000320 42 5e 02 be 8a 2d a7 3d 0e 48 35 bd b0 3d df 3d
       -0.12731269 0.08162983 -0.04425817 0.10900438
000330 22 51 22 3e b6 e5 6e bd 3e b6 2e 3d 69 60 c9 3c
       0.15851262 -0.05832454 0.04265427 0.024582105
000340 15 2e 38 3d 63 5b 1c 3d 18 e8 a2 3d 9b 8a 27 3e
       0.044965822 0.03817309 0.079544246 0.16361468
000350 a1 49 cb bd 49 db 0b 3c b2 21 57 3e d7 e6 89 3d
       -0.09926153 0.008536168 0.21008947 0.06733482
000360 0b 4f ed 3d 9b 21 72 3e 53 29 07 3d d8 84 65 3e
       0.11587342 0.23645632 0.032998394 0.22413957
000370 17 07 0d 3e f6 6f 75 3e c9 99 a0 3d ff c3 2c 3e
       0.13772236 0.23968491 0.07841832 0.16871642
000380 3c c6 6f 3e 4c af ee 3d 52 5d 68 3e 77 f0 34 3e
       0.23415464 0.11654529 0.22691849 0.17669855
000390 c4 ea 51 3e ca ab 3a 3d ff 5c 57 3d b3 3b 78 3e
       0.20499712 0.045573987 0.052578922 0.24241523
0003a0 12 9f 62 3e ce 3e 36 3d c0 4e 59 3d 8e 8d 50 3e
       0.22130993 0.04449349 0.053053617 0.20366499
0003b0 6c 2f 4f 3e 06 2e 14 3e 07 b5 65 3d 1f 45 97 3e
       0.20232934 0.14470682 0.056080844 0.29544923
0003c0 e7 b3 7a 3e 62 15 40 3e 94 90 9a 3d 8a 80 45 3d
       0.2448269 0.18758157 0.07547107 0.048218288
0003d0 b4 a9 1e 3e 11 15 94 3e dd 10 91 3e fb ab 94 3e
       0.15494424 0.28922322 0.28333178 0.2903746
0003e0 3e 84 10 3e 4e f6 e9 3d 41 e9 e0 3d 66 c5 59 3e
       0.14112946 0.11423932 0.1098199 0.21266708
0003f0 8b 56 41 3e f7 f6 be 3d d2 b3 49 3d a3 17 61 3e
       0.1888067 0.093244486 0.049243756 0.21981673
