models/surnames.pth (torch, 376126 bytes, 14 tensors)

encoder.input_layer.weight f4 [100, 12]
0	0xbdc9aebf	-0.09847783
1	0x3d47626b	0.048677843
2	0x3ddca784	0.107741386
3	0x3d77977b	0.060447197
4	0xbde76ce7	-0.11300068
5	0x3d69420c	0.056947753
6	0x3d1a2399	0.037631605
7	0xbbde57e6	-0.0067853807
8	0xbdf788bb	-0.12086626
9	0x3d2e719d	0.04258882
10	0x3daec998	0.08534545
11	0x3dec60dc	0.11541912
12	0xbd12dc64	-0.035854712
13	0xbe3e6040	-0.18591404
14	0x3dce0fb4	0.10061589
15	0xbddedba1	-0.10881735
16	0xbcc31a62	-0.023816291
17	0x3d72476c	0.059150144
18	0x3d5be7d5	0.05368789
19	0x3c6fccd3	0.014636236
20	0x3ce269b2	0.02763829
21	0xbdc4813c	-0.09594962
22	0x3d16cfd5	0.036819298
23	0x3e5ef364	0.21772534
24	0x3d2238a8	0.039604813
25	0x3c925c86	0.017866384
26	0x3d8ad0f7	0.06778138
27	0xbd308a2c	-0.04310052
28	0xbdc34827	-0.09535246
29	0xbd9ab3ec	-0.075538486
30	0x3d15ba72	0.03655476
31	0xbc078f61	-0.00827393
32	0xbca9045e	-0.020631965
33	0x3da64bde	0.08119939
34	0xbe30dffc	-0.17272943
35	0x3d4892e0	0.048968196
36	0x3e52b346	0.205762
37	0xbe0720a4	-0.13196045
38	0xbe054823	-0.13015799
39	0xbe16b34b	-0.14716832
40	0xbe10b8cc	-0.14132994
41	0x3d97d224	0.07413128
42	0xbe923679	-0.28557184
43	0x3e681c3c	0.2266702
44	0x3d823099	0.063569255
45	0xbd953e21	-0.07287241
46	0x3be5e79c	0.0070161354
47	0xbe4c96c8	-0.19979393
48	0xbe8200b6	-0.25391167
49	0x3dc03b18	0.09386271
50	0x3e0d2ba4	0.13786179
51	0xbcd6b899	-0.02621107
52	0x3cd7da44	0.026349194
53	0xbe0d13b2	-0.13777044
54	0xbe2ff5f5	-0.17183669
55	0x3d8c2f2b	0.06844934
56	0x3e68311e	0.22674987
57	0xbca0e372	-0.019639704
58	0x3e12e2f9	0.14344396
59	0x3c819dd0	0.015822321
60	0x3d94da1c	0.072681636
61	0xbe0bb4c6	-0.13643178
62	0xbce53ebf	-0.027984021
63	0xbdd23a30	-0.10265005
64	0x3da1a58c	0.07892904
65	0xbb25a95e	-0.0025277953
66	0xbe252272	-0.16126421
67	0x3d9c5204	0.07632831
68	0xbd6abcc5	-0.05730893
69	0x3dd2870e	0.10279666
70	0xbb95b15a	-0.004568261
71	0xbdb21214	-0.086948544
72	0x3d3c5e7a	0.045988537
73	0x3d5ae8e4	0.053444758
74	0xbe902ac0	-0.28157616
75	0x3de8cb22	0.113668695
76	0xbd38ac6a	-0.045086302
77	0xbdd94f46	-0.10610823
78	0xbdcdc82b	-0.10047945
79	0xbdbc4aab	-0.09193929
80	0x3e481765	0.19540174
81	0xbd682950	-0.056680024
82	0x3e478401	0.19483949
83	0xbcf81870	-0.03028509
84	0xbda0d0ce	-0.07852326
85	0xbdb0e498	-0.08637351
86	0xbc391f33	-0.011298942
87	0xbe3dea0f	-0.18546318
88	0x3d0a2ccc	0.033734128
89	0x3e3e9a1c	0.18613476
90	0xbe785b3f	-0.24253558
91	0x3e809380	0.25112534
92	0x3d50bd28	0.050961643
93	0xbdd48f85	-0.10378937
94	0xbc4493bf	-0.011998116
95	0xbe2e92d4	-0.17048198
96	0xba0b0616	-0.0005303336
97	0xbdf8ce26	-0.12148695
98	0xbd4bf817	-0.049797144
99	0x3e1654d7	0.14680801
100	0xbe35bc58	-0.17747629
101	0x3e209c1f	0.15684555
102	0xbd80b4f2	-0.062845126
103	0x3de1bf14	0.110227734
104	0xbdc44a6a	-0.09584506
105	0x3e04df4f	0.1297581
106	0xbde803ad	-0.11328826
107	0xbde9b9d8	-0.114124
108	0xbc46aa07	-0.012125499
109	0xbce963a2	-0.028489891
110	0xbe12810a	-0.14307037
111	0x3cb9df76	0.022689562
112	0xbb83b954	-0.0040198956
113	0xbe964dfc	-0.29356372
114	0xbce484c8	-0.027895346
115	0xbe886948	-0.26642823
116	0x3e5f3e61	0.2180114
117	0xbd8a8c8a	-0.06765087
118	0xbc843f92	-0.016143594
119	0xbddbd59e	-0.107341036
120	0xbe819e58	-0.2531612
121	0xbe28f863	-0.16501002
122	0x3df37075	0.11886684
123	0x3cb01629	0.021494942
124	0xbdba6e52	-0.09103073
125	0x3e0e676c	0.1390664
126	0x3db90ccc	0.09035644
127	0xbe865b9e	-0.26241773
128	0x3de327e0	0.1109159
129	0xbe585cae	-0.21129104
130	0xbda739b7	-0.08165305
131	0x3daef410	0.08542645
132	0xbeb81b43	-0.359583
133	0xbe9357ff	-0.28778073
134	0xbe0d04c7	-0.13771354
135	0x3dab3671	0.08359993
136	0xbe430e80	-0.190485
137	0xbe066aae	-0.13126633
138	0x3cb1f4ec	0.021723233
139	0xbe0a016e	-0.13477108
140	0x3e0ce148	0.13757813
141	0x3e85fb2a	0.26168185
142	0xbdb1952a	-0.08671029
143	0x3e111834	0.14169389
144	0xbe42db88	-0.19029057
145	0x3d3d84f6	0.04626938
146	0xbe2dbf79	-0.16967572
147	0xbda8588c	-0.08220014
148	0xbea4254d	-0.32059708
149	0xbd9110b1	-0.07083262
150	0x3d762410	0.060092986
151	0xbe838f0b	-0.2569507
152	0xbe714c10	-0.23564172
153	0xbcc2bbeb	-0.023771247
154	0x3e8efa34	0.27925265
155	0x3e6c8784	0.2309857
156	0x3c3feea4	0.011714611
157	0xbdb2dad9	-0.08733148
158	0x382771c0	3.992184e-05
159	0xbd96db88	-0.07366091
160	0xbda37223	-0.07980754
161	0x3dfd1ca6	0.1235898
162	0xbcee7e9b	-0.029113105
163	0xbe1b8754	-0.15188342
164	0x3e58bfb7	0.21166883
165	0xbca2d9fa	-0.01987933
166	0xbe0db7a8	-0.1383959
167	0x3cded150	0.027199417
168	0x3d95b417	0.0730974
169	0xbddecf42	-0.10879375
170	0xbe935862	-0.28778368
171	0xbd8eea18	-0.069782436
172	0xbe048a72	-0.12943438
173	0x3dfd5cd4	0.12371221
174	0xbd8def4e	-0.06930409
175	0x3dac865c	0.084240645
176	0x3c855a40	0.016278386
177	0xbc291ffa	-0.010322565
178	0x3db20d70	0.08693969
179	0xbe7fa042	-0.24963477
180	0xbda14dee	-0.07876192
181	0x3dcb9ee3	0.099424146
182	0xbd7d36a1	-0.061819676
183	0x3dd527bf	0.104079716
184	0x3b88d568	0.0041758306
185	0x3bb73b60	0.005591795
186	0xbe20136e	-0.15632412
187	0x3dd22ee9	0.10262854
188	0x3d23600c	0.03988652
189	0x3d942e7b	0.07235428
190	0xbc00b483	-0.007855537
191	0xbd35d894	-0.044395998
192	0xbd9e2f63	-0.07723882
193	0xbe18dad5	-0.14927228
194	0x3d9ec72d	0.077528335
195	0x3cacf2e6	0.021111917
196	0xbe849935	-0.25898138
197	0xbeacb458	-0.3373134
198	0x3e1016af	0.14071153
199	0xbe2ed426	-0.17073116
200	0xbc38ebf8	-0.011286728
201	0x3daea147	0.08526855
202	0x3e4f4361	0.20240547
203	0x3e2f99c2	0.17148498
204	0xbe5fc157	-0.21851097
205	0x3e3f90fa	0.18707648
206	0xbe3f7676	-0.18697533
207	0xbdb1eff7	-0.08688348
208	0xbd8d9693	-0.069134854
209	0xbce3a9a7	-0.027790857
210	0xbd0e3f5a	-0.034728386
211	0xbe0c0ff0	-0.13677955
212	0x3bae743e	0.0053239157
213	0xbe5e2a36	-0.2169579
214	0xbe901960	-0.2814436
215	0xbd0aa058	-0.033844322
216	0xbe337fb8	-0.1752919
217	0x3c34f007	0.011043555
218	0xbc8b9b7c	-0.017041914
219	0x3e2b0971	0.1670282
220	0xbe49a349	-0.19691195
221	0xbe800ff3	-0.25012168
222	0x3e120dda	0.14263096
223	0x3e1ebb1e	0.15501067
224	0x3d99337a	0.074805215
225	0xbdce8edb	-0.10085841
226	0x3e254a34	0.16141587
227	0x3c5d1660	0.013494104
228	0x3c421baf	0.011847421
229	0xbc9cf4f5	-0.019159773
230	0xbdcf152d	-0.10111461
231	0x3df4b078	0.11947721
232	0xbd7ec0e1	-0.062195662
233	0x3d8b5faf	0.068053596
234	0x3cbb4605	0.022860536
235	0xbc6563ee	-0.014000876
236	0xbbdce9ff	-0.0067417617
237	0x3ce13ddb	0.027495315
238	0xbe7e8af1	-0.2485769
239	0xbe885770	-0.2662921
240	0x3de30f9e	0.11086963
241	0xbd56c98e	-0.05243831
242	0xbdf8f147	-0.12155395
243	0xbdd10729	-0.10206444
244	0x3be66ef8	0.0070322715
245	0x3e1f4cb5	0.15556605
246	0xbdd88fa3	-0.105742715
247	0xbe6322b7	-0.22181211
248	0xbd462463	-0.048374545
249	0xbe730e83	-0.23736005
250	0xbdcb8667	-0.099377446
251	0x3dbd31e8	0.092380345
252	0x3e0620ba	0.13098422
253	0xbe039b5c	-0.12852234
254	0xbe47524e	-0.1946499
255	0xbe3b34a5	-0.18281801

encoder.input_layer.bias f4 [100]
0	0xbe653ebf	-0.22387217
1	0xbe92439c	-0.28567207
2	0xbe221eba	-0.15832034
3	0x3e58bf1e	0.21166655
4	0xbdc75b61	-0.09734226
5	0x3c84d775	0.01621602
6	0x3de9e5a3	0.11420753
7	0xbc203a50	-0.009779528
8	0xbecbe6ba	-0.39824468
9	0xbe181432	-0.14851454
10	0x3e105a0c	0.1409685
11	0xbeb058c2	-0.34442717
12	0xbe5112f8	-0.20417392
13	0x3e27902b	0.1636359
14	0xbe8b4cc1	-0.27206996
15	0x3d62519b	0.055253606
16	0xbe5e2836	-0.21695027
17	0x3d26c0e2	0.04071129
18	0x3e1956a4	0.14974457
19	0xbe2cf8a5	-0.16891725
20	0x3e0e2f62	0.13885263
21	0xbe436c19	-0.19084205
22	0xbec7c3b7	-0.39016506
23	0x3e0fe9f3	0.14054088
24	0xbd382cbc	-0.044964537
25	0xbe02d957	-0.12778221
26	0xbdc5e4a4	-0.0966275
27	0xbcd8054a	-0.02636971
28	0x3e85e9eb	0.26155028
29	0xbe993acd	-0.29927674
30	0xbdbdfd23	-0.092767976
31	0xbe94845d	-0.29007235
32	0xbe9ae4b5	-0.30252615
33	0xbebf357d	-0.37345496
34	0x3e096cda	0.1342043
35	0x3daac742	0.08338787
36	0xbe0524d2	-0.13002327
37	0xbe434db9	-0.19072618
38	0x3cadd9c7	0.021222008
39	0x3e18e7a6	0.14932117
40	0x3e52100b	0.20513932
41	0x3e4e9265	0.20173033
42	0xbe7f826f	-0.249521
43	0x3e4e7ac6	0.20164022
44	0xbdafce1a	-0.08584233
45	0x3d8f1374	0.06986132
46	0x3cb264f7	0.02177666
47	0xbcd7a503	-0.0263238
48	0xbe941e80	-0.2892952
49	0x3e1e9651	0.15487029
50	0xbd2ba1d8	-0.041902393
51	0xbe264540	-0.16237354
52	0xbebdf800	-0.3710327
53	0x3e0b3a7b	0.13596527
54	0xbd120ada	-0.03565488
55	0xbe4c49af	-0.19949983
56	0xbe8683f0	-0.26272535
57	0xbe5db4d5	-0.21651013
58	0x3cbc5f54	0.022994675
59	0x3db65dca	0.089046076
60	0x3e42fabd	0.19040962
61	0x3de2bd8b	0.11071309
62	0x3e23b98c	0.1598875
63	0xbe8ee06c	-0.27905595
64	0xbe778be9	-0.24174465
65	0x3e6b80ca	0.22998348
66	0xbeae3cd5	-0.34030786
67	0xbd9efb50	-0.07762778
68	0xbe9a0a39	-0.30085924
69	0xbd6f4144	-0.05841185
70	0x3dfc690a	0.12324722
71	0xbddb9721	-0.10722185
72	0x3dd35600	0.103191376
73	0xbe3a257d	-0.18178363
74	0x3e06d9a3	0.1316896
75	0x3e2e601a	0.17028847
76	0xbde873de	-0.11350225
77	0x3dc970a3	0.09835937
78	0x3e718ec2	0.23589614
79	0x3e2ccef7	0.16875826
80	0xbdfbc407	-0.122932486
81	0xbe7828a5	-0.24234255
82	0x3e6c30c2	0.23065475
83	0xbe533e08	-0.20629132
84	0xbe43e022	-0.19128469
85	0x3b9c605e	0.00477223
86	0xbbcb8be4	-0.0062117446
87	0x3e5964d6	0.21229872
88	0xbcebead9	-0.028798508
89	0x3d995785	0.07487396
90	0xbe2f8f75	-0.17144568
91	0x3c93b7bd	0.01803195
92	0xbe957595	-0.2919127
93	0xbe8224b0	-0.25418615
94	0x3d5c6cf6	0.05381485
95	0xbe075b72	-0.13218477
96	0x3e26b458	0.16279733
97	0xbd6c3c79	-0.05767486
98	0x3d1bf95c	0.038079605
99	0x3e65beae	0.2243602

encoder.mean_layer.weight f4 [20, 100]
0	0xbcf70828	-0.030155256
1	0x3c9ff773	0.019527173
2	0x3c9c3ddd	0.019072467
3	0xbcbb3c7c	-0.02285599
4	0xbd913492	-0.07090105
5	0x3c4ffefb	0.012695069
6	0xbbcaab2d	-0.0061849565
7	0xbac0ade2	-0.0014700259
8	0xbc703f32	-0.014663504
9	0xbc463b2d	-0.01209907
10	0x3d845d65	0.06463126
11	0xbce00f48	-0.027351037
12	0x3d8981c6	0.067142054
13	0x3c9f4663	0.019442743
14	0xbd6b698a	-0.057473697
15	0x3adc507f	0.0016808658
16	0xbc49a0ef	-0.012306436
17	0x3d818cc0	0.06325674
18	0x3c566ade	0.013087003
19	0x3b45adf1	0.0030163492
20	0xbaf57d2d	-0.0018729322
21	0xbcba6df0	-0.0227575
22	0x3c02a7f6	0.007974615
23	0xbd14c8c2	-0.03632427
24	0xbba1008d	-0.0049133957
25	0xbba1fbea	-0.0049433606
26	0xbbc9833a	-0.0061496766
27	0xbc3abff4	-0.011398304
28	0x3d67ff33	0.05663986
29	0x3b4d1a8b	0.0031296338
30	0x3ba4e6d6	0.0050324006
31	0x3c545aa6	0.012961065
32	0x3ccc4d50	0.02493921
33	0x3c54bbce	0.012984229
34	0xbd64cf5a	-0.05586181
35	0xbc35867d	-0.011079428
36	0x3c40e826	0.0117740985
37	0xbb3bafe6	-0.002863878
38	0x3cfa8bec	0.030584298
39	0x3bb24bc5	0.0054411613
40	0xbb55560d	-0.003255251
41	0x3c29a82f	0.0103550395
42	0xbc3f208d	-0.011665476
43	0xbc6c6823	-0.014429125
44	0x3c8d9327	0.017282082
45	0x3c57d883	0.013174179
46	0x3b3cf2c1	0.0028831216
47	0xbd6c5468	-0.057697684
48	0x3d9e1dd2	0.077205315
49	0x3cb557aa	0.022136528
50	0x3c8a1ff1	0.016860934
51	0x39e7d714	0.0004422
52	0xbbf6266b	-0.007511904
53	0xbc3d62da	-0.011559213
54	0xbd0de0b7	-0.034638133
55	0x3b88db3b	0.004176525
56	0x3d25560a	0.040365256
57	0x3d94cc77	0.07265561
58	0x3c876dfd	0.016531939
59	0x3bb839bb	0.0056221164
60	0x3c7332d3	0.01484366
61	0x3c9ffd32	0.019529913
62	0x3c1321e8	0.008980252
63	0xbc6dee55	-0.014522155
64	0x3c5acce6	0.013354516
65	0xbb710214	-0.003677492
66	0x3ab4d74a	0.0013797071
67	0xb9fc8032	-0.00048160698
68	0x3ce7b71d	0.028285557
69	0x3c02f9c9	0.007994124
70	0xbc412499	-0.011788511
71	0x3c7e60e2	0.015526028
72	0xbc2612f2	-0.010136353
73	0x3b7160bd	0.0036831342
74	0xbb73e221	-0.003721364
75	0x3bf89386	0.0075859455
76	0x3d1021ef	0.03518861
77	0x3cc400eb	0.023926219
78	0xba9eda40	-0.0012119487
79	0x3bc7ce68	0.0060976036
80	0x3ac1fcce	0.0014800073
81	0xbd162ed2	-0.036665745
82	0xbb3f2067	-0.00291636
83	0x3bbee707	0.0058258804
84	0xbcded7a3	-0.027202433
85	0x3ce03bfc	0.027372353
86	0xbda08bad	-0.07839141
87	0xbd3d898e	-0.04627376
88	0xbd091683	-0.033468734
89	0xbb31e356	-0.002714356
90	0x3b46ca5a	0.0030333013
91	0x3ce98ad7	0.028508587
92	0x39db1259	0.00041784605
93	0x3bb4f748	0.0055226423
94	0xbd4f678d	-0.050635863
95	0x3d4b16bf	0.04958224
96	0x3cb46965	0.022022912
97	0xbc5e7728	-0.013578214
98	0xbbbcc201	-0.0057604318
99	0xbd99060a	-0.07471855
100	0xbbd9a632	-0.0066421265
101	0x3c92cdbf	0.017920373
102	0x3c279696	0.010228774
103	0xbbd7d64a	-0.0065868245
104	0x3c89c107	0.016815675
105	0x3c80304f	0.015648035
106	0x3bf610d9	0.0075093326
107	0xbc0a1002	-0.008426668
108	0x3b851574	0.0040613953
109	0x3ca635bd	0.020289296
110	0xbcc3036b	-0.02380534
111	0x3d032c0a	0.03202442
112	0x3aeb4c99	0.0017951905
113	0xbc2c8ccf	-0.010531618
114	0x3d35e2af	0.044405635
115	0xbb3a7d56	-0.0028456054
116	0xbc9c8892	-0.01910809
117	0xbd6b67dc	-0.057472095
118	0xbbecc357	-0.0072254348
119	0xbcb90633	-0.022585964
120	0xbc9f509e	-0.019447621
121	0x3d12b206	0.035814308
122	0xbc0b135c	-0.008488502
123	0x3d5b7833	0.053581428
124	0xbcf7eb1b	-0.030263474
125	0xbcd3b1ba	-0.025841583
126	0xb8bc6580	-8.9834444e-05
127	0x3bb3051a	0.0054632546
128	0xbafd8028	-0.0019340562
129	0xbc7f847c	-0.015595552
130	0xbc5d281c	-0.013498332
131	0xbbb54786	-0.005532208
132	0xbc5195d1	-0.012792067
133	0xbb3a0194	-0.0028382288
134	0x3bcbb162	0.006216214
135	0xbc4fa10c	-0.012672674
136	0xbc7b6d7b	-0.015345926
137	0x3c82978b	0.015941402
138	0xbc07fcc4	-0.00830001
139	0x3cebe7b9	0.028797017
140	0xbc951e6c	-0.018202983
141	0xbbf0e2f2	-0.0073512727
142	0x3c233f0a	0.00996376
143	0x3c000653	0.007814008
144	0xbc99bd4d	-0.018767023
145	0xbbec3d97	-0.0072094905
146	0xbc83cadb	-0.01608794
147	0x3d22a4f6	0.0397081
148	0x3d5e0410	0.054203093
149	0xbce2d905	-0.027691374
150	0xbc2cb321	-0.0105407545
151	0x3b4c5bdf	0.003118269
152	0x3bff8e37	0.0077989358
153	0x3be44638	0.0069663785
154	0xbc15c441	-0.009141029
155	0x3c2a0f78	0.010379665
156	0xbc1994c6	-0.009373849
157	0x3b160db6	0.0022896356
158	0xbc09c787	-0.008409387
159	0xbc09c884	-0.008409623
160	0x3c9c56da	0.019084383
161	0xbcb127c9	-0.021625416
162	0x3b31f3cb	0.0027153369
163	0x3c9aa7ae	0.018878784
164	0xbd1ae566	-0.037816428
165	0xbc06fd20	-0.008239061
166	0x3c26c27d	0.010178206
167	0x3b817d6f	0.0039517204
168	0x3c2d2300	0.010567427
169	0x3d172d1e	0.03690826
170	0xbab95ba3	-0.001414169
171	0xbb51d9d2	-0.00320207
172	0xbb51f5a6	-0.0032037287
173	0x3c81e05e	0.015854057
174	0x3c5b57ed	0.013387662
175	0xbbcd6de7	-0.006269205
176	0x3ace7630	0.0015751775
177	0x3da485e8	0.08033353
178	0x3bfda8d1	0.0077410717
179	0xbc91c7d7	-0.017795486
180	0xbcc170d6	-0.023613375
181	0x3b782b2f	0.0037867536
182	0x3c10a0c0	0.008827388
183	0x3c3d8cb9	0.011569195
184	0xba2a71c3	-0.0006501937
185	0xbbfa3fb6	-0.0076369895
186	0xbdbfc610	-0.09363949
187	0x3b4bcc41	0.0031097087
188	0xbc0e61e6	-0.008690333
189	0x3bbeb12e	0.0058194613
190	0x3b74311c	0.0037260717
191	0xbb415c97	-0.002950465
192	0xbb669b4c	-0.003518778
193	0x3baf354c	0.0053469297
194	0x3d9aeacb	0.075643145
195	0x3c0fd7e1	0.008779497
196	0xbc00e19b	-0.007866289
197	0xbc471e7b	-0.012153263
198	0xbc689d4b	-0.014197658
199	0xbd63ebe7	-0.055644896
200	0x3c240c82	0.010012748
201	0xbd44a243	-0.048006307
202	0x3b005980	0.0019584596
203	0xbb2bf9e7	-0.0026241483
204	0xbd4e4607	-0.050359752
205	0xbcce982b	-0.025219044
206	0xbc58793d	-0.013212499
207	0x3cf828d6	0.03029291
208	0xbb820004	-0.003967287
209	0x3b11ebce	0.0022265795
210	0xbd87db95	-0.06633679
211	0xbd91446b	-0.07093128
212	0x3d67a259	0.05655131
213	0x3ca9435e	0.020662006
214	0xbd20a6d9	-0.03922162
215	0x3b7d61e0	0.0038663074
216	0xbd3ed4e3	-0.046589743
217	0x3dbbd1cc	0.09170875
218	0x3d631a24	0.05544485
219	0x3c5123b6	0.012764862
220	0x3cb2bdd5	0.021819035
221	0xbd1d5720	-0.038413167
222	0x3c582b8f	0.013193979
223	0x3c6c2a43	0.014414373
224	0x3cfedc84	0.03111101
225	0x38ca48d0	9.645673e-05
226	0xbc5e5349	-0.013569661
227	0xbc275f29	-0.010215559
228	0x3cc2583e	0.023723718
229	0x3c2db2d8	0.010601722
230	0x3caa716b	0.020806035
231	0x3c63daaa	0.013907114
232	0xbd121510	-0.035664618
233	0xbcaceb9f	-0.021108447
234	0x3d0a8f63	0.03382815
235	0x3c45f2e5	0.012081836
236	0x3bff791e	0.0077964207
237	0xbc3aa3a3	-0.011391553
238	0xbc2a6917	-0.010401032
239	0xbd1a58f1	-0.037682477
240	0x3b398f27	0.0028314085
241	0xbc24f5b1	-0.010068343
242	0xbc7f89ce	-0.01559682
243	0x3c7451c1	0.01491207
244	0x3c9389a9	0.018009977
245	0xba86113b	-0.0010228524
246	0x3d3a552f	0.045491394
247	0xbc8608cd	-0.016361618
248	0xbdbab4b8	-0.091165006
249	0x3b94a6a5	0.004536467
250	0x3bd75226	0.006571072
251	0x3b0910a6	0.0020914464
252	0xbc784478	-0.015153043
253	0x3a36f98e	0.00069799356
254	0xbd2240c1	-0.039612535
255	0xbc415e26	-0.011802232

encoder.mean_layer.bias f4 [20]
0	0xba920889	-0.001114146
1	0x3db83e1f	0.08996224
2	0xbcdc17a3	-0.02686674
3	0xbafc4ec5	-0.0019249549
4	0x3dadfd05	0.08495525
5	0x3db3d334	0.08780518
6	0x3c5f0ebd	0.013614354
7	0xbd993a8b	-0.07481869
8	0xbd773a14	-0.060358122
9	0x3d707ae7	0.05871096
10	0xbd1dbd71	-0.038510744
11	0x3db68a1b	0.0891306
12	0xbbefdee5	-0.0073202723
13	0x3d4e76f1	0.0504064
14	0xbd1bec12	-0.03806693
15	0x3aa8e3f3	0.0012885317
16	0x3cf3c16c	0.029755317
17	0x3d7581e4	0.059938326
18	0x3cb0561e	0.021525439
19	0xbc80ae5a	-0.015708137

encoder.log_var_layer.weight f4 [20, 100]
0	0xbc3e1dc3	-0.011603775
1	0x3cd8090b	0.0263715
2	0xbbc61757	-0.006045263
3	0x3c7697f1	0.015050874
4	0x3d80b1f7	0.06283944
5	0x3b016722	0.001974531
6	0x3c02e055	0.007988055
7	0xbbf45e79	-0.007457551
8	0xba651402	-0.0008738638
9	0xbd30f5e6	-0.043203257
10	0xbd120bc1	-0.03565574
11	0xbd8e47ed	-0.069473125
12	0x3d615b25	0.055018563
13	0x3c7e6dfc	0.015529152
14	0x3ba1215b	0.0049173064
15	0xbc66480d	-0.014055264
16	0xbd0ac004	-0.033874527
17	0xbcda2a63	-0.02663154
18	0x3c9474ee	0.018122163
19	0x3c59e7b9	0.013299876
20	0xbad8a252	-0.0016527867
21	0xbd95f77e	-0.07322596
22	0x3c67f5fd	0.014157769
23	0x3d8c2773	0.06843462
24	0xbc3e60ec	-0.011619788
25	0xbbeabba0	-0.00716348
26	0xbc3c3f4d	-0.011489701
27	0x3c57af4d	0.013164354
28	0x3d402f03	0.046919834
29	0x3cebcbb4	0.028783657
30	0xbc2430fb	-0.0100214435
31	0x3d316d0b	0.043316882
32	0xbc5dfda0	-0.013549238
33	0xbbb46d9a	-0.0055062296
34	0x3b1c9bcd	0.0023896575
35	0xbd2666dc	-0.040625438
36	0xbbbb24dd	-0.0057111816
37	0xbc5da423	-0.013527903
38	0xbc95e0ee	-0.018295731
39	0xbb2dc924	-0.0026517594
40	0x3b64cbde	0.0034911553
41	0xbc0a3583	-0.00843561
42	0x38a0c472	7.665985e-05
43	0xbc7a6f63	-0.015285346
44	0x3cb37b89	0.021909492
45	0x3bafaa2f	0.0053608636
46	0x3d2d761f	0.042348977
47	0xbcb12594	-0.021624364
48	0x3d93d36e	0.072180614
49	0xbaf11f96	-0.0018396254
50	0xbc570188	-0.013122924
51	0x3bb05af9	0.0053819385
52	0x39f58575	0.00046829475
53	0xbcb99dc4	-0.022658236
54	0xbc71a4d0	-0.014748767
55	0xbaec1a7c	-0.0018013264
56	0xbc6d3a0f	-0.014479174
57	0x3dd92c12	0.10604109
58	0x3c44eaaa	0.012018839
59	0x3c90ce7e	0.017676588
60	0xbc7c5ad0	-0.015402511
61	0x3b1db6bf	0.0024065224
62	0x3c827993	0.015927112
63	0xbc4e9650	-0.0126090795
64	0xbb4356ef	-0.0029806455
65	0xbc591070	-0.013248548
66	0xbc5eccc2	-0.013598623
67	0xbc8490ec	-0.016182385
68	0x3cc70c12	0.024297748
69	0xbc6ff737	-0.014646343
70	0xbc298e3b	-0.010348852
71	0x3b82c3d7	0.003990631
72	0xba3b93ae	-0.000715549
73	0x3ce76576	0.028246623
74	0x3cd75453	0.026285326
75	0x39eb3cb2	0.00044867914
76	0xbc9166ac	-0.017749153
77	0xbd57cd3e	-0.05268597
78	0x3caa4909	0.020786779
79	0x3d1c4ab0	0.038157165
80	0xbcdcb53e	-0.026941892
81	0xbc6534af	-0.0139896115
82	0xbca70825	-0.020389626
83	0xbc58865b	-0.013215627
84	0xbbf5f9d6	-0.0075065894
85	0x3cbc4745	0.022983203
86	0x3cea884d	0.028629446
87	0xbc722754	-0.014779884
88	0xbc5190dd	-0.012790886
89	0x3ccef071	0.025261136
90	0x3c602c78	0.013682477
91	0x3af6cb9b	0.001882899
92	0x3ccdb26f	0.025109498
93	0xbc7bcf4c	-0.015369248
94	0x3d945295	0.07242314
95	0xbd072b27	-0.033000138
96	0xbc1a68c0	-0.009424388
97	0x3c81a754	0.015826859
98	0xbbd21dc0	-0.006412238
99	0xbd8e6a8a	-0.069539145
100	0x3bf2a6b0	0.0074051246
101	0x3bb6067b	0.0055549718
102	0x3cab81a2	0.020935837
103	0x3c2732ad	0.010204953
104	0x3d888584	0.06666091
105	0xbcc9836d	-0.024598802
106	0xbcb84e94	-0.022498406
107	0x37c95e08	2.4004854e-05
108	0xba05794c	-0.0005091622
109	0x3ccaa945	0.024738917
110	0x3c8ad717	0.016948266
111	0xbc4422a4	-0.01197115
112	0xbd71cb25	-0.059031624
113	0x3d4cef71	0.050033037
114	0xbcaf5a82	-0.021405462
115	0x3c072daf	0.008250638
116	0xbd6ac1fc	-0.057313904
117	0x3d2556c9	0.040365968
118	0x3bb24612	0.005440482
119	0x3ccd7ab3	0.025082922
120	0xbc8c47bc	-0.01712405
121	0x3a9ad8e7	0.001181391
122	0x3ca85021	0.020546021
123	0xbd61dc19	-0.055141542
124	0xbc8a2432	-0.016862962
125	0xbcc047be	-0.02347171
126	0xbc97329e	-0.018456753
127	0x3ca89993	0.020581042
128	0xbce83fcf	-0.028350739
129	0x3cc5f004	0.0241623
130	0x3aa7f368	0.001281363
131	0x3d07dc5a	0.033169128
132	0xbd72f46b	-0.059315126
133	0xbc61b41d	-0.0137758525
134	0xbb904d8f	-0.004403777
135	0xbc1af084	-0.009456757
136	0xbc5c18d7	-0.013433657
137	0xbcefde33	-0.029280758
138	0x3c1bd3b5	0.009510924
139	0x3d068cae	0.032849006
140	0xbbb5db98	-0.0055498593
141	0x38016a50	3.0855008e-05
142	0xbc490120	-0.012268335
143	0xbb7c901f	-0.0038538051
144	0x3cb7764a	0.022395272
145	0xbbf4dd3b	-0.007472662
146	0xbcfbe49b	-0.030748656
147	0x3b75ffd3	0.0037536516
148	0x3d9ff315	0.07810036
149	0xbc89797e	-0.016781565
150	0x3c99943d	0.018747443
151	0x3b9b84df	0.004746064
152	0xbc83bce7	-0.016081287
153	0x3c5897fb	0.013219829
154	0x3d58ed0f	0.05296045
155	0xbc043b0b	-0.008070718
156	0xbb688b83	-0.0035483546
157	0xbad0ab3b	-0.0015920171
158	0x3cc898c9	0.024486916
159	0x3cba36de	0.02273124
160	0xbc63abb2	-0.013895916
161	0xbc67ae4f	-0.0141406795
162	0x3c6052d4	0.013691623
163	0xbc753062	-0.014965149
164	0xbc28fe22	-0.010314496
165	0xba937bc3	-0.0011252094
166	0xbb6fbf1e	-0.003658242
167	0xbc1d4918	-0.009599946
168	0x3ce768cf	0.028248219
169	0xbd363ded	-0.04449265
170	0x3c60ad47	0.013713188
171	0xbcc67787	-0.024226917
172	0xbaf70b88	-0.0018848041
173	0x3cea7369	0.028619485
174	0x3c9a1c87	0.018812431
175	0xbc9d8567	-0.01922865
176	0x3d83f47c	0.06443116
177	0x3d4fd382	0.05073882
178	0xbb728d41	-0.0037010463
179	0x3bda6cee	0.0066658175
180	0xbcf69197	-0.03009872
181	0x3b6115b4	0.0034345211
182	0x3be320af	0.0069313864
183	0x3c42373f	0.011853992
184	0xbca040d7	-0.019562168
185	0x3c9227bd	0.017841214
186	0x3d7ea8ed	0.06217282
187	0xbcb46c19	-0.022024201
188	0xbc5fe078	-0.013664357
189	0xbc8e9444	-0.017404683
190	0x3c882a97	0.01662187
191	0x3c7c2e2e	0.0153918695
192	0x3c3e4416	0.011612913
193	0xbc82ae2a	-0.015952189
194	0xbd39e6c3	-0.045386087
195	0x3c32f3ff	0.010922431
196	0x3c2cfd7f	0.010558485
197	0x3cac729a	0.02105074
198	0xba4ab295	-0.0007732299
199	0xbae6ab03	-0.0017598573
200	0xbc3e120e	-0.011600984
201	0x3a6c94bc	0.00090248487
202	0xbc9a372f	-0.018825142
203	0x3c344457	0.011002622
204	0x3d5d821b	0.054079156
205	0xbbd62c20	-0.006536022
206	0xbc8b2223	-0.016984051
207	0xbcf3b7e0	-0.029750764
208	0xbbfedafc	-0.00777757
209	0xbcf7c99b	-0.0302475
210	0x3c096b88	0.008387454
211	0x3cb43cdd	0.022001678
212	0xbbba449d	-0.005684449
213	0x3c247340	0.010037243
214	0xbd8a14a7	-0.0674222
215	0x3bcd4b12	0.0062650526
216	0xbd818e89	-0.063260145
217	0x3d54e451	0.051975552
218	0xbbdaabcd	-0.0066733123
219	0x3c875ee4	0.01652474
220	0x3ca0b32d	0.019616688
221	0xbd2f7788	-0.042838603
222	0x3c0fad51	0.008769349
223	0xbd6e23ec	-0.058139727
224	0x3c3e2ae0	0.011606902
225	0xbb8fac09	-0.004384522
226	0xbb04d1df	-0.0020266694
227	0x3bab8bad	0.0052351565
228	0x3dbce78d	0.09223852
229	0x3c55a4fb	0.013039823
230	0x3b8e7c2e	0.0043482995
231	0x3ca48120	0.020081103
232	0xbbe4c5e2	-0.0069815973
233	0xbb61af57	-0.0034436786
234	0xbd63627a	-0.055513836
235	0x3c628bed	0.013827306
236	0x3b37689b	0.0027985934
237	0x3c0d3595	0.008618732
238	0x3b34f1e6	0.0027610003
239	0x3ccd6037	0.025070293
240	0xb992beb4	-0.00027989375
241	0x3c09ed4c	0.008418392
242	0x3b52c205	0.0032159102
243	0xbca60a3c	-0.020268552
244	0x3c982e14	0.01857666
245	0xbbed997d	-0.0072509632
246	0x3c218d1b	0.009860302
247	0x3dce7f6e	0.10082899
248	0xbd6dd8d6	-0.05806812
249	0x3b1e06bb	0.0024112898
250	0xbbb3c51c	-0.0054861438
251	0x3ccc3bea	0.024930913
252	0x3bd50487	0.006500784
253	0x3c254002	0.010086061
254	0xbd86f79f	-0.06590199
255	0x3c15fd72	0.009154664

encoder.log_var_layer.bias f4 [20]
0	0x3c783c9a	0.015151167
1	0xbd827f66	-0.063719556
2	0xbce3a9a5	-0.027790854
3	0x3cf95eb6	0.03044067
4	0xbd01551e	-0.031575315
5	0xbbd04802	-0.0063562403
6	0xbdd0aca9	-0.10189182
7	0xbba47080	-0.005018294
8	0x3c88129d	0.016610438
9	0xbd3f89ea	-0.046762384
10	0xbb4b2659	-0.0030998199
11	0xbdb61468	-0.08890611
12	0xbda55094	-0.0807201
13	0xbd578338	-0.052615374
14	0xbdf06ffb	-0.117401086
15	0xbde5c873	-0.11219873
16	0xbce9bdc2	-0.028532866
17	0x3c3f7261	0.011684985
18	0x3cd9aedc	0.026572637
19	0xbd94ccd6	-0.07265632

decoder.input_layer.weight f4 [100, 20]
0	0x3ddf102e	0.10891758
1	0xbdadf7fc	-0.08494565
2	0x3c521840	0.012823164
3	0xbdbd7788	-0.092513144
4	0x3d8de375	0.069281496
5	0x3e413857	0.18869148
6	0x3e188164	0.14893109
7	0xbd925d6f	-0.07146727
8	0xbe0462e3	-0.12928347
9	0xbd3ebba3	-0.046565663
10	0xbb821f0e	-0.003970987
11	0xbe0755dd	-0.13216348
12	0xbd1f8213	-0.038942408
13	0xbe8c136a	-0.27358562
14	0x3cfcefdc	0.030876093
15	0x3dc3030b	0.09522065
16	0x3d981cff	0.074274056
17	0xbd86bb4c	-0.06578693
18	0x3dc649b5	0.09682027
19	0xbda3888d	-0.07985029
20	0xbddd72ba	-0.10812898
21	0xbe19a242	-0.15003303
22	0x3db875ea	0.09006865
23	0x3df65992	0.12028803
24	0x3d7657d8	0.060142368
25	0x3d9b8b72	0.075949565
26	0x3cd427cb	0.025897881
27	0x3d2eb2fd	0.042651165
28	0x3e3b6290	0.18299317
29	0xbe0196bd	-0.12655158
30	0xbe926662	-0.28593737
31	0x3d426344	0.04745795
32	0x3e248faa	0.16070428
33	0x3f07768d	0.5291527
34	0x3d80d3c1	0.06290389
35	0x3e213a48	0.15744889
36	0xbd61aafc	-0.055094704
37	0x3e7bd0ea	0.24591413
38	0x3d0d5f1b	0.034514528
39	0x3d49c31d	0.04925834
40	0xbdfe523b	-0.12418028
41	0xbe11af5d	-0.14227052
42	0x3dd51135	0.104036726
43	0xbbd53701	-0.006506801
44	0xbe0da91c	-0.13834041
45	0xbd9da875	-0.07698146
46	0xbcf56c6d	-0.029958928
47	0xbdd47789	-0.10374362
48	0x3dd6930b	0.10477265
49	0x3d442340	0.04788518
50	0x3e0a66fe	0.13515851
51	0x3e0658b1	0.1311977
52	0x3dac7c30	0.084221244
53	0xbe6d8a8d	-0.23197384
54	0xbe35fb6f	-0.17771696
55	0xbe1735d8	-0.14766634
56	0xbde63f40	-0.11242533
57	0xbcda2cd9	-0.026632713
58	0x3e295fac	0.16540402
59	0x3dce55e5	0.10074977
60	0x3dc035e8	0.09385282
61	0xbd389c7b	-0.045071106
62	0x3c62d5e8	0.013844945
63	0x3df56dc6	0.11983828
64	0xbe255321	-0.16144992
65	0x3db225f2	0.08698644
66	0xbd5684e6	-0.052372836
67	0x3dad4492	0.084603444
68	0x3d8cbc09	0.06871802
69	0x3dc9798a	0.09837635
70	0xbe1149a0	-0.14188242
71	0xbd87a982	-0.06624128
72	0xbd94391b	-0.072374545
73	0xbe7b836d	-0.24561854
74	0x3e4ada11	0.19809748
75	0x3d9c85a8	0.076426804
76	0x384a1b52	4.8185997e-05
77	0x3b48e932	0.0030656573
78	0x3e0f8752	0.14016464
79	0xb9aa5f6c	-0.00032496022
80	0xbda0ece6	-0.07857685
81	0x3dd79e0f	0.10528194
82	0xbcbfa201	-0.02339268
83	0xbd484724	-0.04889597
84	0xbe7a02e8	-0.24415171
85	0x3dba4d9d	0.09096835
86	0xbcfbc93a	-0.0307356
87	0x3da351a2	0.079745546
88	0xbcd16a64	-0.025563426
89	0x3e41af51	0.18914534
90	0x3e1ffa61	0.15622856
91	0xbd733483	-0.05937625
92	0xbe2845a4	-0.16432816
93	0xbdd1c49c	-0.102425784
94	0x3e1ecf46	0.15508756
95	0xbe5879e0	-0.21140242
96	0xbd1effd2	-0.038818188
97	0x3ddccd9c	0.107814044
98	0x3c1437d3	0.009046513
99	0xbdb3a3da	-0.087714866
100	0x3e01bbca	0.12669292
101	0x3e0c9f4a	0.13732639
102	0x3d1126f0	0.035437524
103	0xbcb095fa	-0.02155589
104	0xbd26e702	-0.04074765
105	0xbe1b38bd	-0.15158363
106	0xbd718a94	-0.05897005
107	0x3e123eb8	0.14281738
108	0xbd737fd2	-0.05944807
109	0x3e1725d7	0.14760529
110	0xbe604140	-0.21899891
111	0xbe7223a9	-0.23646416
112	0xbdcee4c6	-0.10102229
113	0xbeba67f2	-0.3640743
114	0x3e80cd9d	0.2515687
115	0x3dd662dd	0.104680754
116	0x3d0255fa	0.031820275
117	0xbe1d07d6	-0.1533502
118	0x3cabcd0c	0.020971797
119	0x3e425336	0.18977055
120	0x3dab6250	0.08368361
121	0x3d159d9a	0.036527254
122	0x3e265120	0.16241884
123	0x3dffc263	0.12488248
124	0x3d2b96dd	0.04189192
125	0xbe039ec6	-0.12853536
126	0xbbf01008	-0.00732613
127	0xbd963aca	-0.07335432
128	0xbe23b30f	-0.15986274
129	0x3cff52b8	0.031167373
130	0xbe1f4001	-0.1555176
131	0x3d1ad96a	0.037805
132	0x3d83d466	0.06436996
133	0x3e96b94d	0.29438248
134	0xbc9ad2ad	-0.018899286
135	0xbd36e1ed	-0.044649053
136	0xbe246442	-0.1605387
137	0x3d6d99f8	0.058008164
138	0x3e1e830c	0.15479678
139	0xbe2432dd	-0.16035028
140	0xbd9b7241	-0.075901516
141	0x3e1d345d	0.15352006
142	0xbdd4bc0c	-0.103874296
143	0xbe71dba5	-0.23618944
144	0xbd99b487	-0.07505136
145	0x3e2ef000	0.1708374
146	0xbe13e852	-0.14444092
147	0x3d129c2c	0.03579347
148	0xbe06bd59	-0.13158168
149	0xbd2b0244	-0.041750208
150	0xbe361852	-0.17782715
151	0x3b7d0da1	0.003861286
152	0x3e2f9b94	0.17149192
153	0x3ee54c94	0.44784987
154	0xbe0beabc	-0.13663763
155	0xbe214784	-0.15749937
156	0x3e2f288e	0.17105314
157	0xbdad2813	-0.08454909
158	0x3d89eeea	0.06735022
159	0x3e22127c	0.15827364
160	0xbe20a690	-0.15688539
161	0xbdee277b	-0.11628624
162	0x3d1850ae	0.037186317
163	0x3e2812e2	0.16413453
164	0xbd884fe0	-0.0665586
165	0xbdca2186	-0.09869675
166	0x3e31baf4	0.17356473
167	0xbdc3566f	-0.0953797
168	0x3e0e80ad	0.13916273
169	0xbd839dab	-0.06426557
170	0x3d906cee	0.07052027
171	0xbd6d7977	-0.057977166
172	0x3c1256a9	0.008931794
173	0x3e7c7604	0.24654394
174	0x3da7ff79	0.082030244
175	0xbe10f474	-0.14155751
176	0xbd3fa6e5	-0.046790022
177	0xbe22adfa	-0.1588668
178	0x3ccb691a	0.02483039
179	0xbd989596	-0.07450406
180	0xbde7614f	-0.11297857
181	0x3bc9c666	0.006157684
182	0x3dbde7fa	0.09272762
183	0x3cf650e5	0.03006787
184	0x3dcd3d40	0.10021448
185	0xbd80e5cd	-0.06293831
186	0xbde674c6	-0.112527415
187	0xbe079ee9	-0.13244213
188	0x3d9b3252	0.07577957
189	0x3d97d7ec	0.07414231
190	0xbd842581	-0.06452466
191	0x3df06d1a	0.117395595
192	0xbdd1cda3	-0.102443
193	0x3e4677b2	0.19381598
194	0x3dfbd525	0.122965135
195	0x3d8633c8	0.06552845
196	0x3df86165	0.121279515
197	0xbd0e0c82	-0.034679897
198	0xbe0fa28c	-0.1402685
199	0xbd945c3e	-0.07244156
200	0x3de8b871	0.113633044
201	0x3da00e12	0.07815184
202	0xbe57cd8b	-0.21074502
203	0xbd2ba62b	-0.041906517
204	0xbe8bf8d7	-0.27338287
205	0xbe3a6095	-0.18200906
206	0x3cdce46c	0.026964389
207	0x3e30fd82	0.17284206
208	0x3d7d29d3	0.061807465
209	0xbe02dc7c	-0.1277942
210	0x3e5e99b8	0.21738327
211	0xbcf1ffd7	-0.02954094
212	0x3e68094d	0.22659798
213	0x3ef70fa1	0.4825411
214	0xbe5b36ad	-0.21407576
215	0x3e1b39d7	0.15158783
216	0xbdc77e98	-0.09740943
217	0xbe0de2b1	-0.13856007
218	0xbd3b7d6d	-0.045773912
219	0xbd591cf2	-0.05300612
220	0x3c990f62	0.018684093
221	0xbde1856f	-0.110117786
222	0x3e21092e	0.15726158
223	0x3e16db1e	0.14732024
224	0xbe047a79	-0.12937345
225	0x3bf3bde0	0.0074384063
226	0x3e17e8f2	0.14834955
227	0x3dfc636b	0.1232365
228	0x3cf3c2a3	0.029755896
229	0x3ca60b34	0.020269014
230	0x3d5898e8	0.052880198
231	0x3dea23ab	0.114325844
232	0x3ebb5930	0.36591482
233	0x3d859141	0.065218456
234	0xbdedac66	-0.11605148
235	0x3c9d349e	0.019190129
236	0x3dbcf05e	0.09225534
237	0x3d0a94ab	0.033833187
238	0x3e06cffc	0.13165277
239	0x3e276aa7	0.16349278
240	0x3deb3ff7	0.1148681
241	0xbe02239d	-0.12708898
242	0xbd86984b	-0.06572016
243	0x3d86dafe	0.06584738
244	0xbc5672dc	-0.013088908
245	0xbc6d567c	-0.0144859515
246	0xbd6a8b15	-0.057261545
247	0xbd4ae864	-0.04953803
248	0xbe4aa71a	-0.19790307
249	0x3b960d3f	0.004579216
250	0xbdb86dd8	-0.09005326
251	0xbe3ec981	-0.18631555
252	0xbdbe0a6d	-0.09279332
253	0xbe27ddf7	-0.16393267
254	0x3b70e930	0.0036760084
255	0x3d05464e	0.03253775

decoder.input_layer.bias f4 [100]
0	0x3e80e186	0.2517206
1	0x3df3e0fb	0.11908146
2	0x3e92a950	0.286448
3	0xbe604d5a	-0.21904507
4	0xbe6f27c2	-0.2335501
5	0x3d36d483	0.04463626
6	0x3ebfbdfd	0.37449637
7	0x3e28e7e3	0.16494708
8	0x3d4175eb	0.047231596
9	0xbe89ea5c	-0.26936615
10	0x3ec5a185	0.38599792
11	0xbeebb695	-0.46037737
12	0xbe7c8bbf	-0.24662684
13	0xbd2984d2	-0.041386433
14	0xbe0856a2	-0.13314298
15	0xbd7e5060	-0.06208837
16	0x3db13dbd	0.08654354
17	0x3ec29057	0.38000748
18	0x3e12d760	0.14339972
19	0xbd7c08f0	-0.06153196
20	0xbdc37b26	-0.09544973
21	0x3ed189a8	0.40925336
22	0x3e74e4cd	0.23915406
23	0x3eaecf76	0.34142655
24	0x3c008f3e	0.007846652
25	0x3e84e600	0.25956726
26	0x3b98fc1b	0.004668725
27	0x3da41022	0.080108896
28	0xbd090dc0	-0.03346038
29	0xbd29ba6f	-0.041437563
30	0x3e1c1c7e	0.15245244
31	0x3e6f5119	0.2337078
32	0xbe817584	-0.2528497
33	0x3e33b6f3	0.17550258
34	0xbe663dde	-0.22484538
35	0x3eafc2a4	0.34328187
36	0xbea056d4	-0.31316245
37	0x3d3639d0	0.044488728
38	0x3e138d16	0.14409289
39	0xbc4d242b	-0.01252083
40	0x3e6419ba	0.22275439
41	0x3e0d83a7	0.13819753
42	0xbe740366	-0.23829421
43	0x3eb423e5	0.35183635
44	0xbeb5c024	-0.35498154
45	0x3e951c9a	0.29123384
46	0x3ec537fb	0.38519272
47	0x3e81bcea	0.25339442
48	0xbe855c09	-0.2604678
49	0x3ba73c8c	0.0051036533
50	0x3e53236f	0.20618986
51	0x3e6c5f4c	0.23083228
52	0x3de0b5ae	0.10972153
53	0xbcef3232	-0.02919874
54	0xbdd72d6d	-0.10506711
55	0x3eb1953d	0.34684172
56	0x3f02b33f	0.5105476
57	0xbec37c40	-0.38180733
58	0x3d01615c	0.03158699
59	0xbe80dfce	-0.2517075
60	0xbd2ebf3b	-0.04266284
61	0x3e53d1e5	0.20685537
62	0xbe60a413	-0.2193759
63	0xbee4837b	-0.44631562
64	0xbed404e9	-0.41409996
65	0xbede71df	-0.43446252
66	0x3d427d1b	0.04748259
67	0x3c14ca3e	0.009081421
68	0x3dd6edbc	0.10494563
69	0xbc621b14	-0.013800401
70	0x3d4ac490	0.049503863
71	0xbe8f99d2	-0.28047043
72	0xbcedf92e	-0.029049482
73	0x3e8ed8aa	0.27899677
74	0x3e6e5471	0.232744
75	0xbe653811	-0.22384669
76	0xbe949043	-0.29016313
77	0x3d997b57	0.07494228
78	0xbc808795	-0.01568965
79	0xbe36f49a	-0.17866746
80	0xbde4294d	-0.1114069
81	0xbca24a95	-0.019810954
82	0x3cd32e84	0.025779016
83	0xbd8385a1	-0.06421972
84	0x3e7daf36	0.24773869
85	0xbe978987	-0.29597113
86	0xbe988fc2	-0.29797179
87	0xbd1248dc	-0.035714015
88	0xbcbf9d16	-0.023390334
89	0xbdb6c8c0	-0.08925009
90	0xbc682e86	-0.014171248
91	0x3e62c4c7	0.22145377
92	0x3ded86b5	0.11597959
93	0xbcecd452	-0.028909836
94	0x3e89ed8e	0.26939052
95	0xbd6f0ce4	-0.058361903
96	0xbb5fcc1a	-0.0034148754
97	0xbe607a92	-0.21921757
98	0x3e31b784	0.17355162
99	0xbd0bf8e7	-0.03417292

decoder.lstm_layer.weight_ih_l0 f4 [400, 100]
0	0x3d52269b	0.05130635
1	0xbd99ea72	-0.0751542
2	0x3d253bf6	0.040340386
3	0x3e11821d	0.1420979
4	0x3db7bc5a	0.08971472
5	0x3e456bd5	0.19279416
6	0xbdbda5a3	-0.09260108
7	0x3ccdc7b8	0.025119647
8	0xbd017529	-0.031605873
9	0x3c8de8e2	0.017322961
10	0x3e1af959	0.15134181
11	0x3e63de9f	0.22252892
12	0x3dc2e615	0.09516541
13	0x3d2dd1f9	0.042436574
14	0x3e101f70	0.14074492
15	0x3ddf3a65	0.1089981
16	0x3dd33d36	0.103144094
17	0x3e973975	0.29536024
18	0x3dd2fdbe	0.10302304
19	0xbd2b95ba	-0.041890837
20	0x3ca7644e	0.020433571
21	0x3d337a04	0.043817535
22	0x3dbb3265	0.09140471
23	0x3b162522	0.0022910316
24	0x3e0b743f	0.13618563
25	0x3d40997f	0.047021385
26	0x3e33d75e	0.17562625
27	0x3e04eaad	0.12980147
28	0x3d22a1e3	0.03970517
29	0x3d970642	0.073742405
30	0x3c174cd5	0.009234627
31	0xbde2761b	-0.11057683
32	0x3dd3d0ef	0.10342585
33	0xbc180890	-0.009279385
34	0xbc623575	-0.01380669
35	0x3da155e0	0.078777075
36	0x3c5d9f8a	0.013526807
37	0x3d926762	0.07148625
38	0x3da6200d	0.08111582
39	0x3da95708	0.08268553
40	0x3df4ae47	0.11947303
41	0x3dc85e72	0.09783639
42	0x3e22d36c	0.15900964
43	0x3da40228	0.08008224
44	0xbcecb827	-0.028896404
45	0x3d20aee4	0.03922929
46	0x3e49765c	0.19674057
47	0x3d1d11fd	0.038347233
48	0x3e9aa3de	0.30203146
49	0xbc437c23	-0.011931452
50	0x3e080c26	0.13285884
51	0x3e01f5fd	0.12691493
52	0x3d1ab823	0.037773263
53	0x3b0bccc6	0.0021331771
54	0xbda539ae	-0.08067642
55	0x3e1c7604	0.15279394
56	0x3dcb024c	0.099125475
57	0x3c934eab	0.017981848
58	0xbde7decb	-0.11321791
59	0x3e197d18	0.14989126
60	0xbdf6499a	-0.12025757
61	0x3e1c182b	0.15243594
62	0xbc9b662b	-0.018969616
63	0x3da3c0a6	0.07995729
64	0x3d9dc012	0.0770265
65	0xbdd45a8b	-0.10368832
66	0xbb246f15	-0.0025090624
67	0x3dd27b86	0.102774665
68	0x3e69048a	0.22755638
69	0x3dade686	0.084912345
70	0x3dbca395	0.09210888
71	0xbd552789	-0.052039657
72	0x3e0394c0	0.12849712
73	0x3e4a9bce	0.19785997
74	0x3e0f1e2b	0.13976352
75	0xbd107c99	-0.035275076
76	0x3d807f49	0.06274278
77	0x3e8014c0	0.2501583
78	0x3e22d9c5	0.15903385
79	0x3c2d6ad2	0.01058455
80	0x3dfd4181	0.123660095
81	0xbdc6756f	-0.096903674
82	0x3d6de83c	0.058082804
83	0x3d8e136f	0.069373004
84	0xbce1e288	-0.027573839
85	0xbd239bcb	-0.039943498
86	0xbcbdea03	-0.023182875
87	0x3dacd4c8	0.08439022
88	0x3d269043	0.040664922
89	0x3e7929af	0.24332307
90	0x3d545e40	0.051847696
91	0x3dde924b	0.10867747
92	0x3e969db3	0.2941719
93	0x3d2b3694	0.041800097
94	0x3d423eb5	0.047423083
95	0x3dae59b1	0.08513201
96	0x3e3c932f	0.18415521
97	0x3e15fd5d	0.14647432
98	0x3d995cc7	0.07488399
99	0x3d074802	0.033027656
100	0x3e90c18e	0.2827267
101	0x3d6288c2	0.055306204
102	0x3e393c7c	0.18089479
103	0xbca7a69e	-0.020465191
104	0x3db19ca3	0.08672454
105	0x3def070a	0.116712645
106	0x3ea075c5	0.3133985
107	0x3e92982f	0.28631732
108	0x3e6da2d2	0.23206642
109	0x3e290dc7	0.16509162
110	0x3e58e107	0.21179591
111	0x3d90cb5c	0.07070038
112	0x3d8a2759	0.06745786
113	0x3e0285be	0.12746331
114	0x3e1a501b	0.1506962
115	0x3db9f239	0.090794034
116	0x3da42dca	0.08016546
117	0x3e3bb6b2	0.18331411
118	0x3e2bca2a	0.16776338
119	0x3e2e889e	0.17044303
120	0x3e64edce	0.2235634
121	0x3e9272e9	0.28603294
122	0x3e3f4ffd	0.18682857
123	0x3e13bba6	0.14427051
124	0x3e5385aa	0.20656458
125	0x3e762324	0.24036843
126	0x3e80a2dc	0.25124252
127	0x3e289358	0.16462457
128	0x3e8d8b51	0.27645352
129	0x3e3595cd	0.17732926
130	0x3e4d01d7	0.20020233
131	0x3e665558	0.22493494
132	0xbcbf1d8f	-0.023329524
133	0x3d571e2d	0.052519012
134	0x3d56bc00	0.052425385
135	0x3e80dfce	0.2517075
136	0x3e5acfc8	0.21368325
137	0x3e142369	0.14466633
138	0x3e62937b	0.22126572
139	0x3e01f016	0.12689242
140	0x3e01d40c	0.12678546
141	0x3e00ac5a	0.12565747
142	0x3e28077c	0.16409105
143	0x3e1f11f2	0.1553419
144	0x3d7c1c00	0.06155014
145	0x3e78bd0e	0.24290869
146	0x3df7c39e	0.12097858
147	0x3e3f72f9	0.18696202
148	0x3e2760c3	0.16345505
149	0x3e0db558	0.13838708
150	0x3e906616	0.28202885
151	0x3e4f17eb	0.20223968
152	0x3e55f032	0.20892408
153	0x3e634e81	0.22197916
154	0xbc089621	-0.008336575
155	0x3e69e525	0.22841318
156	0x3e927e3a	0.28611928
157	0xbd7dcbb6	-0.061961852
158	0x3e1b0f09	0.15142454
159	0x3cd85c26	0.026411127
160	0x3e3b7380	0.18305779
161	0x3e3ab72e	0.1823394
162	0xbd0001f5	-0.031251866
163	0xbd1cc7ca	-0.03827647
164	0x3d05765f	0.03258359
165	0x3d64b0df	0.05583274
166	0x3e135c89	0.14390768
167	0x3dd05c5a	0.10173865
168	0x3d90ec60	0.07076335
169	0x3dd40f6a	0.103545025
170	0x3d8cc54b	0.06873568
171	0x3e030a1a	0.12796822
172	0x3e59fb7e	0.21287343
173	0x3e38c94f	0.18045543
174	0x3e8434d4	0.25821555
175	0x3d3398aa	0.043846764
176	0x3e022152	0.12708023
177	0x3ea51635	0.32243505
178	0x3e2462fc	0.16053385
179	0x3d816449	0.06317956
180	0x3e363bd9	0.17796268
181	0x3e34af63	0.1764503
182	0x3e690469	0.22755589
183	0x3dd7ff33	0.10546722
184	0x3e5e3c9d	0.2170281
185	0x3e6ea4b6	0.2330502
186	0x3e0be0ad	0.13659926
187	0x3deff6bb	0.11716982
188	0x3df1c816	0.118057415
189	0x3e0ac1fd	0.13550563
190	0x3dd840b9	0.1055922
191	0x3e3eb28f	0.18622802
192	0x3ddbb9ec	0.10728821
193	0x3e81b6c0	0.2533474
194	0x3e3443ee	0.17604038
195	0x3e1ab8cd	0.15109558
196	0x3e2e18c9	0.17001642
197	0x3d2bf1d7	0.041978683
198	0x3e536cd1	0.20646979
199	0x3e2959be	0.1653814
200	0x3b1fa331	0.0024358744
201	0xbd8f086e	-0.0698403
202	0xbc5248c5	-0.012834732
203	0x3d8aa976	0.06770603
204	0x3e2379ac	0.15964383
205	0x3cc2dad9	0.023785995
206	0xbc8c0540	-0.017092347
207	0x3d92f470	0.07175529
208	0x3cd6bb55	0.026212374
209	0x3d6b4a10	0.05744368
210	0x3c3519c2	0.011053504
211	0x3e3a0371	0.18165375
212	0x3b9b1443	0.00473264
213	0x3b0cdc35	0.0021493558
214	0x3e2cbfb1	0.1687
215	0xbd4ee7fd	-0.05051421
216	0x3c995cef	0.018721072
217	0xbde6f352	-0.112768784
218	0x3d219000	0.03944397
219	0xbbf32816	-0.00742055
220	0x3e118d52	0.14214066
221	0x3d9c31f6	0.07626717
222	0x3c4a2ea1	0.012340219
223	0xbe006213	-0.12537412
224	0xbd731db4	-0.0593545
225	0x3e1e70b4	0.1547268
226	0xbd8920b8	-0.06695694
227	0x3d8e57cd	0.069503404
228	0x3c7935ff	0.015210628
229	0x3d487b64	0.0489458
230	0xbd23fea5	-0.04003777
231	0x3c49211e	0.012275962
232	0x3d6807aa	0.056647934
233	0x3d864620	0.06556344
234	0xbdce46b0	-0.10072076
235	0xbc198b3e	-0.009371577
236	0xbd305abd	-0.043055285
237	0xbd5e38cd	-0.05425339
238	0xbdcd03e0	-0.10010505
239	0x3e21549b	0.1575493
240	0xbcf19882	-0.029491667
241	0x3d6c925c	0.057756767
242	0x3e08a39f	0.13343666
243	0xbdb8231e	-0.08991073
244	0x3dca9be4	0.09893015
245	0x3d5492cf	0.05189782
246	0xbd423d6f	-0.04742187
247	0x3d1792e7	0.03700533
248	0xbdb25d60	-0.08709216
249	0x3c1e0299	0.009644174
250	0xbdaa450e	-0.083139524
251	0xbdcbb020	-0.099457026
252	0x3d8a135c	0.06741974
253	0x3d43b06d	0.047775675
254	0x3e1271de	0.1430125
255	0x3dabc677	0.083874635

decoder.lstm_layer.weight_hh_l0 f4 [400, 100]
0	0xbd053f0f	-0.03253084
1	0xbd9765da	-0.073924735
2	0xbcc1344b	-0.023584506
3	0xbdcf09c0	-0.101092815
4	0xbefee2dd	-0.49782458
5	0xbe8ead4d	-0.27866593
6	0x3e0bca11	0.13651301
7	0x3daf6f3a	0.08566137
8	0xbea931ec	-0.330459
9	0xbe2afe9e	-0.16698691
10	0xbcc7d1d9	-0.024392055
11	0xba031b92	-0.0005001362
12	0x3e2e6fd4	0.17034847
13	0xbd3f3b2f	-0.0466873
14	0xbcbe27da	-0.023212362
15	0xbd585e73	-0.05282445
16	0x3d3bcf5e	0.045852058
17	0xbe34c6cb	-0.17653958
18	0x3df4c523	0.11951663
19	0x3db08de6	0.08620815
20	0x3ead3fe3	0.33837804
21	0x3de01202	0.10940935
22	0x3e185f18	0.14880025
23	0x3e4be481	0.19911386
24	0x3d050711	0.032477442
25	0xbd5eb059	-0.054367397
26	0xbd19f7f3	-0.03758998
27	0x3e2cd438	0.1687783
28	0xbd7d1ffd	-0.061798085
29	0x3e266f2e	0.16253349
30	0xbd6711a8	-0.056413323
31	0x3e624784	0.22097594
32	0x3df6f0be	0.12057637
33	0xbd6b996d	-0.057519365
34	0x3da97843	0.08274891
35	0xbb73a975	-0.0037179862
36	0x3e126ef7	0.14300142
37	0x3e4c57cd	0.19955368
38	0x3d2bcad8	0.041941494
39	0x3dba31e9	0.09091551
40	0xbc0fd9b6	-0.008779934
41	0x3e86eb8e	0.2635159
42	0xbca7a6ad	-0.02046522
43	0x3da4e307	0.080511145
44	0x3e808e0a	0.25108367
45	0xbda11e16	-0.078670666
46	0xbe37a1b4	-0.17932779
47	0x3cc41a9d	0.023938471
48	0x3ad6404f	0.001634607
49	0xbe5d938a	-0.21638313
50	0x3e629b8b	0.22129647
51	0x3e77a18b	0.24182718
52	0xbe07e1a8	-0.13269675
53	0x3d8bc489	0.068245955
54	0xbdcff663	-0.101544164
55	0xbd23f022	-0.04002393
56	0xbe09a9ec	-0.13443726
57	0x3e0b85d8	0.13625276
58	0xbe40db09	-0.18833555
59	0xbe6968a3	-0.22793822
60	0x3d9c3bf4	0.07628623
61	0x3d16c4f7	0.036808934
62	0x3e88405f	0.2661161
63	0xbdf49166	-0.11941795
64	0x3e2e755b	0.17036955
65	0x3e23d6b7	0.15999876
66	0xbd190ec9	-0.037367616
67	0xbbc6b175	-0.006063635
68	0xbe5a2572	-0.21303347
69	0xbe8b564f	-0.27214286
70	0x3e6caaf7	0.23112093
71	0xbda2567e	-0.07926653
72	0x3dd3e442	0.10346271
73	0xbe94a965	-0.29035488
74	0x3e01eb28	0.12687361
75	0x3ed6e666	0.41972655
76	0xbc00cf78	-0.007861964
77	0x3e047257	0.12934242
78	0xbe0c88c8	-0.13724053
79	0x3d33b331	0.043872062
80	0xbd33fbfd	-0.043941487
81	0xba6bc46c	-0.0008993808
82	0x3e331f1d	0.17492338
83	0xbe2c09c9	-0.16800608
84	0x3dfefd5b	0.124506675
85	0x3e2cc754	0.16872913
86	0xbe31dde2	-0.17369798
87	0x3caf5ca5	0.021406481
88	0xbddbb8e4	-0.107286245
89	0xbe63a5de	-0.22231242
90	0xbe5c55ea	-0.21517149
91	0x3e4d82c4	0.20069414
92	0xbea4dbef	-0.32199046
93	0xbe082e3e	-0.1329889
94	0xbdbf17e9	-0.093307324
95	0x3dc101d6	0.09424178
96	0x3d1901e0	0.037355304
97	0x3ddd82df	0.10815977
98	0xbdede17c	-0.11615273
99	0xbe3175f9	-0.17330159
100	0xbdeac9f6	-0.11464302
101	0xbe4e752d	-0.20161887
102	0xbe590fce	-0.21197435
103	0xbe43ecb2	-0.19133261
104	0x3e5dc9ca	0.21659008
105	0x3d9a505f	0.07534861
106	0xbe4e367a	-0.20137969
107	0x3e14e4a7	0.14540349
108	0x3d645e52	0.055754013
109	0x3d415bb3	0.04720659
110	0x3d3874df	0.045033332
111	0x3e6360f8	0.2220496
112	0xbe672aaf	-0.22574876
113	0x3ad7a395	0.001645195
114	0x3c936109	0.017990606
115	0x3db22b18	0.08699626
116	0x3e98c756	0.2983958
117	0xbe0c9fb0	-0.13732791
118	0xbe8c524b	-0.27406535
119	0xbd5e86fc	-0.05432795
120	0xbd490149	-0.04907349
121	0x3d814639	0.06312222
122	0xbea84676	-0.32866257
123	0xbd27df49	-0.040984426
124	0x3e31750f	0.1732981
125	0x3e89dc7f	0.26926038
126	0x3df01e50	0.11724532
127	0x3e13b4f9	0.14424504
128	0xbd82cab5	-0.063863195
129	0xbd7f242d	-0.06229036
130	0xbd53b619	-0.051687334
131	0x3d608925	0.05481829
132	0x3e3a878a	0.18215767
133	0xbd93f874	-0.07225123
134	0xbe2a499f	-0.16629647
135	0x3e4cdc37	0.2000588
136	0xbde7638c	-0.11298284
137	0xbe66bb55	-0.22532399
138	0x3dca4b44	0.09877637
139	0xbd0449f0	-0.032297075
140	0xbd18e883	-0.037331115
141	0x3d31b6b3	0.043387126
142	0x3d9ecd45	0.07753996
143	0xbe2ae5c3	-0.1668921
144	0x3d7f6ff2	0.06236262
145	0xbde6a51c	-0.11261961
146	0xbb21f87a	-0.0024714754
147	0x3d8b9f05	0.0681744
148	0xbc96fe7d	-0.018431896
149	0xbe3a3cec	-0.18187302
150	0x3e4294e2	0.19002107
151	0x3e76625c	0.24060959
152	0x3d2cd4fd	0.04219531
153	0xbe148d93	-0.14507131
154	0x3da6f49c	0.08152124
155	0x3d090d78	0.03346011
156	0xbe282a41	-0.16422369
157	0x3becafe5	0.0072231167
158	0x3e363f35	0.17797549
159	0xbdd4312c	-0.10360941
160	0x3e9da230	0.30787802
161	0x3e22e69e	0.15908286
162	0x3dd79246	0.10525946
163	0xbdfac1ec	-0.12244019
164	0xbd75532b	-0.05989377
165	0x3def4e6c	0.1168488
166	0x3ca8af40	0.020591378
167	0x3d8bcdd7	0.0682637
168	0x3e2bdc29	0.16783203
169	0xbec3d3c7	-0.3824751
170	0x3ce6bcb3	0.02816615
171	0xbe32b152	-0.17450455
172	0x3e0ad732	0.13558653
173	0x3e413007	0.18865977
174	0xbe46b1a5	-0.19403704
175	0xbdb93936	-0.09044115
176	0x3e4af2f0	0.19819236
177	0xbd838f02	-0.06423761
178	0x3e017de3	0.12645678
179	0x3d6d40fb	0.0579233
180	0x3d0ce7aa	0.03440062
181	0xbd526659	-0.051367138
182	0x3b2970e4	0.0025854642
183	0xbe84984c	-0.25897443
184	0x3d801999	0.06254882
185	0xbe8d8686	-0.27641696
186	0x3dc76ec9	0.097379275
187	0xbe1efc28	-0.15525877
188	0xbe9478b7	-0.28998348
189	0x3debd427	0.11515074
190	0xbe22e2a7	-0.15906774
191	0x3e25e3e0	0.16200209
192	0x3e1482c8	0.14503014
193	0xbe1ec82e	-0.1550605
194	0xbce54680	-0.027987719
195	0x3e2a485e	0.16629168
196	0x3e051986	0.12998018
197	0x3c59b14e	0.013286902
198	0xbd139d3f	-0.036038633
199	0xbe86c34e	-0.2632088
200	0x3db5a1e9	0.088687725
201	0xbd5a66cf	-0.053320702
202	0x3e565d1b	0.20933954
203	0xbe1aa686	-0.15102586
204	0xbd5173aa	-0.051135696
205	0xbf1615f6	-0.5862726
206	0x3e69f07b	0.22845642
207	0x3e105421	0.14094593
208	0xbe95f29f	-0.29286668
209	0xbe6faabd	-0.23404975
210	0xbecac3ff	-0.39602658
211	0x3e040785	0.12893493
212	0xbd856c0c	-0.06514749
213	0x3dda3ad8	0.10655755
214	0xbe86935a	-0.26284295
215	0x3eb53071	0.3538852
216	0xbd6823c6	-0.05667474
217	0x3d92315d	0.071383215
218	0xbe42d976	-0.19028267
219	0xbdc9adad	-0.09847579
220	0x3c9e8617	0.019351048
221	0x3c8b82b4	0.017030098
222	0xbc7d6a27	-0.015467203
223	0xbde73e99	-0.112912364
224	0x3d822906	0.06355481
225	0x3e5531e1	0.20819809
226	0x3d95374c	0.07285938
227	0xbe3d2fc2	-0.1847525
228	0x3d2fd157	0.04292425
229	0xbe047ac6	-0.1293746
230	0x3e9b26fb	0.30303177
231	0xbe919652	-0.28434998
232	0x3c4e1336	0.012577822
233	0xbe739095	-0.23785622
234	0xbde8958c	-0.11356649
235	0xbe5029ca	-0.20328441
236	0xbdfe583a	-0.12419172
237	0x3df94487	0.12171274
238	0xbc394786	-0.011308556
239	0xbe496cc5	-0.19670399
240	0xbe00a007	-0.12561046
241	0xbe9feb56	-0.31234235
242	0xbde5e137	-0.11224597
243	0x3beb17ab	0.0071744523
244	0xbde08da5	-0.109645166
245	0x3aeb3615	0.0017945195
246	0xbe876364	-0.26443017
247	0x3e7840e5	0.24243505
248	0x3de0df6a	0.10980113
249	0xbe8138ef	-0.2523875
250	0x3dce3194	0.1006805
251	0xbe3482d4	-0.17628032
252	0xbe98391b	-0.29731068
253	0xbdf3026f	-0.118656985
254	0xbde59550	-0.1121012
255	0x3e3348c2	0.17508224
