models/surnames.pth (torch, 193146 bytes, 16 tensors)

encoder.conv_layer_1.weight f4 [45, 1, 3]
000000 33 1e ae be 2c f1 02 3e 52 88 7c 3e 6f 49 81 be
       -0.34007415 0.12787312 0.24661377 -0.25251338
000010 2d 29 dd 3e 08 d0 fd bd 9e 1c a6 be 24 6f a1 3d
       0.43195477 -0.123931944 -0.32443708 0.078825265
000020 ad 77 99 3e c7 6b 34 3e cf e5 58 3e e3 e7 04 be
       0.29974118 0.17619239 0.21181415 -0.12979083
000030 68 63 31 bc 33 3a dc bb 11 b8 9f 3d 9a 1d 7b be
       -0.010826923 -0.006720805 0.0779878 -0.24523011
000040 79 80 d5 be 37 33 90 3e 01 b4 62 3e 3a 8b 17 bf
       -0.4169958 0.28164074 0.22138979 -0.5919682
000050 d5 5f bd 3e 4b 1e f3 bd b3 f6 01 3d 04 ae 75 3c
       0.36987177 -0.11871012 0.03172941 0.014995102
000060 fb c4 df bd b7 7f cb 3d 6e 0e 20 be f9 71 dc be
       -0.10926243 0.09936469 -0.15630504 -0.43055704
000070 32 6c 98 be 32 5d 7c 3d 87 cf 12 3e 78 db 15 bf
       -0.29770046 0.061612315 0.14336978 -0.5853801
000080 29 72 8b 3c f0 ea 0d be 3f 02 b6 3d 78 4f bd be
       0.01702221 -0.13859153 0.08887147 -0.36974692
000090 b1 a4 33 be 45 33 19 3d cd 8a 35 bd b5 aa ba 3e
       -0.17543294 0.03740241 -0.044321824 0.36458364
0000a0 41 0a b0 3e fd 1d f3 be e2 63 3c 3c 10 e7 35 be
       0.34382823 -0.47483817 0.011498423 -0.17763925
0000b0 1b fb 33 3d 5f 64 1f 3d 54 bd d6 bd 4e 53 e1 3d
       0.043940645 0.03891408 -0.1048533 0.11002217
0000c0 43 d7 91 be 1f 6a 7a bd 17 de cd 3d 4a 52 9a 38
       -0.28484544 -0.06113636 0.10052126 7.35862e-05
0000d0 9e a6 30 bb e2 28 9f bc 2f a0 e2 be e9 20 a3 be
       -0.002695478 -0.019428674 -0.44262835 -0.31861046
0000e0 e6 32 55 be 04 26 bd 3d ce 62 90 3e 86 dc ff be
       -0.20820197 0.092357665 0.28200382 -0.49972934
0000f0 84 d8 88 be 01 d6 8c be d5 1c ce 3d a6 28 d3 3e
       -0.26727688 -0.27507022 0.10064093 0.4124195
000100 f8 f2 c2 3e 02 f4 92 be c2 42 37 3d 8b 55 99 bd
       0.38075995 -0.28701788 0.0447414 -0.07487019
000110 23 3c 9d be 7b b2 d5 be d1 9e 2b 3e c5 5c 19 bd
       -0.30709943 -0.41737732 0.16759802 -0.037441988
000120 0c 17 ef be 96 cb f8 bd 44 01 c7 3e 3b c3 c2 bc
       -0.4669727 -0.12148206 0.38868153 -0.023774734
000130 cf e1 ee 3d b2 3b 81 be db f8 f7 bd 6d a5 86 be
       0.11664163 -0.25240856 -0.12108012 -0.26298085
000140 5d b0 60 be 36 64 bc 3e c2 4d 4a be 08 91 c1 bd
       -0.21942277 0.36795205 -0.19756225 -0.09451491
000150 9a 24 0d be ee c4 c2 3e 4c 39 1c be 05 1a 71 3d
       -0.13783494 0.3804087 -0.15256232 0.058862705
000160 da 20 95 be a6 c1 25 be 12 f5 20 3e 96 06 57 be
       -0.29126626 -0.16187152 0.15718487 -0.20998606
000170 64 58 99 3d e7 4b ef be 45 a9 a0 be 81 9c 1e bd
       0.07487562 -0.46737596 -0.31379142 -0.038723473
000180 ce ca b9 3d 95 61 e9 bd da 49 8a 3c be bc 92 be
       0.09071885 -0.113955654 0.016880918 -0.28659624
000190 5e 72 9a 3d dd a6 31 3e cc 7c d0 bc 9d c0 e1 3d
       0.07541345 0.1734881 -0.025450133 0.11023066
0001a0 78 0e aa bb d7 1e 72 3e e2 ef 96 3c 56 89 99 bc
       -0.005189713 0.23644577 0.018424932 -0.018742245
0001b0 13 29 e4 3e 45 bb 2e bc 26 c7 17 be 9c 88 4d 3e
       0.44562587 -0.010664766 -0.14822063 0.20071644
0001c0 ea 79 84 3e 37 1a 36 be dd 44 08 3d a7 c0 ea bc
       0.25874263 -0.17783438 0.0332688 -0.028656317
0001d0 82 81 9c 3e 93 82 94 3b 14 6a 16 bc e8 83 74 bc
       0.30567557 0.004532167 -0.009180564 -0.014924027
0001e0 ba 42 b0 be b0 a9 bd 3e 90 36 b5 be 88 4b 2f bd
       -0.34425908 0.37043524 -0.3539319 -0.04279664
0001f0 41 b8 07 3e 2c 3c 56 be e4 f0 e2 3d ee 79 94 be
       0.13253881 -0.20921391 0.110811025 -0.28999275
000200 8c 83 0b bf f0 63 98 3c 07 06 eb bc 30 51 93 bc
       -0.544976 0.018602341 -0.028689397 -0.01798305
000210 7f 2d 09 3d 37 06 35 be 29 aa b0 3d
       0.033490654 -0.17678152 0.086262055

encoder.conv_layer_1.bias f4 [45]
000000 2b e3 19 be 4c 24 f5 be 3b 42 16 bf 19 35 3a bf
       -0.15028064 -0.47879255 -0.5869481 -0.7273727
000010 37 38 1e bf 7a f5 70 3e aa 3e 27 be f0 a4 d4 be
       -0.6180453 0.23531142 -0.16332498 -0.41532087
000020 eb 93 d5 bd 4a d4 0a 3f 3c 9e ab be 08 3b b8 3e
       -0.10428604 0.5423018 -0.3351916 0.35982537
000030 0e ba ca 3d 51 19 a6 be 7c 38 b5 bd b6 70 97 be
       0.09898768 -0.3244119 -0.08848664 -0.2957818
000040 5a 03 29 3e f1 1a 8c be 31 13 c6 3e da ee 16 3f
       0.16505185 -0.27364305 0.38686517 0.5895821
000050 0d e9 32 3d 4e 3c c8 be 68 1c 1d be 14 5c 30 3d
       0.043679286 -0.3910851 -0.15342867 0.043056563
000060 72 f1 ec 3e 76 ed 23 bf e3 d4 ee be e6 26 89 3e
       0.46277958 -0.6403421 -0.46646795 0.2678749
000070 c7 c0 ca bd 37 47 6f be 36 e2 8b bd 88 92 4b be
       -0.099000506 -0.2336701 -0.06830256 -0.19880116
000080 f2 c9 5e bf 22 6a 06 bf b5 f1 8c 3e 55 f3 bd 3e
       -0.87026894 -0.52505696 0.27528158 0.3709971
000090 31 e0 05 3e 47 6c 22 be 53 3a f3 3e 6a e1 a8 be
       0.13073803 -0.15861617 0.47505435 -0.32984477
0000a0 68 8d e0 3d ce 53 44 3d 79 75 1e bf 36 9f 05 bf
       0.10964471 0.047931485 -0.61898 -0.5219606
0000b0 7a 9e e2 be
       -0.44261533

encoder.conv_layer_2.weight f4 [35, 45, 3]
000000 d2 6b 88 3c dd cc 26 3d 10 f8 bc bc 9d 2b d8 3b
       0.016652975 0.040722717 -0.023067504 0.006596996
000010 da c0 b6 bd 82 2a 94 3c d3 92 de 3b 4b 67 f9 3c
       -0.08923502 0.018086676 0.006792405 0.030444762
000020 91 cb 8e 3c a9 bf 61 3c 2b c9 2f 3d 6a 27 24 bd
       0.017431052 0.0137786055 0.042916458 -0.04007665
000030 7e 75 8b bd 6a 1a c3 bb c8 62 77 3d 1b 95 4b 3d
       -0.06809519 -0.0059540765 0.06039694 0.049702745
000040 cf ff 16 bd b6 54 50 3d bd d1 98 bd 55 bd 3d bd
       -0.03686505 0.050862037 -0.074618794 -0.04632314
000050 2e 75 ea 3d 03 2d aa 3d 61 6f 0b 3d e0 0f 5c 3d
       0.114481315 0.083093666 0.034041766 0.053726077
000060 8e fd 22 bd 5f 77 ac bc 2f 6d 09 3d 62 c9 6e bd
       -0.03979259 -0.021053014 0.03355139 -0.058297522
000070 b0 29 3e bd 6f 63 19 3c 78 10 b7 3d fe ae d1 3c
       -0.046426475 0.009362086 0.08938688 0.025596138
000080 5d d8 0a 3d 4c c5 92 bc a2 84 d2 3d 2e 41 20 3b
       0.033897746 -0.017916344 0.10279204 0.0024452913
000090 f2 40 d7 bb f9 55 98 bc 51 4b f4 bb db 29 68 3c
       -0.0065690214 -0.018595682 -0.0074552675 0.014170135
0000a0 80 df 4b 3c 58 e6 5b 3d 69 31 0a 3c 9e ad 61 3d
       0.012443423 0.05368647 0.008434632 0.055097215
0000b0 31 06 02 3d 72 77 27 3d a6 5a f1 3b 70 43 70 bd
       0.031744186 0.040885396 0.0073655425 -0.058658063
0000c0 c2 d7 f4 bc ac 13 63 3c eb 5c 63 3d ba 67 99 bd
       -0.029888038 0.013859671 0.055508535 -0.074904874
0000d0 27 ee 7e bc 51 c9 e5 3c bf 89 8c 3d 13 0b 4b 3d
       -0.01555971 0.028050097 0.068622105 0.049571108
0000e0 19 81 75 bd d7 4e bb bd 50 30 23 bd b1 74 8d bd
       -0.05993757 -0.09145897 -0.039840996 -0.06907023
0000f0 27 95 48 bd 6c d1 dd 3b 10 0f 23 3d bd 5b 3e bd
       -0.048970368 0.00676935 0.039809287 -0.046474207
000100 49 0e 7f bd 02 af 19 bd 92 e0 bb 3d 00 42 1b bd
       -0.062269483 -0.037520416 0.09173693 -0.03790474
000110 5a ac 43 3d 59 8f 30 bd 65 77 3a 3d a8 fa 12 3c
       0.04777179 -0.043105457 0.04552402 0.008970894
000120 09 ea c9 bb 5e 0c 25 bd 8b a9 4e bd 12 20 04 3d
       -0.0061619324 -0.040294997 -0.050454658 0.032257147
000130 e7 4e 75 3d 05 8f 03 3c db 63 8a bd be d0 19 bd
       0.0598897 0.008029704 -0.06757327 -0.037552588
000140 99 07 82 bd b0 9f 48 3d a1 35 30 bc 40 c5 78 bd
       -0.063491054 0.048980415 -0.010754974 -0.060734987
000150 01 81 da bb bb 83 25 bd 40 16 9d 3d 78 2a 01 3c
       -0.0066682105 -0.04040883 0.076702595 0.0078836605
000160 7b 48 65 3d a3 bf 93 3c 41 16 89 bd 13 6b ac 3d
       0.055977326 0.018035715 -0.06693698 0.0841886
000170 8f 3f 2d 3d da 32 10 bd 27 fc 92 3d ab 98 c1 3d
       0.042296942 -0.035204746 0.071770005 0.09452947
000180 df 2c ef 3c d7 9f 78 bd 8a 89 87 3d e8 9a b8 bd
       0.0291962 -0.06069931 0.0661803 -0.09013921
000190 3c 83 81 3c 7f 82 2d bd c0 24 81 3c d6 5d 3c bc
       0.015809648 -0.04236078 0.015764594 -0.011496982
0001a0 a8 05 d4 bd 69 5b 9c 3c d5 5e a2 3c dc ef 89 bd
       -0.10352641 0.019086557 0.01982061 -0.06735203
0001b0 1d 80 84 3c 0f 77 cb 3d a5 13 91 3d a9 cd 5c bd
       0.01617437 0.09934818 0.07083825 -0.05390707
0001c0 66 34 17 bd e4 14 83 3d 97 59 00 bd dc 39 7d 3d
       -0.036915205 0.06400469 -0.03133544 0.061822757
0001d0 2b a7 7d 3c 3e 22 68 3c f7 b9 ad 3d c2 ab dd 3d
       0.0154817505 0.01416832 0.084827356 0.10823776
0001e0 3f eb a2 3d dd 8e 00 3d fa 0f 99 3c 58 30 80 bd
       0.07955026 0.031386245 0.018684376 -0.06259221
0001f0 23 6b 94 3d 3b 54 87 bc d9 a6 d6 3b 08 f8 96 b8
       0.07246997 -0.016519656 0.0065506515 -7.198757e-05
000200 cd 2a 42 bc 18 8b 64 3d 33 5b c2 3d 03 56 7f 3d
       -0.011851025 0.055796713 0.09490051 0.062337887
000210 18 53 a5 3b dc ac 76 bd 7b 0e 53 bd da 34 a7 bd
       0.005045306 -0.060223445 -0.05152748 -0.081643775
000220 aa 9b 45 3d ca 54 89 3d 4d 1e 40 3c d2 a7 3c bd
       0.048244156 0.06705625 0.011725974 -0.046058483
000230 e0 e9 05 bd 66 f4 a8 bc 84 87 e4 3d 76 72 19 3d
       -0.032693744 -0.02062435 0.1115866 0.037462674
000240 b2 09 11 3d a8 a8 bb bd 19 06 32 3c aa 7a 38 3d
       0.035409637 -0.09163028 0.010865712 0.045038857
000250 3c 50 a8 bc cd cd 71 bd 94 ba 92 bd d1 7f 0b 3c
       -0.020546071 -0.059034158 -0.07164493 0.0085143605
000260 f2 cf 76 bd 9b a0 fc 3b 68 45 91 3d 34 1e 09 3d
       -0.060256906 0.0077095754 0.07093316 0.03347607
000270 7d be 06 bd f4 48 cb bc d5 e1 b8 3d 3a d2 32 bc
       -0.032896508 -0.02481506 0.09027449 -0.01091438
000280 c0 2c 8f bd 27 21 92 3c 8e 9c c9 3d 4a e5 a3 3c
       -0.06990957 0.017838074 0.098443136 0.020006794
000290 25 f9 32 bd 57 20 23 bd 62 6e 09 bb 06 dd ff bc
       -0.043694634 -0.039825764 -0.0020970334 -0.031233322
0002a0 26 c0 07 bd 97 c2 a0 bd b8 a5 58 3d c0 e5 4e bd
       -0.03314223 -0.07849615 0.052892417 -0.050512075
0002b0 77 04 c8 3c ff 9f bf 3d c0 66 31 bd af eb 23 3d
       0.024416192 0.09356689 -0.04331088 0.040019687
0002c0 dc 7a 2b 3d 67 76 85 3d 2c cf 0a ba 43 b3 86 bd
       0.041865215 0.06516724 -0.0005295153 -0.0657716
0002d0 1f 95 5c bd 7b ea 4e bd ee a5 a5 bd f0 23 8a bd
       -0.05385315 -0.050516587 -0.08088289 -0.06745136
0002e0 b1 91 5c 3d fa cd 16 3c ae 75 97 3c aa 9b 9a 3d
       0.05384988 0.009204382 0.018488731 0.07549222
0002f0 34 a8 52 bd 17 f2 28 bd 32 9b 51 bd a8 e8 d2 3d
       -0.051429942 -0.0412465 -0.051173396 0.10298282
000300 df d3 4f bd 14 27 ea 3d ac 29 bb bd c3 9a 86 3d
       -0.050739165 0.11433235 -0.09138808 0.06572487
000310 73 d0 6b bd eb d0 d9 3c 7f e1 81 3d a6 d5 a6 3d
       -0.05757184 0.026588878 0.06341838 0.08146219
000320 5c 22 3c bd 34 e8 a1 3d af 02 8b bd 9d d5 eb 3c
       -0.045931205 0.07905617 -0.06787621 0.028788382
000330 f1 af 91 3c 0b a3 1b bd 03 d9 70 3d 16 6a 50 bd
       0.01778409 -0.037997287 0.05880071 -0.05088242
000340 fe 52 c5 3d e3 e7 79 bd 38 26 a0 bd 2e ca 36 bd
       0.0963497 -0.06101216 -0.0781979 -0.044626407
000350 8d 74 78 3d b6 c9 88 bd fb 5e 88 3d 4d fc 9e bc
       0.060658026 -0.06679098 0.06658741 -0.019407416
000360 0b 30 50 bd 9c 44 2d ba 6b 33 6b 3d 07 83 4e 3b
       -0.050827067 -0.000660965 0.057422083 0.0031511204
000370 bd 35 a3 bd 9e 4b af 3d b7 30 32 3d cd 00 51 3d
       -0.07969234 0.08559345 0.04350349 0.051026154
000380 35 c1 31 3d b9 33 81 bc f2 5a 24 3d 64 f7 b8 3d
       0.043397147 -0.015771734 0.040125795 0.09031561
000390 f9 dd 25 bd 21 76 cb 3c 45 97 60 3d 8c b3 38 3d
       -0.040494893 0.024836602 0.054831762 0.045093104
0003a0 6c 7b b4 bc de c3 35 3d 75 4e 12 3c ae 19 19 bd
       -0.022031508 0.044376247 0.008929838 -0.037378006
0003b0 94 88 10 3c f2 b7 70 3d f6 30 47 3d 75 96 74 3d
       0.008821625 0.058769174 0.048630677 0.0597138
0003c0 bb af 80 bd a4 98 f6 3b f3 da 17 3d 28 9d 38 bd
       -0.06283518 0.0075255204 0.03707404 -0.04507175
0003d0 54 0c 6f bc b8 47 95 bd 1c 6e ac bd f2 4f 6a bd
       -0.014590342 -0.0728907 -0.08419439 -0.057205148
0003e0 b1 4a 4c 3d 08 e4 8f bd 19 be 0d bc 09 4f 90 bd
       0.04987592 -0.070259154 -0.00865128 -0.07046325
0003f0 40 d3 87 bd ad 40 b2 bd 70 94 b6 b8 33 5b f4 bd
       -0.066320896 -0.08703742 -8.706085e-05 -0.11931457

encoder.conv_layer_2.bias f4 [35]
000000 eb 2e fc bd e9 b6 07 bc a9 7b e7 bd 42 01 40 3d
       -0.123136364 -0.008283355 -0.11302883 0.0468762
000010 9a cb d0 bd 0b 90 09 be 52 3a b0 bc a3 c2 c1 bd
       -0.10195084 -0.13433854 -0.021512184 -0.09460952
000020 32 58 d0 3d 34 ac 88 bd 97 40 7d 3d e4 4d 6f bd
       0.10173072 -0.0667347 0.061829176 -0.05842389
000030 52 f5 5d bd d3 3b d2 3c 86 50 2e bd 46 fa 84 bd
       -0.054189034 0.025663292 -0.042557262 -0.06493048
000040 80 f8 ab bc 77 2b ab 3d a5 5b d3 bd 8c 0a 4d 3d
       -0.020992517 0.083579 -0.10320214 0.050058886
000050 32 63 02 3c 33 d4 4d 3d 3d 60 c3 3d 4f 5b 20 bd
       0.00795822 0.050251197 0.0953984 -0.03914958
000060 aa 91 c9 3c 04 16 93 bd 02 2c f5 3d 97 fb 8e bd
       0.02460559 -0.071819335 0.119712844 -0.06981581
000070 1c ee ed bc bd 71 0a bd 23 1d b4 bd 36 59 1b bd
       -0.029044203 -0.033799876 -0.0879462 -0.037926875
000080 d0 bf c6 bd c2 34 65 bd d4 04 f9 bd
       -0.09704554 -0.055958517 -0.12159124

encoder.linear_layer.weight f4 [35, 420]
000000 d3 67 19 3d 4a 09 74 3d 52 06 fe bb f1 60 26 3b
       0.03745253 0.05957917 -0.0077522183 0.0025387371
000010 d1 3c ff bc 2b a2 32 bd 87 7a b7 ba 02 b1 f8 3c
       -0.03115693 -0.043611687 -0.0013998308 0.030357841
000020 cd 70 43 bd 86 a0 c8 bc 6f f4 17 3c 5e 19 bb 3d
       -0.047714997 -0.024490606 0.009274586 0.09135698
000030 6c ca ef 3a 58 c9 ae b8 3b ea 87 bc 50 da d4 bc
       0.0018294579 -8.33447e-05 -0.016591182 -0.025983006
000040 9a a6 57 3d 3a db 92 3d bd d0 ba bc be e7 a0 bc
       0.052649118 0.071707204 -0.022804612 -0.019641753
000050 15 c8 77 bc 36 f1 90 3d 5a eb 75 bd 61 cc 13 3b
       -0.015123387 0.07077257 -0.060038902 0.002255224
000060 84 5f b7 3c 4d c5 8a 3d e2 8c b8 bb 32 e1 03 3c
       0.022384413 0.067759134 -0.005632029 0.008049296
000070 a9 a2 3a 3c a0 7c 00 bc e7 75 dc 3c 21 0f 13 3d
       0.01139132 -0.007842213 0.026911689 0.0359031
000080 4a 39 fb bb ff 3d 0a 3c 61 d9 85 bd f7 44 6e 3d
       -0.0076667415 0.008437633 -0.06535602 0.05817124
000090 e2 86 0f 3d a5 84 e4 bb 0f 32 44 bc 1f 20 a6 3c
       0.035040744 -0.0069738203 -0.0119748255 0.020278988
0000a0 66 3f 3c 3b 7b 33 96 3b 24 30 ba bc c9 d7 c4 3b
       0.0028724312 0.0045837737 -0.022728033 0.006007169
0000b0 23 93 33 bc 59 86 c2 bc e0 14 4c bd d5 25 03 3e
       -0.010960373 -0.023745703 -0.049824595 0.128074
0000c0 ef ec 19 3d fc 20 10 bb 9f 89 e7 3c 0b bf db 3c
       0.037579473 -0.0021992316 0.028263865 0.026824495
0000d0 61 55 2a bd 66 89 62 ba a2 1e 48 bd 06 d3 75 3a
       -0.04158533 -0.000864169 -0.04885734 0.0009377453
0000e0 56 dd 20 3d 87 4c 34 bd c4 2b 00 bd ac 84 43 bc
       0.039273582 -0.044018295 -0.03129174 -0.011933487
0000f0 c2 32 bc 3b 2e 8f 75 bc e0 e3 2c 3d 44 5a 80 bb
       0.0057433555 -0.01498775 0.042209506 -0.0039170105
000100 6f 9f f0 bc b6 c5 cd bc 38 21 3c bc c8 50 0c 3b
       -0.029372899 -0.02511869 -0.011482529 0.0021410454
000110 8b 9f ba 3c 0a 51 c7 bc 95 0d 02 bd 0d 56 0b 3d
       0.022781154 -0.024330635 -0.031751234 0.03401761
000120 f9 96 bd bc 65 a1 72 bc 4f a3 d3 3c 83 fc 12 bb
       -0.023143278 -0.014808987 0.025834708 -0.002242834
000130 11 26 4e 3b fc e8 9d 3d 0a 41 50 bc b8 0f 1b bd
       0.0031455795 0.07710454 -0.012710819 -0.037856787
000140 00 52 2e 3d 6c 29 82 3c fb 3b cb bd e8 d4 b6 3d
       0.04255867 0.015888892 -0.0992355 0.089273274
000150 9e 73 66 bc 17 e4 47 bb 4c 3e 65 3b 93 c1 c3 bc
       -0.014065651 -0.0030500942 0.0034979759 -0.023896014
000160 b3 78 56 3d 11 d9 66 bd fe 4f 5e bd a9 ce 28 3d
       0.0523612 -0.056359354 -0.054275505 0.04121271
000170 13 2b 11 3c c9 14 2e bd 29 e2 23 bd 20 61 42 3e
       0.008860367 -0.04250029 -0.040010605 0.18982363
000180 32 33 f6 3c 17 69 86 3c e9 22 78 bc 23 a5 da bb
       0.030053709 0.016407533 -0.015145042 -0.006672518
000190 bd 21 1e bc 23 9f 66 bc c2 f8 07 3d 00 dc 00 bc
       -0.0096515985 -0.014076027 0.03319622 -0.007864952
0001a0 75 a8 0d 3d 24 9c 07 3d 5a 6c 4f bd 12 0b 9e 3c
       0.03458448 0.03310789 -0.05064044 0.019292388
0001b0 cc fe aa 3c df b5 92 3b 67 f6 f4 bc c2 61 1f 3c
       0.02087345 0.004477247 -0.02990265 0.009727897
0001c0 02 10 7f 3c a7 80 fb bc d7 78 c8 bc 17 66 87 bc
       0.015567781 -0.030700995 -0.024471683 -0.016528172
0001d0 e7 aa 4e 3d 85 de 68 bd 16 27 f9 bb 49 08 20 3e
       0.050455954 -0.056852836 -0.0076035364 0.1562816
0001e0 ac 54 d3 3c 7e 97 e3 3c 93 b6 b1 bc bc eb 22 3c
       0.02579721 0.027782198 -0.021693503 0.009943899
0001f0 dd cb 3b 3d 6c 39 04 bd 5e a1 17 bd b7 e6 27 bd
       0.045848716 -0.032281324 -0.037019126 -0.04099151
000200 ed c2 99 3d be 8b 35 bc b6 d4 18 bc 24 3f 06 3e
       0.07507882 -0.01108068 -0.009328058 0.13110024
000210 d5 98 10 bc 3b 0e ee 3c fd f5 ac 3c ed 0f 4c 3d
       -0.0088255005 0.02905952 0.02111339 0.049819876
000220 a7 e9 bd bb 10 49 bc bd e3 21 ff 3c 2b 60 9a 3d
       -0.005795676 -0.09193623 0.031144088 0.07537874
000230 07 f4 89 bc 24 27 5e bd 4a 7c cd bd d6 0f a7 3d
       -0.016839994 -0.054236546 -0.10033472 0.08157317
000240 96 a5 65 bc 49 56 36 bd c0 f8 02 bd 2d 62 6a 3d
       -0.01401653 -0.04451588 -0.031975508 0.057222534
000250 da 21 50 bb f1 08 21 3d 21 b4 fd 3b 77 7e 41 bd
       -0.0031758458 0.039315168 0.0077424203 -0.047239747
000260 77 31 bb 3b 7a 80 de bc ed ea 70 bd 7d 49 94 3d
       0.005712684 -0.027160872 -0.058817793 0.07240579
000270 e6 95 d1 bc c6 fa 27 3d c9 4b 8f 3c e1 1f 6a 3a
       -0.025584172 0.04101064 0.017492192 0.0008931142
000280 4b 37 82 3d 0c 0d f9 bc a3 e5 a9 bc 76 e3 ca 3b
       0.063582025 -0.030401729 -0.020739382 0.0061916662
000290 31 4d 1d bd 59 b7 c2 3d ab eb 5d ba aa 32 9f 3d
       -0.038403694 0.09507627 -0.0008465598 0.07773335
0002a0 4d 2c 48 3b 24 ad 8c bb 6b c1 96 bc 42 c7 78 bd
       0.0030543983 -0.004293101 -0.018402776 -0.060736902
0002b0 5e a7 89 bc c8 6f 63 bc d4 a5 ed bc 81 2d dd 3b
       -0.01680344 -0.013881631 -0.029009737 0.0067498093
0002c0 77 bd 63 3a 13 51 2b 3d b6 7c 33 bc 41 21 18 3d
       0.0008687595 0.041825365 -0.010955026 0.03714109
0002d0 cb 56 1a bd 06 d2 ed bc dd a3 0d bd 54 11 09 3b
       -0.03768043 -0.029030811 -0.0345801 0.002091487
0002e0 2f 4a 8c 3c f5 f3 38 3c 87 1c e6 3c 49 b9 ef 3c
       0.017125217 0.011288633 0.028089775 0.029263156
0002f0 33 ea a4 bb de 8c 11 bd ec 6a 4b 3d d5 c2 9f 3d
       -0.0050328015 -0.035534732 0.049662516 0.07800833
000300 bd e3 0b 3b c5 b0 8f 3c 76 20 0d bd 0f 61 2d bd
       0.002134546 0.017540345 -0.034454785 -0.04232889
000310 db a2 ed bc 83 63 64 3d 3f e2 8c bc 9e 5c 98 ba
       -0.02900832 0.055758964 -0.017197726 -0.0011624282
000320 8e 3a 9e 3c 32 1c 98 bc b6 99 c0 bc 08 5a ea bc
       0.01931503 -0.018568132 -0.023510795 -0.028607383
000330 4e f4 c4 3c 99 e4 62 bc 02 83 e7 bc d1 8e 16 3c
       0.024042275 -0.013848447 -0.028260712 0.0091893235
000340 de ca a3 bc f4 4c 22 3c d1 99 06 bc cc 49 81 bd
       -0.019994196 0.009906042 -0.008215384 -0.06312904
000350 2c dd b7 3c fc 58 42 3d a2 45 22 bd 4d 7a 2b 3e
       0.02244433 0.047448143 -0.03961719 0.16745873
000360 e9 80 9b bc 4e b6 aa 3d d0 17 57 bc e9 ba 4a 3d
       -0.018982368 0.08335553 -0.013128236 0.049494658
000370 f2 07 ed 3a 04 0c 1d 3b 27 39 c1 bc d2 62 0e 3d
       0.0018084033 0.002396346 -0.023586823 0.03476221
000380 73 6c 56 3d 1e 91 bd bc 2a d2 8e 3d e5 9f 14 be
       0.05234952 -0.023140486 0.06973679 -0.1451412
000390 c8 49 03 3c 8c bf 2e bc ea 3a 18 bd 04 ed 08 bc
       0.008013196 -0.0106657855 -0.03716556 -0.00835729
0003a0 64 45 40 bc 33 7b b6 bb 5a 2a 92 3c 40 84 6d bd
       -0.011735294 -0.0055688857 0.01784246 -0.05798745
0003b0 61 82 ae 3c d5 20 ac bc 00 08 2e bd 50 7b 99 3c
       0.021302404 -0.02101175 -0.0424881 0.018735558
0003c0 28 ec ed bc 7a c4 6d 3a 19 7a 5e bc 1c c3 2e bd
       -0.029043272 0.000907011 -0.013578915 -0.04266654
0003d0 19 9f bc 3c 39 91 9a 3c 22 ef fb 3b ba 21 2e bd
       0.023025082 0.018868076 0.007688419 -0.042512633
0003e0 0e c6 fa 3c 45 4b 0b 3d 96 ee 9d bc 38 d2 85 3d
       0.030612018 0.03400733 -0.019278806 0.06534237
0003f0 3c f1 b5 3b 6e 41 a9 3b b3 06 1b bd 13 78 7b 3c
       0.005552439 0.0051652705 -0.037848186 0.015348452

encoder.linear_layer.bias f4 [35]
000000 1f 7a 01 3d ba c9 dc bc 6d 65 62 bd 99 fb a7 3d
       0.031610604 -0.02695166 -0.05527251 0.08202285
000010 87 e6 32 3d 4e 32 d7 3d eb 52 93 bd 90 70 08 3e
       0.04367688 0.10507642 -0.0719355 0.13324189
000020 07 2d df bc 84 43 70 3d 4b f8 ed bc d0 32 7b 3d
       -0.02724315 0.058658138 -0.02904906 0.061327755
000030 58 5d 4d 3b ae f8 2e bd 94 38 4d 3c 8c 81 06 bd
       0.0031336155 -0.04271763 0.012525696 -0.03283839
000040 94 40 23 3d 34 04 34 3c 0a 7f e8 3d 10 02 25 3d
       0.03985651 0.01098733 0.11352356 0.04028517
000050 10 b1 25 3d d1 8d 32 3c 9e a4 ea 3d 12 f5 1e 3c
       0.040452063 0.0108980695 0.114571795 0.009701984
000060 7a 7d 05 3d 8e 45 ee 3d 09 06 83 bc 00 7c dc bc
       0.032590367 0.1163436 -0.015994089 -0.026914597
000070 8d cf 88 3d 24 2e 87 bc 34 4a c2 bd b1 6e 98 bd
       0.06680212 -0.016501494 -0.094868094 -0.07442988
000080 f2 fe 5b 3d 21 8d 30 3c c8 e7 9d 3c
       0.05370993 0.010775835 0.019275561

encoder.mean_layer.weight f4 [30, 35]
000000 39 ac 3f 3d d8 9a f1 3a 63 25 8c 3c f1 9f ce bc
       0.046795104 0.0018432988 0.017107671 -0.02522275
000010 65 9b 30 3d 12 23 a1 ba 93 8b 51 bb fb 5d d8 3b
       0.043116946 -0.0012293777 -0.0031974062 0.006603
000020 3f b1 2d 3d c7 59 9b bc a9 14 10 3c e4 db f5 bb
       0.042405363 -0.018963708 0.008793988 -0.0075030196
000030 6e 87 85 bc c8 2b 9d 3c 8d 7d 1f bc bc 56 70 bc
       -0.01629993 0.019185916 -0.0097345235 -0.014669117
000040 8f 7b 07 3e 8e d4 66 bc 0e 02 43 bc 33 53 fd bb
       0.13230728 -0.014088763 -0.011902345 -0.0077308654
000050 cc dc 8b bc 75 e0 2a 3d cb 67 59 3c 3c 26 30 3c
       -0.017073058 0.041717965 0.013269375 0.010751303
000060 cd 30 4b 3c 32 6f 73 3b fa 1a 95 bd 3f 3e 48 bc
       0.012401772 0.0037145135 -0.07280536 -0.012221872
000070 ca 88 ea bb a9 3b ff bc a2 5f 8d bb 7e bb b1 3a
       -0.00715742 -0.031156378 -0.004314379 0.0013559905
000080 d3 e1 8c bd 12 f0 f4 bc 32 44 d9 bc e2 85 b8 bb
       -0.0687901 -0.02989963 -0.026521776 -0.0056311944
000090 e7 a7 fa bc b3 6f 6b 3c 17 47 e0 bc 9a 28 77 3c
       -0.03059764 0.014369893 -0.027377648 0.015085364
0000a0 46 ce c9 bb 5e 64 26 3c 60 02 2a b8 02 06 da ba
       -0.006158623 0.010155765 -4.053337e-05 -0.001663387
0000b0 b8 78 85 bb 20 e4 60 3c 82 cd aa 3c f8 fe 37 ba
       -0.0040732287 0.013726264 0.020849947 -0.00070188893
0000c0 33 6c 61 3c f8 b0 08 bc 9a 9b 7d b9 38 4a 7f 3d
       0.013758707 -0.008342974 -0.00024185926 0.06232664
0000d0 e4 b8 b8 bb 1c f1 0a bc c5 17 00 3c e0 0f 37 bc
       -0.005637275 -0.0084803365 0.007818167 -0.0111732185
0000e0 5e fa 81 3d 7a b0 db 3b 69 c7 08 3d c7 20 fa 3b
       0.06346582 0.0067043873 0.033393297 0.007633302
0000f0 c6 71 91 3b 90 a0 8f bc 08 46 2d bc e0 b9 03 bc
       0.0044386117 -0.017532617 -0.010575779 -0.0080399215
000100 ca 7f 32 bc be 6d 92 3b 03 d2 31 3b a7 d6 a8 bb
       -0.010894725 0.0044686487 0.0027133233 -0.0051525417
000110 e6 90 09 3d 1a 7f 51 bc 11 cc 33 bd ed 7f 14 bd
       0.03358545 -0.012786651 -0.043895785 -0.036254812
000120 73 87 88 3c 4e 2c f2 3c af ed 9f bc 1f a3 24 39
       0.01666615 0.029562142 -0.019522516 0.00015701026
000130 3d a3 ea 3b fe e9 f1 bb 81 0f c0 3c 1d e2 4e 3c
       0.007160573 -0.0073826304 0.023444893 0.012627152
000140 40 d7 12 b8 3f 02 85 3c ea 6e f6 3c 84 2b 1e ba
       -3.500958e-05 0.016236423 0.030082185 -0.0006033706
000150 34 c2 67 ba c4 08 5b 3c c3 45 62 bd 85 93 77 3b
       -0.0008840889 0.013368789 -0.05524231 0.0037777137
000160 a0 05 15 3b bf 23 7c 3c a9 e5 da 3a 6e 35 0e bd
       0.0022738948 0.015389382 0.0016700524 -0.034718923
000170 10 1c 8a ba b4 80 2c 3c 3c f2 31 b8 30 fc 06 39
       -0.0010536928 0.010528732 -4.2425687e-05 0.00012873183
000180 d3 b9 f7 3c 0d 79 30 3c ad 1e 2c 3b 50 89 49 3c
       0.030239975 0.010771048 0.0026263401 0.012300804
000190 a1 54 23 3b f8 8a 9d 3a c0 f9 ae 3c 00 f5 13 3c
       0.002492227 0.0012019565 0.021359324 0.0090305805
0001a0 16 bf 69 bb 72 10 fa bc 60 1b dc 3c 48 cb a1 3c
       -0.0035666875 -0.03052542 0.026868522 0.019750252
0001b0 de f0 3a 3c 8b ef ae 3b 18 2a 69 3b 18 f3 0d bb
       0.011409966 0.0053386143 0.0035578068 -0.0021659788
0001c0 8a 8c 9c 3b 4c fd 8e 3a 46 f2 9a ba 8a c2 e9 bb
       0.0047774957 0.0010909229 -0.0011821471 -0.0071337866
0001d0 22 16 46 bc 8c 9f 9f 3a 0c 32 c0 bb 2c 9d 24 3c
       -0.012090238 0.0012178286 -0.005865341 0.010047238
0001e0 08 93 47 3b d5 18 e4 bc c5 4e 9e 3b ce e1 f7 bb
       0.0030452628 -0.027843872 0.0048311674 -0.00756476
0001f0 9a cb 39 bc cf cd 47 bc 1e 95 8c bc 19 ae c7 bc
       -0.011340046 -0.012195065 -0.017160948 -0.024375008
000200 b6 92 b7 bb 30 92 07 3a eb 7b 65 3c 7d f3 62 bb
       -0.005602206 0.0005171625 0.014006595 -0.0034629994
000210 05 ee a7 3b a5 43 dd bb 86 fa aa 3b 86 06 2b 3c
       0.0051248097 -0.0067524486 0.005217853 0.010438567
000220 66 5b 5d ba 61 0d b9 3b c9 b3 7a 3c d6 a7 88 bb
       -0.00084441004 0.005647347 0.015301653 -0.004170398
000230 c9 50 9f 3c 28 2e 48 3d 84 45 53 3b 38 02 c6 bc
       0.019447701 0.048872143 0.003223748 -0.02417098
000240 2d 11 3e 3c 9b a6 a0 3b 18 38 d5 bb a9 dc 27 3b
       0.011600775 0.0049026734 -0.006506931 0.0025613701
000250 08 99 8f bc 12 9f 01 bc 6c ca 81 bc 3f 84 cb bb
       -0.017529026 -0.0079114605 -0.015843593 -0.0062108333
000260 e8 cb a1 ba 6f 2b 1b bb 99 4d a5 3c d4 e7 ff 3b
       -0.0012344094 -0.0023677011 0.020178603 0.0078096185
000270 65 3d 36 bc fd 1d 03 bb f5 21 e1 3b 14 fd a8 bc
       -0.011123036 -0.0020006888 0.006870503 -0.02062849
000280 fe 42 c6 bc 56 e0 8a 3b 91 6e 20 bd 76 06 95 bc
       -0.024201866 0.0042381687 -0.039167944 -0.018191557
000290 ab 79 1c 3c b9 0e 5a 3c 1b 87 9c 3b e8 7a ca ba
       0.009550492 0.013309174 0.004776848 -0.0015448006
0002a0 37 b3 41 bb 8a 39 9e 3b d9 d5 9c 3b ab 70 f6 3b
       -0.0029556283 0.0048286365 0.004786235 0.0075207553
0002b0 67 f3 8e bc 33 91 16 bd 4a 89 3d bc 18 11 92 bb
       -0.017450048 -0.036759567 -0.011568377 -0.004457604
0002c0 7a 3a 98 38 70 df 33 3d bd 9c b9 3b 6f ab 72 bd
       7.258817e-05 0.04391426 0.0056644366 -0.059245523
0002d0 31 27 f2 bc b3 39 b6 bc 19 a1 58 bd 04 23 7c bc
       -0.029559704 -0.02224431 -0.05288801 -0.015389208
0002e0 96 c5 b2 3c d5 89 60 bd 0e c8 a9 bb 32 3e 5e bb
       0.021822732 -0.054818947 -0.005181319 -0.0033911583
0002f0 8b 57 98 bc 8c 1e a7 3c e4 ce 83 3d 21 c1 27 3c
       -0.018596431 0.020400308 0.06435946 0.010238917
000300 ab 46 64 3d 64 ef 9e bd dc 19 c3 3b c4 19 a7 bd
       0.055731457 -0.07760504 0.0059540104 -0.08159211
000310 42 7e 18 3c 0b 18 70 3c 6d b0 a2 3c 6b 75 80 bd
       0.009307446 0.01465417 0.019859517 -0.06272396
000320 ec 22 4a bd 13 6d ee bc 12 ab 81 3d b9 a0 27 3d
       -0.04934971 -0.029104745 0.06331457 0.04092476
000330 4a 23 8e bc f8 7a b1 bc 81 71 48 bd a8 70 e7 b9
       -0.017350812 -0.021665081 -0.04893637 -0.0004414369
000340 5c 13 53 bc 8f bf 4c bd 76 e0 24 3c 54 3f d5 bb
       -0.012883034 -0.049987372 0.010063281 -0.0065077934
000350 04 73 95 bc e2 21 95 bb 8a ef 12 3c 84 e6 60 bb
       -0.01824332 -0.0045511583 0.008968243 -0.0034317086
000360 a0 cf 7d bc 40 02 4b 3c 8c 0f a7 3b 4c f5 15 bc
       -0.015491396 0.012390673 0.005098289 -0.009152722
000370 af 00 eb 3c 39 93 82 bc 43 a2 40 bd 2f 5c 0e bd
       0.02868685 -0.015939342 -0.047029745 -0.034755882
000380 27 fe 10 bd 94 80 51 bc d0 09 54 3d d8 65 88 bc
       -0.03539863 -0.012787003 0.05176717 -0.016650125
000390 c7 2e 8f bc 8c fb 8e 3c f1 9b a7 3c 90 62 5d 3d
       -0.01747836 0.017453931 0.0204601 0.054049075
0003a0 0d 2a 44 3d a7 30 d4 3b c0 97 49 ba 2f 1f ac bc
       0.047891665 0.0064755264 -0.0007690154 -0.021010963
0003b0 40 68 dc bc d7 5e d0 39 95 10 b6 bb 1c c0 75 bd
       -0.026905179 0.00039743513 -0.005556176 -0.059997663
0003c0 7a b0 b9 3c 49 3a 79 bc 21 52 f1 3c de df 42 bd
       0.022667158 -0.01521165 0.029458107 -0.047576778
0003d0 26 b7 d9 3c 48 2b 4f 3d 2b 1d 9b 3c ac fe 4b bd
       0.02657659 0.050578386 0.018934807 -0.04980342
0003e0 73 12 3e 3c 87 0b b9 3c 49 b8 88 bc 76 88 c0 3b
       0.011601078 0.022588504 -0.016689437 0.0058756424
0003f0 5a 76 81 bb ed db c0 bc ad 47 19 bc 3e e6 2f 3b
       -0.003950876 -0.023542369 -0.009355468 0.0026840116

encoder.mean_layer.bias f4 [30]
000000 6a f8 8f 3c 3e 4a 75 bb 5e 95 78 bd b0 f2 51 bc
       0.017574508 -0.0037428285 -0.060689323 -0.012814209
000010 d5 75 f4 bb 66 47 e6 bd 53 a2 83 3d f7 98 e3 3c
       -0.0074603357 -0.11244087 0.06427445 0.0277829
000020 7d c5 e8 3b d8 6b 0f 3c e2 67 65 bc 11 76 24 3c
       0.0071036206 0.008753739 -0.014001818 0.010037915
000030 d2 ae 9d 3d 1f 5e 06 bd 14 d3 40 3c 0b 10 0c 3d
       0.0769936 -0.032804605 0.011769075 0.034194987
000040 bc e5 a7 3d 10 96 93 bd c8 1a 74 3d 97 3e c5 3c
       0.08198115 -0.072063565 0.059595853 0.024077697
000050 e8 9b ff 3c 97 34 1d bd d5 d1 2f 3d c3 30 96 3d
       0.031202272 -0.03838023 0.04292472 0.07333519
000060 86 2c 8e 3d c8 49 f7 3a ed 43 2a bd 4c 31 16 3d
       0.06942086 0.0018866593 -0.041568685 0.036668107
000070 29 80 9d 3b db a9 8a 3c
       0.0048065376 0.016926697

encoder.log_var_layer.weight f4 [30, 35]
000000 88 16 ce bc b5 e6 1d 3c 87 ff 62 3c 3a 62 54 bc
       -0.025157228 0.009637524 0.013854868 -0.012962872
000010 f8 1b f5 b8 46 40 c4 3b be 4e 00 bc 66 d6 1b 3a
       -0.0001168772 0.0059891073 -0.007831274 0.00059447286
000020 eb 0a b4 bb da 98 24 3c e8 bb 1f 3c 08 35 7a 39
       -0.0054944656 0.010046208 0.00974939 0.00023861614
000030 7e 3b c1 3b 94 fa 13 3c 73 bd 2e 39 36 59 a3 bb
       0.0058969846 0.00903191 0.00016664508 -0.004985
000040 fb af 61 3a 2f 49 1f bb d2 9e b1 bb 36 71 3f 3a
       0.0008609292 -0.0024305095 -0.005420544 0.00073029415
000050 21 f7 1c 3c b9 7e 81 3b 9b c5 35 3b 82 56 cd ba
       0.0095804045 0.003951874 0.002773619 -0.001566604
000060 78 14 3b bb a2 13 95 bc 7f ee 72 3c 8a 3d 33 3c
       -0.0028546136 -0.018197838 0.01482737 0.010939965
000070 cd e4 c8 3b 89 23 d8 bb 3a d4 12 bc be 53 14 bc
       0.006130791 -0.006596033 -0.008961732 -0.009053169
000080 ef 3b 5c 3c 20 3f 80 bc 48 85 fd 3b 1c 32 24 bc
       0.013442024 -0.0156551 0.0077368356 -0.010021713
000090 72 a7 1f bb 55 3b 35 3b a1 98 88 3c d8 3f 65 3b
       -0.002436128 0.0027653773 0.016674342 0.003498068
0000a0 7d cc 54 ba e3 2b 58 3a 52 ee a5 ba d7 7e e9 bb
       -0.00081176293 0.0008246286 -0.0012659526 -0.007125716
0000b0 28 bf 5e 3b b9 58 0d 39 dc cd 49 3b 55 35 ab bb
       0.003398845 0.0001347986 0.0030792868 -0.0052248635
0000c0 34 ba 45 bc 81 e4 92 3b 64 40 84 3b f2 90 62 bc
       -0.01206832 0.004482806 0.0040359963 -0.013828503
0000d0 d6 4b a1 3b c4 20 c3 3a 35 c9 3c 3c a3 92 83 bb
       0.0049223704 0.0014887084 0.011522581 -0.004015283
0000e0 e1 3f f7 3a a5 fa 91 3a c4 1c 4f ba f8 72 01 bb
       0.0018863642 0.001113732 -0.000790071 -0.0019752365
0000f0 58 49 6d bb 13 26 9a bb f4 9a 1a bb 1a 15 cc 3b
       -0.0036207046 -0.004704246 -0.0023590894 0.0062281014
000100 0b 02 c1 bb e2 ef 05 3b 10 6e ef bb f7 b9 4b 3c
       -0.005890136 0.002043717 -0.0073068216 0.012434474
000110 f8 b9 0e 3c 70 ae 82 bb b9 c1 94 3c b2 c5 6d bb
       0.008711331 -0.0039880797 0.01815878 -0.0036281166
000120 bf 9f a8 3b ba bb d3 3b 5b 9b 27 bc fe 83 82 bb
       0.0051459963 0.0064615877 -0.010229911 -0.00398302
000130 bd 74 7c 3b 75 53 bd bb 9f 1a e4 3b 82 84 12 3b
       0.003852173 -0.005777771 0.0069611813 0.0022356813
000140 e0 71 40 bc 5e a1 0f 3c eb 6e 1a 3c aa c6 10 3b
       -0.0117459 0.0087665 0.009425859 0.002209107
000150 d8 fe 69 3c 64 d2 a5 3c 34 4d a9 3a e4 3a 7b 3a
       0.014281951 0.020241924 0.0012916685 0.00095836655
000160 81 bc 4f bc f5 ec 2a 3b b3 eb 4b bc f9 be 38 bc
       -0.01267922 0.0026081179 -0.012446332 -0.011276
000170 c8 34 22 bc 57 dd 2c 3b aa f7 14 3c f2 e8 c4 bb
       -0.009900279 0.0026377046 0.009092251 -0.0060092146
000180 53 dd 98 3c a9 f0 24 bb 6c 6b e1 3a d1 94 39 3c
       0.018660223 -0.0025167859 0.0017198152 0.0113269845
000190 0b 30 08 3c ab 2d dd 3a a1 85 ab 3c 68 33 eb 3b
       0.008312236 0.0016874572 0.020937743 0.007177759
0001a0 99 b2 c7 3b 3d 08 bb 3c c4 b2 0b 3c 08 a6 2b bb
       0.0060942885 0.022831077 0.008526508 -0.0026191492
0001b0 92 a5 eb 3b bf be 84 3c 8f aa 2c 3c 51 9f a5 bb
       0.0071913684 0.016204236 0.010538711 -0.0050543924
0001c0 0c 4d 32 3b 5c 35 12 3b a1 9a a3 bb 6b ce 1a 3c
       0.0027206568 0.0022309637 -0.0049927984 0.009448628
0001d0 5c 8c c1 bb 24 58 35 3c 3a 87 57 3a f8 59 c6 3b
       -0.0059066247 0.011068378 0.00082217494 0.0060532056
0001e0 cd 46 09 bc 45 be 05 3c 3f f7 b8 ba f2 c8 c8 3b
       -0.008378697 0.00816304 -0.0014111771 0.00612747
0001f0 9e af dc 3b 4a 6c d7 3b c6 ee c2 3b e2 45 83 3b
       0.0067348024 0.0065741884 0.005948874 0.0040061334
000200 d2 a4 c3 b9 44 4a 46 ba 67 42 bf 3b 30 be bd 3b
       -0.000373161 -0.0007564167 0.005836773 0.0057904944
000210 44 5f 01 39 51 7f 6e bc 49 a5 14 bc 79 c5 7f bc
       0.00012337888 -0.014556722 -0.00907261 -0.015611046
000220 ab b0 14 3b bc 8b 15 3a 37 77 97 bc 6f 32 93 3b
       0.002268831 0.0005704721 -0.018489463 0.004492096
000230 93 5a c6 ba ef 2e 92 bc 62 04 c7 bb ea 11 9b bc
       -0.0015133194 -0.017844645 -0.0060735205 -0.01892944
000240 ce 0b 74 ba dc 4c f2 ba b8 c0 a4 bb f3 97 51 3b
       -0.00093096204 -0.0018486041 -0.0050278567 0.0031981438
000250 20 e6 c3 b9 13 00 4d 3c 79 b2 d7 bb 22 06 96 ba
       -0.00037364755 0.012512225 -0.006582555 -0.001144592
000260 b2 99 bc b9 8b a8 04 bc cc fd 36 3c a2 31 01 3b
       -0.00035972666 -0.008096824 0.011168908 0.0019713421
000270 16 e1 a8 3b 26 24 27 b9 1a 10 39 b8 bc 52 12 3b
       0.0051537855 -0.00015939827 -4.4122433e-05 0.0022327146
000280 a2 66 38 bc 28 61 58 bb 18 0e 50 bb a0 ee 78 bb
       -0.011254938 -0.0033016894 -0.0031746682 -0.0037984028
000290 6b ad 10 bc 14 11 ab 38 4c 56 7e bb b0 64 07 bb
       -0.008830409 8.1570965e-05 -0.0038808761 -0.002065938
0002a0 ab ca 96 3b c9 6c 24 bb e6 2b ac 3b cc 3d 50 ba
       0.0046017966 -0.0025089255 0.0052542565 -0.0007943779
0002b0 14 47 b2 3b ad 88 56 3c 4e 24 32 3c 3f 55 69 bd
       0.005440602 0.0130941095 0.0108729135 -0.056966063
0002c0 95 1c 9e bb c8 9f 8c bc 77 67 6f 3c 05 1a 5c bc
       -0.0048251846 -0.017166033 0.01461207 -0.013433938
0002d0 e5 3c e2 bd 7d df 14 3e 79 57 05 be d0 4e 92 3b
       -0.11046771 0.14538379 -0.1302165 0.0044649616
0002e0 03 db bf bd 85 12 30 3d 13 80 a5 bd 27 08 93 bd
       -0.09367945 0.04298641 -0.08081069 -0.07179289
0002f0 27 c6 e4 3b a5 98 8e bd 64 93 52 bd 85 96 80 bc
       0.0069816294 -0.069627084 -0.051410094 -0.015696773
000300 24 9d 91 bc e3 a6 de bd e0 a1 88 bd c0 f5 76 3d
       -0.017775126 -0.10871675 -0.066715 0.06029296
000310 f2 0a 23 3d 6c 0b 83 bd 8a 98 bb bd f8 41 b5 bd
       0.03980536 -0.06398663 -0.09159954 -0.08850473
000320 b7 17 fd bd 8b c0 bb 3c e2 99 34 3d 16 91 7f bd
       -0.12358039 0.02291896 0.044092067 -0.062394224
000330 5b ec 19 3d 32 59 b0 3d 1c 61 d8 3d d3 fe 5a 3c
       0.03757892 0.08610763 0.10565397 0.013366419
000340 55 46 b8 bc 1c f2 66 bd 92 bc 6e bc ee 59 3d 3c
       -0.022494474 -0.056383237 -0.014571326 0.011557085
000350 30 ea 44 3c 4a 4f cc bc 67 67 3c 3c 17 20 4e bc
       0.012018725 -0.024940152 0.011499262 -0.012580893
000360 62 41 86 bb b0 66 57 bb 53 59 25 3c ce 78 0f 3c
       -0.0040971497 -0.0032867603 0.010092097 0.008756829
000370 3b cd 98 3a 77 16 83 bc 1d de 80 3c da 38 ad 3c
       0.0011657843 -0.016001923 0.015730912 0.021145273
000380 fd e7 a0 3b e4 5e cf 3b 90 4d df 3b f3 9c 30 bc
       0.0049104677 0.0063284505 0.006814666 -0.010779607
000390 a5 05 cd b9 54 0b 2f bc 6f 12 31 bc c2 08 11 bc
       -0.00039104852 -0.010683853 -0.010807618 -0.008852186
0003a0 7c de c3 3b 8f ca 9e bc 75 50 39 bc f4 23 3a bc
       0.00597745 -0.019383697 -0.011310686 -0.011361111
0003b0 c4 1d 04 bc d1 d7 0c 3c 58 d4 10 39 2a 97 a6 3c
       -0.008063737 0.0085963765 0.00013812014 0.020335753
0003c0 8c 6b 1e 3c 8b df 98 3c 23 0f 0d bb 77 35 e7 bb
       0.009669196 0.018661281 -0.0021523915 -0.007055934
0003d0 55 95 58 bb 45 1d bf bc 6d 60 06 3c 5d 37 f6 3b
       -0.0033047993 -0.023329386 0.008201701 0.007513924
0003e0 f4 7a 5f bc 2b 7e 5a bc 91 05 c5 bc 6b 34 2b 3d
       -0.013640154 -0.013335745 -0.024050506 0.041798037
0003f0 c0 fc 74 bb c4 d2 5e 3c bd 50 14 3c b0 40 04 3b
       -0.0037382096 0.013600055 0.009052453 0.0020180158

encoder.log_var_layer.bias f4 [30]
000000 fa 41 68 bd e3 47 20 bd d5 21 79 bd 60 40 9d bc
       -0.056703545 -0.039131057 -0.06082328 -0.019195735
000010 f7 1c 0e bd 2a 7e 25 bf 0c 8f 68 bd 8c 77 6e bd
       -0.03469559 -0.64645636 -0.056777045 -0.058219478
000020 75 d5 5c bd c8 b5 9c bd 9e 4c c9 bd 2e 2a ed bc
       -0.053914506 -0.076518595 -0.09829067 -0.028950777
000030 5c 1e c7 bd 66 09 68 bd 40 32 f9 bc 12 de 36 bd
       -0.097225875 -0.056649588 -0.030419469 -0.044645377
000040 a6 2e 8a bd 6b 6c d4 bd 2f e8 76 bd b4 e0 d9 bc
       -0.06747179 -0.103722416 -0.06028002 -0.026596405
000050 44 36 81 bd 6d d5 07 be 8e cc b2 bd 1a 21 58 bd
       -0.063091785 -0.13265009 -0.08730422 -0.052765943
000060 f3 88 4a bd d3 5b 26 bd 9c b8 83 bd e7 c3 79 bd
       -0.04944701 -0.040614914 -0.06431696 -0.060977843
000070 7c 7b 96 bc af 48 39 bd
       -0.018369429 -0.045235332

decoder.linear_layer.weight f4 [420, 30]
000000 ac 64 71 bb 12 c0 03 3e 08 c1 9c bc 3c 4c 58 3c
       -0.0036833687 0.12866238 -0.019135013 0.013201769
000010 75 1c 42 be 0f b5 7b 3e fd a8 9a 3e 09 ce a4 3d
       -0.18956168 0.24580787 0.30207053 0.080471106
000020 e6 ed 41 be fc 6e 37 be 10 74 ee 3d 74 7d 01 be
       -0.18938407 -0.17913431 0.11643231 -0.12645513
000030 d7 96 9f 3d c9 bc e4 3d 02 2c a5 bc c4 0f 19 3e
       0.07792442 0.111688204 -0.020162586 0.1494742
000040 81 b1 f9 3d 1b a0 02 3d e5 db d5 3c 49 bf 97 bd
       0.12192059 0.03189097 0.02610583 -0.074095316
000050 70 44 df 3d 15 c3 89 bd 2b f2 35 3b 25 65 6f bd
       0.10901725 -0.06726662 0.0027762752 -0.05844607
000060 f8 bf 96 bc 8b 8c 77 3c 35 75 c5 bd 53 73 88 3d
       -0.018402085 0.015109192 -0.09641496 0.06662621
000070 98 9b 4a 3d 64 9e 33 3e 14 02 44 3b de a6 e9 3d
       0.049464792 0.1754089 0.0029908465 0.114087805
000080 c6 5c 18 3d 9f 81 30 be d1 2a 24 3e a3 b7 11 be
       0.03719785 -0.17236947 0.16031958 -0.14230208
000090 27 c8 42 bd d8 75 bc bc e9 fe 59 3d e3 55 75 bc
       -0.04755416 -0.023005411 0.053221617 -0.01497409
0000a0 23 bb 23 be fc 1e 3e 3e 52 4e 1d bd cc fb 5d bc
       -0.15989356 0.18566507 -0.03840477 -0.013548803
0000b0 b9 fd 6a be 93 97 a1 bc f4 88 22 be 59 cb a9 bd
       -0.2294835 -0.019725597 -0.15872556 -0.082907386
0000c0 a6 24 d9 bd 4e b1 a7 3d a8 cc f1 bd 99 f9 b6 bd
       -0.10602693 0.08188115 -0.11806613 -0.08934326
0000d0 af 9d 53 bd 77 67 5d 3d 5b 4d 39 be 09 92 33 bd
       -0.05166405 0.05405375 -0.18095915 -0.04384044
0000e0 95 1b 81 bd d1 5b c7 bd 41 8b 0b 3e 1b 84 e9 3c
       -0.06304089 -0.097343095 0.1362734 0.028505376
0000f0 d9 1d 07 3d 05 5b d0 bd 7d 45 f2 3c 14 d6 08 3e
       0.03298745 -0.101736106 0.02957415 0.13362914
000100 3d ba 02 3d 2a bc 76 be ef 40 73 be a5 ac df bd
       0.031915892 -0.24095216 -0.23755239 -0.10921601
000110 2a 9d c5 bd e5 76 22 be f9 39 28 be 0e 23 0b be
       -0.09649117 -0.15865667 -0.16428365 -0.13587591
000120 75 24 b6 3d 61 64 38 3e 62 65 69 bd c0 40 57 3d
       0.088936724 0.18007042 -0.05698145 0.052551985
000130 8f 05 3d be 38 fa e7 3d c4 fc d8 3d 55 0d 1e bd
       -0.18459152 0.11327022 0.10595086 -0.038586933
000140 c2 f7 20 3e 34 c4 3f 3e 8d 47 15 be 93 01 fe bd
       0.15719512 0.1872719 -0.14578076 -0.12402644
000150 35 83 a0 bd c2 01 28 bd fb c4 c5 3d 0f 77 2c be
       -0.07837526 -0.0410173 0.09656712 -0.16842292
000160 b8 fc 91 bd 51 a2 db 3a 4e 6d 93 bc eb 5c 94 bd
       -0.071282804 0.0016756748 -0.017996456 -0.07244285
000170 16 d4 22 3d 38 cd 92 bd 12 4a a9 3d 62 e5 6c 3e
       0.039753042 -0.071680486 0.08266081 0.23134378
000180 2e a9 33 bd 35 8b 97 3d ba 7a 10 be e5 7d 45 be
       -0.043862514 0.073995985 -0.14109316 -0.19286306
000190 a1 f7 25 be fe 4e 1f 3e 63 72 07 3d db 08 f7 3d
       -0.16207744 0.15557477 0.033068072 0.12062236
0001a0 d8 95 e2 3c 49 59 12 bd c0 fc fa 3d ea 66 7b 3d
       0.027659342 -0.03572968 0.122552395 0.061377443
0001b0 9a 15 38 be 37 64 b8 bd d3 07 03 3e c9 33 cb 3d
       -0.1797699 -0.090034895 0.12795953 0.099219866
0001c0 07 aa 1e 3e 5e 62 8a 3d cf 7a 41 bb 5a 53 2c 3d
       0.15494548 0.06757043 -0.0029522663 0.042071678
0001d0 16 7b 8a bd 7d 29 81 be ed 78 2e 3e 61 e6 73 bd
       -0.06761758 -0.25226966 0.17038317 -0.05954588
0001e0 90 9a d7 bd af 16 68 3d 15 4b 20 bd fb 1b 22 be
       -0.10527527 0.056662258 -0.039134104 -0.15830986
0001f0 27 df e1 bd b4 99 8d be 76 0e 31 bd 54 4a 2b 3e
       -0.11028891 -0.2765633 -0.04322668 0.16727573
000200 21 f8 2d 3d 65 aa ab bd 2e e9 aa 3d 16 22 aa 3d
       0.042472962 -0.083821096 0.08345257 0.083072826
000210 78 cc 29 3e 7f 45 24 3d 2f 6b 1c be 80 62 21 3e
       0.16581905 0.04010534 -0.15275262 0.15760231
000220 4a cc 1a 3e 44 c6 e2 3d 92 1f ba bd 48 a9 33 3e
       0.15116993 0.110729724 -0.09088053 0.17545044
000230 09 05 cc bd 8c 28 ff bd a3 14 06 bc c1 c5 65 3d
       -0.09961898 -0.124589056 -0.008183631 0.056096796
000240 4b 3e 2f bd 8a fe a0 3d d9 d5 47 bd a8 eb 72 bd
       -0.042784017 0.078610495 -0.048787925 -0.05930677
000250 d2 33 1d 3e 64 f7 07 be dd f2 48 3d fa ca eb bc
       0.15351799 -0.13277966 0.049059737 -0.02878331
000260 d0 f4 8e bd 21 0f bb bc 0d 54 86 3d 31 c4 ec 3e
       -0.06980288 -0.022834362 0.06559 0.46243432
000270 59 16 0a be 9c 98 e0 bb 6d 35 5e 3d f0 e1 bf bd
       -0.13485087 -0.00685413 0.05425017 -0.09369266
000280 d9 0f 8b bd d1 b7 0f be 0e eb f3 bd bb 01 49 3d
       -0.06790132 -0.14034964 -0.119100675 0.049073916
000290 6c b2 69 bd 95 79 0c 3e b7 19 37 bd 26 65 6d bd
       -0.057054922 0.13718255 -0.044702258 -0.05795779
0002a0 71 8d 7d 3d a3 8b 89 3d 94 e3 3a 3e e0 05 d0 3d
       0.061902467 0.06716087 0.18250877 0.101573706
0002b0 21 8d f7 3d 00 7b 8a bd b0 41 50 bc 61 53 d1 bd
       0.12087465 -0.06761742 -0.012710974 -0.102209814
0002c0 a9 f9 02 be 85 f3 77 bd 65 4a ab bd 38 42 0a 3e
       -0.1279055 -0.060534973 -0.08363799 0.13501823
0002d0 11 ef b3 3c fd d3 0d 3e 85 97 1a be 00 49 25 3c
       0.021964582 0.13850398 -0.15096863 0.010088205
0002e0 9f 48 13 be e2 a0 ba 3e 0f f7 b0 bd 74 3f 6b bd
       -0.14383171 0.3645087 -0.08640873 -0.05743356
0002f0 a5 81 21 be d4 ab 49 be 7e 45 55 bd 59 2c 56 3d
       -0.15772112 -0.19694453 -0.052068226 0.052288387
000300 d4 52 19 3e 9d 31 d7 3d 08 9b a4 bd a0 15 d7 bc
       0.14973003 0.1050751 -0.08037382 -0.026255429
000310 94 87 d1 bb 13 ab 64 3e de 4b ec bd d4 d4 a5 bd
       -0.006394336 0.22330885 -0.11537908 -0.08097234
000320 d8 ae 08 3e e5 15 50 3e 09 68 50 bd 99 13 06 3e
       0.13347948 0.20320852 -0.050880466 0.13093413
000330 05 96 1c 3d 94 8f 5a be 50 6d 8d bd 6a f4 c5 bd
       0.038229007 -0.21343833 -0.06905615 -0.09665759
000340 82 db 8c bc 26 43 ec bd cd 09 c7 3c c7 e7 99 bc
       -0.017194513 -0.11536245 0.024296666 -0.018787278
000350 ac 8a d5 bd ef 46 90 3d 77 d0 04 bc ed 0a bd 3e
       -0.1042684 0.070447795 -0.0081063425 0.36922398
000360 ba 7e 0c bd bc 31 c1 3d 0f 5d 16 3e ff 38 73 bd
       -0.034300543 0.09433314 0.14683937 -0.059380528
000370 dd 1a 29 be b3 7c e5 3d 29 d1 9a 3d 25 b5 d7 3d
       -0.16514154 0.11205425 0.075594254 0.105325975
000380 60 18 ae 3d 86 eb 01 3e bf a6 8f 3d 6e 79 2c be
       0.08500743 0.12687501 0.07014226 -0.16843197
000390 29 18 06 bd 4a da bf 3d 79 a6 f2 3b 47 cd 4c be
       -0.032737885 0.09367807 0.007405099 -0.20000182
0003a0 ab 6b 90 bd 3c 92 2f be b1 8f a1 bd f9 81 e9 3d
       -0.07051786 -0.17145628 -0.07888735 0.114017434
0003b0 61 57 fd 3d 47 60 ef bd 0f 81 51 bc d6 88 ae 3d
       0.12370182 -0.11688285 -0.012787118 0.08522193
0003c0 1e 98 c7 bd f1 fa de 3d b1 ad 75 3d 5e 31 2f bc
       -0.09745811 0.10887707 0.0599801 -0.010692922
0003d0 d9 76 05 be eb 10 07 3f 9f 57 ab bd 53 d0 89 bc
       -0.13033618 0.5276019 -0.08366322 -0.01682297
0003e0 10 b7 60 3e 9c 23 0a 3d 32 41 78 be d3 a4 25 3e
       0.21944833 0.033725366 -0.2424362 0.16176157
0003f0 82 c0 a5 3d e2 f3 f0 bb 74 36 c1 bd f9 ff 08 bc
       0.080933586 -0.007353292 -0.09434214 -0.00836181
